log/MUJOCO_ANT_DIR_12_v4_/Ant-v3/1/model/model_qf_task_7647.pth (torch, 27411 bytes, 4 tensors)

base.fc0.weight f4 [400, 12]
0	0xbd11f000	-0.035629272
1	0x3ce6a2a3	0.028153723
2	0xbd398880	-0.045296192
3	0x3d18bec2	0.037291296
4	0x3c52698d	0.012842548
5	0x3ccc856a	0.02496596
6	0x3cb6a6c3	0.022296315
7	0xb8e9accd	-0.000111424924
8	0xbcf54200	-0.029938698
9	0xbc8c6dd0	-0.017142206
10	0xbcf21df7	-0.029555304
11	0x3d286d3b	0.041119795
12	0xbd0d3273	-0.03447194
13	0x3ccb896d	0.024845803
14	0xbd3e41cd	-0.04644947
15	0x3c4b63ad	0.012413901
16	0xbcf8129a	-0.030282307
17	0xbd1b44d2	-0.03790743
18	0xbc9bab10	-0.019002467
19	0x3cb90423	0.02258498
20	0xbc6932c7	-0.014233298
21	0xbca9b75d	-0.020717317
22	0xbd48f768	-0.04906407
23	0x3d0da935	0.034585197
24	0x3d356333	0.044284057
25	0xbcd91c8d	-0.026502872
26	0x3d48a1c3	0.048982393
27	0x3cdf6980	0.027271986
28	0x3c9c2c90	0.019064218
29	0xbd13aab8	-0.036051482
30	0xbd0b6c03	-0.034038555
31	0xbb91ab33	-0.0044454574
32	0xbd25472f	-0.04035109
33	0x3cc3701d	0.02385717
34	0xbd118542	-0.035527475
35	0x3d03ff00	0.03222561
36	0xbcf9dfa3	-0.030502146
37	0x3c920d87	0.017828716
38	0xba782333	-0.00094656943
39	0x3d2a103f	0.0415194
40	0x3d0fa687	0.035070922
41	0x3bc83b4d	0.006110585
42	0xbd3c2528	-0.045933872
43	0xbd0e4c2f	-0.034740623
44	0xbd3cf790	-0.04613453
45	0x3d2a9672	0.041647382
46	0x3d00e4ed	0.03146832
47	0x3cf54ae0	0.02994293
48	0xbc3d66e0	-0.011560172
49	0x3cd219bd	0.025647039
50	0xbc6e3fe7	-0.014541603
51	0x3ad0edcd	0.0015940011
52	0xbc76e16d	-0.015068394
53	0x3d2bfa72	0.04198689
54	0x3c389473	0.011265862
55	0xbc7d2bad	-0.015452308
56	0x3c65b68d	0.014020574
57	0xbd1f8878	-0.038948506
58	0x3cd46713	0.025928056
59	0xbcc6e473	-0.024278855
60	0xbd1b78f7	-0.037957158
61	0x3bcb4f9a	0.0062045576
62	0x3d0279bd	0.03185438
63	0x3cc3bf77	0.023895008
64	0x3cb4a54d	0.022051478
65	0x3c89a9da	0.016804624
66	0xbc76ce7a	-0.015063876
67	0xbcf6b1e0	-0.030114114
68	0xbcce92c3	-0.025216466
69	0xbce98e20	-0.028510153
70	0xbb00eb33	-0.001967144
71	0x3cbeb513	0.023279702
72	0x3d15762f	0.03648966
73	0x3d1c2e38	0.038130015
74	0xbc8292c0	-0.015939116
75	0x3c6519b3	0.013983178
76	0xbae31533	-0.0017325043
77	0x3bc23dda	0.0059277834
78	0x3c8c3eea	0.017119844
79	0x3c19a507	0.0093777245
80	0xbbb00b1a	-0.005372417
81	0x3ca2238a	0.019792337
82	0x3c1de747	0.00963766
83	0x3c428020	0.011871368
84	0xbd04acb7	-0.032391276
85	0xbd27709d	-0.04087888
86	0xbce014fd	-0.027353758
87	0xbc2d171a	-0.01056459
88	0x3ca68d90	0.020331174
89	0xbd3cacaa	-0.046063103
90	0x3d3f1e85	0.046659965
91	0xbc9b934d	-0.018991137
92	0xb90c8b33	-0.00013403296
93	0xbc6d27ed	-0.014474851
94	0xbca3ac0d	-0.019979501
95	0x3d483892	0.048882075
96	0xbd4333d8	-0.047656864
97	0x3d158d82	0.036511905
98	0xbcf7a0a7	-0.030227972
99	0xbd1ae9fb	-0.037820797
100	0xbc42926d	-0.011875731
101	0xbd0d9cf2	-0.034573503
102	0x3ca17897	0.019710822
103	0xbd486230	-0.048921764
104	0xbd20f73f	-0.039298292
105	0x3d0d0350	0.034426987
106	0x3d2ffe48	0.04296711
107	0xbc9b2ea7	-0.018943144
108	0x3d041645	0.0322478
109	0x3cb6b180	0.022301435
110	0xbceb6563	-0.028734868
111	0xbc62e887	-0.013849384
112	0x3cf514cd	0.029917145
113	0x3ce54ffa	0.027992237
114	0x3cdf54ba	0.02726208
115	0xbd0076fb	-0.03136347
116	0x3d49c125	0.049256463
117	0x3d0464e3	0.032322776
118	0xbd165065	-0.036697764
119	0xbce3d003	-0.027809149
120	0x3d0de3bf	0.034641024
121	0x3d495ead	0.049162555
122	0xbc8714ca	-0.016489405
123	0xbd2eb24a	-0.0426505
124	0xbcaf70bd	-0.021416062
125	0x3c3f09cd	0.0116600515
126	0x3cb64da3	0.022253817
127	0x3d16ea85	0.03684475
128	0x3d3b69fd	0.045755375
129	0x3bef1c40	0.007297069
130	0x3d08e2c8	0.0334194
131	0x3b1ecf80	0.0024232566
132	0x3d1b9182	0.037980564
133	0x3d1718b5	0.036888797
134	0xbbfd83cd	-0.007736659
135	0xbc81c13d	-0.015839214
136	0xba9bd967	-0.0011890352
137	0x3c8b8a9a	0.017033864
138	0x3d25981a	0.04042826
139	0xbcc4b96d	-0.0240142
140	0x3d344ab5	0.04401656
141	0xbc28a333	-0.010292816
142	0x3bafb2c0	0.005361885
143	0x3ca12900	0.01967287
144	0xbc931bb3	-0.017957544
145	0xbc809340	-0.015695214
146	0x3d02b8cd	0.03191452
147	0xbbae86cd	-0.005326128
148	0x3c9d8d37	0.019232376
149	0xbd3f567d	-0.04671334
150	0xbd1a47d2	-0.03766615
151	0xbcca708a	-0.024711866
152	0xbd33168f	-0.043722685
153	0x3d3e03cb	0.046390336
154	0xbd0a0c35	-0.033703048
155	0x3bb9d50d	0.0056711496
156	0xbd2a9cff	-0.04165363
157	0x3c88c583	0.016695743
158	0x3c5c23c7	0.013436264
159	0x3c998b90	0.018743306
160	0x3ce0c5ca	0.027438063
161	0xbb2dc99a	-0.002651787
162	0xbd1b3e77	-0.037901368
163	0xbc931703	-0.017955309
164	0x3d2a6d0f	0.041607913
165	0x3cf0c7e0	0.029392183
166	0xbcdd84d7	-0.027040882
167	0x3cc1d147	0.023659362
168	0xbcd769c7	-0.026295556
169	0xbd3a4672	-0.045477338
170	0xbc63c3c0	-0.013901651
171	0xbd16079d	-0.036628354
172	0xbcf52850	-0.029926449
173	0xbc7b800d	-0.015350354
174	0x3cb3daf7	0.021954997
175	0x3d138e0f	0.03602415
176	0x3d0f4cbd	0.034985293
177	0xbc242c80	-0.010020375
178	0x3cc950ca	0.024574656
179	0xbd4998a7	-0.049217846
180	0x3d1d5667	0.038412478
181	0x3d3d6c60	0.046245933
182	0xba459333	-0.0007536888
183	0xbd25bdd7	-0.04046425
184	0x3ce9856a	0.028506
185	0xba59eb33	-0.00083129405
186	0x3c5c1db3	0.013434815
187	0x3d40cbb3	0.047069263
188	0x3ca53cc0	0.02017057
189	0xbd0bee30	-0.0341627
190	0xbcb775da	-0.022395063
191	0xbd3d12e5	-0.046160597
192	0xbd21e157	-0.03952154
193	0x3d02b61f	0.031911965
194	0x3d0a04ed	0.033696104
195	0x3c548c2d	0.012972874
196	0xbd0f30b3	-0.034958553
197	0x3c95d1c0	0.018288493
198	0x3cb81c57	0.022474451
199	0xbc7a22e7	-0.01526711
200	0x3bd2e740	0.0064362586
201	0x3cb270d3	0.021782314
202	0x3cdf236a	0.027238566
203	0x3cb23fd3	0.02175895
204	0x3bbcc94d	0.0057613016
205	0x39dcb0cd	0.00042093397
206	0x3d3cfaa3	0.046137463
207	0x3d0ceac2	0.03440357
208	0x3cc72163	0.024307912
209	0xbcdfcc23	-0.02731902
210	0x3d00dd3b	0.03146098
211	0xbd2d5068	-0.04231301
212	0x3ced7f2a	0.0289913
213	0xbd488d20	-0.048962712
214	0x3c0578a0	0.008146435
215	0x3d409560	0.047017455
216	0xbd46f7d0	-0.048576176
217	0xbcafbd53	-0.021452582
218	0x3d195410	0.037433684
219	0x3d4098af	0.04702061
220	0x3d07dfcd	0.033172417
221	0x3d190332	0.037356563
222	0x3c0b8f0d	0.008517993
223	0x3d4bf3c3	0.049793016
224	0xbccdb5e3	-0.025111144
225	0x3ca080ed	0.019592727
226	0x3ca3c1c7	0.019989861
227	0xbd1e548d	-0.038654853
228	0xb9c61d9a	-0.00037787558
229	0xbc7c71ba	-0.015407974
230	0xbd203bc7	-0.039119508
231	0x3ceb0d67	0.028692914
232	0x3c1ad147	0.00944931
233	0x3c38ec47	0.011286802
234	0xbc891f0a	-0.016738433
235	0x3d03fea2	0.03222526
236	0x3ba819e7	0.005130041
237	0xbce4fda7	-0.027952982
238	0x3d09659b	0.033544164
239	0x3d45c138	0.04827997
240	0xbca294a7	-0.019846274
241	0xbc9a0a13	-0.018803632
242	0x3cb47340	0.022027612
243	0xbd263a0a	-0.040582694
244	0xbcdc07a0	-0.026859105
245	0x3cd9d7c0	0.026592135
246	0xbcf7dd03	-0.030256754
247	0x3ba67b1a	0.005080593
248	0xbcb966ba	-0.022631992
249	0xbd2e869d	-0.042608846
250	0x3d2cb7fa	0.04216764
251	0xbbf4afc0	-0.00746724
252	0x3d1c9280	0.03822565
253	0x3d20ac18	0.03922662
254	0xbc111c20	-0.008856803
255	0xbd1b3e6b	-0.037901323

base.fc0.bias f4 [400]
0	0x3dcccccd	0.1
1	0x3dcccccd	0.1
2	0x3dcccccd	0.1
3	0x3dcccccd	0.1
4	0x3dcccccd	0.1
5	0x3dcccccd	0.1
6	0x3dcccccd	0.1
7	0x3dcccccd	0.1
8	0x3dcccccd	0.1
9	0x3dcccccd	0.1
10	0x3dcccccd	0.1
11	0x3dcccccd	0.1
12	0x3dcccccd	0.1
13	0x3dcccccd	0.1
14	0x3dcccccd	0.1
15	0x3dcccccd	0.1
16	0x3dcccccd	0.1
17	0x3dcccccd	0.1
18	0x3dcccccd	0.1
19	0x3dcccccd	0.1
20	0x3dcccccd	0.1
21	0x3dcccccd	0.1
22	0x3dcccccd	0.1
23	0x3dcccccd	0.1
24	0x3dcccccd	0.1
25	0x3dcccccd	0.1
26	0x3dcccccd	0.1
27	0x3dcccccd	0.1
28	0x3dcccccd	0.1
29	0x3dcccccd	0.1
30	0x3dcccccd	0.1
31	0x3dcccccd	0.1
32	0x3dcccccd	0.1
33	0x3dcccccd	0.1
34	0x3dcccccd	0.1
35	0x3dcccccd	0.1
36	0x3dcccccd	0.1
37	0x3dcccccd	0.1
38	0x3dcccccd	0.1
39	0x3dcccccd	0.1
40	0x3dcccccd	0.1
41	0x3dcccccd	0.1
42	0x3dcccccd	0.1
43	0x3dcccccd	0.1
44	0x3dcccccd	0.1
45	0x3dcccccd	0.1
46	0x3dcccccd	0.1
47	0x3dcccccd	0.1
48	0x3dcccccd	0.1
49	0x3dcccccd	0.1
50	0x3dcccccd	0.1
51	0x3dcccccd	0.1
52	0x3dcccccd	0.1
53	0x3dcccccd	0.1
54	0x3dcccccd	0.1
55	0x3dcccccd	0.1
56	0x3dcccccd	0.1
57	0x3dcccccd	0.1
58	0x3dcccccd	0.1
59	0x3dcccccd	0.1
60	0x3dcccccd	0.1
61	0x3dcccccd	0.1
62	0x3dcccccd	0.1
63	0x3dcccccd	0.1
64	0x3dcccccd	0.1
65	0x3dcccccd	0.1
66	0x3dcccccd	0.1
67	0x3dcccccd	0.1
68	0x3dcccccd	0.1
69	0x3dcccccd	0.1
70	0x3dcccccd	0.1
71	0x3dcccccd	0.1
72	0x3dcccccd	0.1
73	0x3dcccccd	0.1
74	0x3dcccccd	0.1
75	0x3dcccccd	0.1
76	0x3dcccccd	0.1
77	0x3dcccccd	0.1
78	0x3dcccccd	0.1
79	0x3dcccccd	0.1
80	0x3dcccccd	0.1
81	0x3dcccccd	0.1
82	0x3dcccccd	0.1
83	0x3dcccccd	0.1
84	0x3dcccccd	0.1
85	0x3dcccccd	0.1
86	0x3dcccccd	0.1
87	0x3dcccccd	0.1
88	0x3dcccccd	0.1
89	0x3dcccccd	0.1
90	0x3dcccccd	0.1
91	0x3dcccccd	0.1
92	0x3dcccccd	0.1
93	0x3dcccccd	0.1
94	0x3dcccccd	0.1
95	0x3dcccccd	0.1
96	0x3dcccccd	0.1
97	0x3dcccccd	0.1
98	0x3dcccccd	0.1
99	0x3dcccccd	0.1
100	0x3dcccccd	0.1
101	0x3dcccccd	0.1
102	0x3dcccccd	0.1
103	0x3dcccccd	0.1
104	0x3dcccccd	0.1
105	0x3dcccccd	0.1
106	0x3dcccccd	0.1
107	0x3dcccccd	0.1
108	0x3dcccccd	0.1
109	0x3dcccccd	0.1
110	0x3dcccccd	0.1
111	0x3dcccccd	0.1
112	0x3dcccccd	0.1
113	0x3dcccccd	0.1
114	0x3dcccccd	0.1
115	0x3dcccccd	0.1
116	0x3dcccccd	0.1
117	0x3dcccccd	0.1
118	0x3dcccccd	0.1
119	0x3dcccccd	0.1
120	0x3dcccccd	0.1
121	0x3dcccccd	0.1
122	0x3dcccccd	0.1
123	0x3dcccccd	0.1
124	0x3dcccccd	0.1
125	0x3dcccccd	0.1
126	0x3dcccccd	0.1
127	0x3dcccccd	0.1
128	0x3dcccccd	0.1
129	0x3dcccccd	0.1
130	0x3dcccccd	0.1
131	0x3dcccccd	0.1
132	0x3dcccccd	0.1
133	0x3dcccccd	0.1
134	0x3dcccccd	0.1
135	0x3dcccccd	0.1
136	0x3dcccccd	0.1
137	0x3dcccccd	0.1
138	0x3dcccccd	0.1
139	0x3dcccccd	0.1
140	0x3dcccccd	0.1
141	0x3dcccccd	0.1
142	0x3dcccccd	0.1
143	0x3dcccccd	0.1
144	0x3dcccccd	0.1
145	0x3dcccccd	0.1
146	0x3dcccccd	0.1
147	0x3dcccccd	0.1
148	0x3dcccccd	0.1
149	0x3dcccccd	0.1
150	0x3dcccccd	0.1
151	0x3dcccccd	0.1
152	0x3dcccccd	0.1
153	0x3dcccccd	0.1
154	0x3dcccccd	0.1
155	0x3dcccccd	0.1
156	0x3dcccccd	0.1
157	0x3dcccccd	0.1
158	0x3dcccccd	0.1
159	0x3dcccccd	0.1
160	0x3dcccccd	0.1
161	0x3dcccccd	0.1
162	0x3dcccccd	0.1
163	0x3dcccccd	0.1
164	0x3dcccccd	0.1
165	0x3dcccccd	0.1
166	0x3dcccccd	0.1
167	0x3dcccccd	0.1
168	0x3dcccccd	0.1
169	0x3dcccccd	0.1
170	0x3dcccccd	0.1
171	0x3dcccccd	0.1
172	0x3dcccccd	0.1
173	0x3dcccccd	0.1
174	0x3dcccccd	0.1
175	0x3dcccccd	0.1
176	0x3dcccccd	0.1
177	0x3dcccccd	0.1
178	0x3dcccccd	0.1
179	0x3dcccccd	0.1
180	0x3dcccccd	0.1
181	0x3dcccccd	0.1
182	0x3dcccccd	0.1
183	0x3dcccccd	0.1
184	0x3dcccccd	0.1
185	0x3dcccccd	0.1
186	0x3dcccccd	0.1
187	0x3dcccccd	0.1
188	0x3dcccccd	0.1
189	0x3dcccccd	0.1
190	0x3dcccccd	0.1
191	0x3dcccccd	0.1
192	0x3dcccccd	0.1
193	0x3dcccccd	0.1
194	0x3dcccccd	0.1
195	0x3dcccccd	0.1
196	0x3dcccccd	0.1
197	0x3dcccccd	0.1
198	0x3dcccccd	0.1
199	0x3dcccccd	0.1
200	0x3dcccccd	0.1
201	0x3dcccccd	0.1
202	0x3dcccccd	0.1
203	0x3dcccccd	0.1
204	0x3dcccccd	0.1
205	0x3dcccccd	0.1
206	0x3dcccccd	0.1
207	0x3dcccccd	0.1
208	0x3dcccccd	0.1
209	0x3dcccccd	0.1
210	0x3dcccccd	0.1
211	0x3dcccccd	0.1
212	0x3dcccccd	0.1
213	0x3dcccccd	0.1
214	0x3dcccccd	0.1
215	0x3dcccccd	0.1
216	0x3dcccccd	0.1
217	0x3dcccccd	0.1
218	0x3dcccccd	0.1
219	0x3dcccccd	0.1
220	0x3dcccccd	0.1
221	0x3dcccccd	0.1
222	0x3dcccccd	0.1
223	0x3dcccccd	0.1
224	0x3dcccccd	0.1
225	0x3dcccccd	0.1
226	0x3dcccccd	0.1
227	0x3dcccccd	0.1
228	0x3dcccccd	0.1
229	0x3dcccccd	0.1
230	0x3dcccccd	0.1
231	0x3dcccccd	0.1
232	0x3dcccccd	0.1
233	0x3dcccccd	0.1
234	0x3dcccccd	0.1
235	0x3dcccccd	0.1
236	0x3dcccccd	0.1
237	0x3dcccccd	0.1
238	0x3dcccccd	0.1
239	0x3dcccccd	0.1
240	0x3dcccccd	0.1
241	0x3dcccccd	0.1
242	0x3dcccccd	0.1
243	0x3dcccccd	0.1
244	0x3dcccccd	0.1
245	0x3dcccccd	0.1
246	0x3dcccccd	0.1
247	0x3dcccccd	0.1
248	0x3dcccccd	0.1
249	0x3dcccccd	0.1
250	0x3dcccccd	0.1
251	0x3dcccccd	0.1
252	0x3dcccccd	0.1
253	0x3dcccccd	0.1
254	0x3dcccccd	0.1
255	0x3dcccccd	0.1

last.weight f4 [3, 400]
0	0xbb20efa9	-0.002455691
1	0x3ac86899	0.0015289962
2	0xb9fc7b75	-0.00048157168
3	0x3aaad3c2	0.001303308
4	0x3a3f5bb8	0.0007299739
5	0xba9a5656	-0.0011774998
6	0xb9fa43cf	-0.00047734237
7	0xbb17e6b4	-0.0023178281
8	0xb90bdb33	-0.00013337731
9	0x3af5954c	0.001873651
10	0x3b2ad83a	0.0026068822
11	0xbb1023b3	-0.0021993935
12	0x3aadadd0	0.0013250653
13	0xbb0abbf0	-0.0021169148
14	0x3aba9405	0.0014234787
15	0x3b37923a	0.0028010742
16	0x3b175336	0.002309037
17	0x3a182e5c	0.0005805248
18	0x38daced9	0.000104335784
19	0xba2bb80e	-0.00065505586
20	0x3a541511	0.00080902973
21	0xba438f85	-0.0007460046
22	0x3a8931ea	0.0010467146
23	0xb986eef6	-0.0002573651
24	0x3acb3c54	0.001550565
25	0x3b00c4ce	0.0019648555
26	0x3a920518	0.0011140434
27	0x3b001215	0.0019542028
28	0xb9f17d2b	-0.0004606036
29	0x3b01934a	0.001977163
30	0x3ac62b49	0.0015119101
31	0xbaa14499	-0.0012303769
32	0x3aac3d5d	0.0013140846
33	0xbb17efa3	-0.0023183606
34	0x3a8da5ed	0.0010806896
35	0xb6999687	-4.577279e-06
36	0x3b428ff0	0.0029687844
37	0xba27a15e	-0.000639459
38	0xb9919940	-0.00027770735
39	0x3abea4b5	0.0014544936
40	0x3a9b80ef	0.0011863987
41	0xba625694	-0.0008634117
42	0xbb342170	-0.002748575
43	0x39166906	0.00014344239
44	0xba99c0dd	-0.0011730451
45	0x3af517cd	0.001869911
46	0xbb3a1fc4	-0.0028400281
47	0x397a59b2	0.00023875272
48	0xb937dc52	-0.00017534316
49	0xb9fdf927	-0.00048441553
50	0xb9999e4e	-0.0002930038
51	0xbb405a78	-0.0029350799
52	0x3b05f6b3	0.0020441234
53	0xbb403232	-0.0029326794
54	0xb9dfff7d	-0.00042724228
55	0xbb39dd4a	-0.0028360658
56	0xba03cb33	-0.00050275325
57	0x3a777419	0.0009439602
58	0xbb3e4195	-0.002903079
59	0x3b0a3769	0.0021090156
60	0xbacfdcc7	-0.0015858643
61	0xbb35c49b	-0.0027735594
62	0xbac68dc8	-0.0015148455
63	0xb98f1b48	-0.00027295412
64	0x3b29976e	0.0025877613
65	0xb958bc11	-0.00020669425
66	0xb913844a	-0.00014068294
67	0x3a660f8b	0.000877612
68	0x3b09b966	0.0021015047
69	0x3b35d99e	0.0027748118
70	0xba031baa	-0.00050013757
71	0xbadf0d42	-0.0017017501
72	0x3aa1673e	0.0012314094
73	0xba200262	-0.00061038707
74	0x3b1ad35f	0.0023624522
75	0xb997abf8	-0.0002892909
76	0xbb214838	-0.0024609696
77	0xbac2fec7	-0.0014876955
78	0xba111cfa	-0.0005535629
79	0x394f47b6	0.00019767773
80	0x3a6baef2	0.00089906075
81	0xbaa4f1a0	-0.0012584217
82	0x3b2e6529	0.002661059
83	0xb982eeb0	-0.00024973368
84	0x3ad30383	0.0016099069
85	0xb9fe9af6	-0.0004856211
86	0xbacdfd45	-0.0015715739
87	0xbadb84e3	-0.0016747977
88	0x3b373ab7	0.002795858
89	0xba9616a2	-0.0011450837
90	0x3b0f50f3	0.0021868318
91	0x3ac6d8a6	0.0015170767
92	0xbabe7c1a	-0.0014532835
93	0xbaa2828f	-0.0012398529
94	0x3a8040ce	0.0009784938
95	0x3913e589	0.00014104521
96	0xbb0a6799	-0.0021118878
97	0xbacf4fbe	-0.0015816612
98	0x3acc1b84	0.0015572165
99	0xbb37ef93	-0.0028066381
100	0xbb30632e	-0.0026914584
101	0x3b2f8db0	0.0026787333
102	0x3a3eed1b	0.0007283256
103	0x3a62c646	0.0008650761
104	0xbb0bb4aa	-0.00213174
105	0x39243698	0.00015660597
106	0x3a97a4dd	0.0011569519
107	0xb843fb23	-4.6725512e-05
108	0x3b1aa603	0.0023597486
109	0xbb227339	-0.0024787916
110	0xba644639	-0.0008707974
111	0xbb02f225	-0.0019980755
112	0xb904df1b	-0.00012671614
113	0xbb224b02	-0.0024763946
114	0x3aece389	0.0018073182
115	0x3b0b78f3	0.0021281808
116	0xbb1f4dd5	-0.0024307866
117	0x39ff882d	0.0004873885
118	0xbaf4ebfd	-0.0018686053
119	0xbafe815d	-0.0019417215
120	0xbb112928	-0.0022149775
121	0x3aeb817d	0.0017967668
122	0x3a91a320	0.0011111237
123	0x3ab3f923	0.0013730865
124	0xbb1e9cff	-0.0024202464
125	0xba817803	-0.0009877685
126	0x3ad1ee0c	0.0016016378
127	0xb9abf24e	-0.00032796193
128	0x388fe396	6.8611625e-05
129	0xbb20d974	-0.0024543675
130	0xbaddd603	-0.0016924742
131	0xb9d6976d	-0.00040930082
132	0x3b1f8a45	0.002434389
133	0x3b1fc628	0.0024379585
134	0x3b103f8a	0.0022010528
135	0xba4f6619	-0.0007911637
136	0xbb2ba10a	-0.0026188516
137	0x3a89e65e	0.0010520925
138	0x3abbcdaa	0.001432826
139	0xbaa2aad8	-0.0012410535
140	0x3ab3dcf3	0.0013722464
141	0xbb2f099f	-0.0026708615
142	0x3a1a6f9c	0.0005891265
143	0xb96562ea	-0.0002187599
144	0x3a77eaa2	0.0009457265
145	0xb95b7989	-0.00020930743
146	0xbace8f71	-0.0015759302
147	0xba9c049f	-0.0011903233
148	0xbb0db098	-0.002162015
149	0x3a8abb27	0.001058434
150	0xbb2cfaa7	-0.0026394518
151	0xbb2d7056	-0.0026464663
152	0x3a1be9c7	0.00059476163
153	0xbb1b532a	-0.0023700693
154	0x3b401305	0.0029308212
155	0x3a710411	0.00091940264
156	0xbb068442	-0.002052561
157	0xbb213792	-0.0024599773
158	0xbb41e1b3	-0.002958399
159	0xbb205546	-0.002446489
160	0xba707f0e	-0.0009174206
161	0xbaec916f	-0.0018048714
162	0x3b36ad08	0.002787413
163	0xba6b35e3	-0.00089725683
164	0x39fd74b8	0.00048342883
165	0x3a448c87	0.0007497747
166	0xbac1b053	-0.001477728
167	0x3a86e949	0.0010292913
168	0x3b2a78ef	0.0026012023
169	0xbb284639	-0.0025676622
170	0xba5c4f8b	-0.0008404187
171	0xb9a21f33	-0.00030922293
172	0xbaa2ae62	-0.0012411589
173	0xbb0b4597	-0.0021251196
174	0x38cd6cfe	9.795463e-05
175	0xba4d6ffe	-0.00078368175
176	0x39f8de1d	0.00047467733
177	0xbb1bfd36	-0.0023802049
178	0xb99caa66	-0.00029881595
179	0x3b341977	0.0027480999
180	0x3b36f76d	0.0027918473
181	0x3a06bde8	0.00051399926
182	0xba3bc6d9	-0.00071631145
183	0xbb32727f	-0.002722889
184	0xbb2ae3dc	-0.0026075756
185	0xbb24f28e	-0.0025168988
186	0xbb0e9925	-0.0021758762
187	0x3b01c705	0.0019802463
188	0xba407027	-0.0007340931
189	0x3a72827b	0.00092510105
190	0xbb16239c	-0.0022909408
191	0x3ab9841a	0.0014153749
192	0xba31a531	-0.00067766296
193	0x3aa47f7e	0.0012550203
194	0x3b37767a	0.0027994202
195	0x3b20fff3	0.002456662
196	0x3b0d2162	0.002153479
197	0x3a901fb1	0.0010995773
198	0x3ab11485	0.0013510144
199	0x38f8ab85	0.000118575095
200	0x3a971e30	0.0011529382
201	0xb88756fa	-6.453502e-05
202	0x3af82df4	0.0018934594
203	0x38a51800	7.8722835e-05
204	0x3b3c947e	0.0028775032
205	0x3b14f5d9	0.0022729544
206	0x3a7ec6c3	0.0009718949
207	0x3b21f257	0.0024711096
208	0xbaf2db1d	-0.0018528436
209	0x3b1c8b13	0.0023886606
210	0xbab786c0	-0.0014001951
211	0x3b43874d	0.0029835284
212	0x3ad566dd	0.0016281266
213	0xba3ef6fe	-0.00072847295
214	0x3b36188d	0.002778563
215	0x3a6b6417	0.0008979453
216	0xbacf64a2	-0.0015822838
217	0xbabdfa86	-0.0014494217
218	0xbb2fc052	-0.0026817513
219	0x3b23551b	0.0024922553
220	0xbb193853	-0.002337952
221	0xbb1bff10	-0.0023803152
222	0x3a7d13a4	0.0009654111
223	0x3aa6a512	0.001271399
224	0x38ada71b	8.280409e-05
225	0x3a1afad5	0.00059120107
226	0xbb212e30	-0.002459418
227	0xb9add3cb	-0.0003315493
228	0x3b3c22ac	0.002870719
229	0xbb017e56	-0.001975914
230	0x3b00c987	0.001965137
231	0x3ad07d78	0.0015906533
232	0xb9fe6604	-0.00048522663
233	0x3a4ec4e3	0.0007887615
234	0xbb4147cc	-0.0029492257
235	0x3b0d0944	0.0021520415
236	0xbafb18c6	-0.0019157163
237	0xbacc7891	-0.0015599896
238	0x3a43a2fc	0.0007462946
239	0x3a0a1fc1	0.0005269014
240	0xb8e60852	-0.000109688044
241	0x3b19682b	0.0023408036
242	0xbaad988f	-0.0013244319
243	0x3b15edd2	0.0022877348
244	0x3a08a57d	0.0005212648
245	0x39949e3e	0.0002834666
246	0x399fecfa	0.00030503405
247	0x3b36bcdf	0.0027883572
248	0xbb2675f0	-0.0025399886
249	0xbb178793	-0.002312158
250	0xba94dc01	-0.001135707
251	0x39482473	0.00019087065
252	0x399c69a6	0.00029833353
253	0xbb2d91c5	-0.002648459
254	0xbae576e8	-0.001750675
255	0xbae7b487	-0.0017677703

last.bias f4 [3]
0	0x3b14bafd	0.0022694462
1	0xbb427b34	-0.0029675486
2	0x3a9e4891	0.001207607
