log/MUJOCO_ANT_DIR_12_v4_/Ant-v3/1/model/model_pf_task_8118.pth (torch, 27411 bytes, 4 tensors)

base.fc0.weight f4 [400, 12]
00000000: b631 3fbe 8a21 41be 638a f23e 7b7c e23e
00000010: 1dad 3cbe f0e1 3dbe d6dd 49be 32c3 4cbe
00000020: 0295 36be 60a7 4bbe 02c6 233e c712 963d
00000030: 4d78 4dbd bb3d 63bd 2ce3 5ebd 98ba 10bd
00000040: 2592 64bd 07f7 8f3c 25f0 6abd 2e96 a1bc
00000050: 7b43 adbc c699 a8bc c3c7 5cbd a1d7 27bd
00000060: 4135 3ebe 0294 43be e64d 343e 18f0 d93d
00000070: 7ee1 c73e c131 ab3e 1bca 41be 40cd 4dbd
00000080: 81dd 803e 95e7 3bbe a85a 623d 8e17 2ebe
00000090: bd04 bf3b a406 363c de53 e7bc 7111 26bd
000000a0: a50b 62bd 37cd 45bd 8a58 eb3c f016 2f3c
000000b0: 9480 89bd 29c3 0cbc 645f 8bbd bfca 95bd
000000c0: f4ff f9bd 348f 02be d34e bd3d 8224 03be
000000d0: 484c 853d ca1c d23d b422 d2bc 1eca 2fbb
000000e0: 8a65 e9bc c319 c0bd dd00 0abe aca3 06be
000000f0: d00c 063d 5feb e3bd 982c dcbd 58ca e7bd
00000100: eb99 e5bd 0fb7 eabd 6661 783d 9b26 803d
00000110: d470 dfbd 16a3 153d 6938 e5bd 8a2d e0bd
00000120: 7546 3abe 1888 79bd 6bfc 4dbe 15d3 4bbe
00000130: c31c 283e dc59 543d a84b c93e db0e f33e
00000140: e4ef 46be 2aa8 683d a59a 4bbe 602b 4ebe
00000150: 39f4 bdbc 5759 e63b 9b5f 49bd 4d77 68bd
00000160: 435e 793c 3a45 86bb 1068 3fbd 8a7b 463c
00000170: b51a 27bd de95 74bd 9eaa 17bd 4de6 30bd
00000180: 92a0 1fbe 294f 1dbe 5696 013d 7d0d d23c
00000190: 467f f23d a1f3 163e bb3d ca3d 0004 eb3d
000001a0: 173f 8bbd d448 a1bd c2b4 1bbe 1be4 19be
000001b0: 1acb 10be 7ff2 0dbe f435 78bd e233 c9bd
000001c0: 19fc 673d c903 d13d b4cb c83d 89d1 da3d
000001d0: cdcd 0fbe 97f5 983d da1f 14be c5ab 0dbe
000001e0: 662b d0bd e39a dcbd 055f de3d 11d0 cebd
000001f0: 9aa8 cdbd 6d8f c93d 1240 d0bd 37cb d0bd
00000200: ae90 dcbd 0238 d7bd c939 dbbd 64e1 d6bd
00000210: f2b6 c23c c43e 1bbe 4730 1bbe 0938 b0bd
00000220: 9303 1fbe 3218 11be b3cd e23c 8f21 8bbd
00000230: fa85 18be e846 113e e13a 0ebe 488f cb3b
00000240: e317 c2bd 3530 c8bd 6b5b d93d a101 c5bd
00000250: 4e99 b2bd 11b7 c1bd 23ff cabd 86c7 c9bd
00000260: 8dc5 6d3d c2e4 c2bd bf55 8e3d f6e4 e6bc
00000270: d033 81bd 5a07 93bd 5c75 8f3d 65b3 7bbd
00000280: 5952 82bd 6722 7fbd 82da 13bd 7f70 80bd
00000290: 5b9b 75bd 1931 73bd 344d 23bc b9a3 5c3c
000002a0: d791 763b d2b6 e3bb 1416 d0bb 730c 54bc
000002b0: 0fc9 a9bd abd4 4ebc 5c2e efbc cadb 6dbd
000002c0: 35d4 a2bd f27a 00bc 2c5f a7bd b239 acbd
000002d0: 3778 9f3d 853f 9a3d 7ade 9cbd 0364 5fbd
000002e0: 9e19 80bd 5273 76bd 9623 4d3d 00fe 23bd
000002f0: 958d 77bd ea8d 4dbd 63b9 97bd 5002 a3bd
00000300: 3268 d63d 3296 303e e239 1cbe d82c 1bbe
00000310: c0eb 12be 7af4 0dbe 7b8f b23e b1cb 993e
00000320: fc81 22be f345 6e3e b5e7 15be 185b 20be
00000330: 109f dabc 606e 563b 3d84 b3bd 3597 78bd
00000340: 309e 163d 54ad 7c3d ca74 9e3d f30d da3d
00000350: a2b7 e4bd cd48 a43d fbd6 f6bd f44c cfbd
00000360: 4590 39bd 394e 0a3c e319 84bc 093e 87bd
00000370: 56e1 a8bb 090f 81bd 4a55 83bd b3ba 13bd
00000380: 248a 263c bc74 6bbd d7fb a0bb d5d5 1fbd
00000390: 058d 3e3d 8bc0 5d3c 0d10 1cbe a808 18be
000003a0: 2e01 20be ec9b 18be 1385 913d 78b4 313d
000003b0: 79c7 1bbe 4a4a fd3d 6ddc 18be b07b babc
000003c0: 870a 23bd 78d9 26bd 9b24 af3c c877 08bd
000003d0: fb86 21bd 35e0 883c 46a4 70bd 6971 9e3c
000003e0: e240 b3ba 678c 96bc 4a97 e3bb ecb6 55bd
000003f0: f472 98bd 36a7 a0bd a60c 9dbd e3b8 ea3d
-0.18671307 -0.1886045 0.47371206 0.44235596 -0.18425412 -0.1854322 -0.1971353 -0.19996336
-0.1783028 -0.19888067 0.15993503 0.073278 -0.050163556 -0.055478793 -0.054415867 -0.0353342
-0.055803437 0.017573847 -0.057357926 -0.019724932 -0.021150341 -0.020581137 -0.053901445 -0.040977124
-0.18575002 -0.19099429 0.17607841 0.106414974 0.39039224 0.33436397 -0.18924753 -0.05024457
0.25168994 -0.1835006 0.055262238 -0.17001173 0.0058294223 0.011109982 -0.028238233 -0.040543977
-0.055186886 -0.04829141 0.028728742 0.010686621 -0.067139775 -0.008591452 -0.06805304 -0.073140614
-0.12207022 -0.1274994 0.0924355 -0.12806895 0.0650869 0.10259397 -0.025651313 -0.0026823352
-0.0284908 -0.09379914 -0.13476892 -0.13148373 0.032727063 -0.11128878 -0.10750693 -0.11317891
-0.11210998 -0.11460697 0.06063976 0.062573634 -0.10910192 0.036532484 -0.111924 -0.10946186
-0.1819094 -0.060920805 -0.20115821 -0.1990474 0.16417222 0.05184351 0.39315534 0.4747227
-0.19427449 0.056801 -0.19883211 -0.20133734 -0.023187743 0.007029693 -0.049163442 -0.0567544
0.015220228 -0.004097608 -0.0467301 0.012114415 -0.040796954 -0.059713237 -0.037027948 -0.043188382
-0.15588596 -0.15362228 0.031637512 0.025641197 0.11840682 0.14741375 0.098750554 0.11475372
-0.06799143 -0.07875219 -0.15205672 -0.15028422 -0.14139977 -0.13862036 -0.06059833 -0.09824349
0.056636903 0.102058 0.09804478 0.10684497 -0.1404335 0.074687175 -0.14465275 -0.13835056
-0.101645276 -0.1077173 0.10857967 -0.10098279 -0.10041924 0.098418094 -0.101684704 -0.1019501
-0.10769783 -0.105087295 -0.10704381 -0.104922086 0.023768876 -0.15160662 -0.15155135 -0.08604438
-0.15528707 -0.14169386 0.027685976 -0.0679351 -0.14894858 0.14187205 -0.13889648 0.006212149
-0.09477212 -0.0977482 0.1061314 -0.09619451 -0.08720647 -0.09458745 -0.09911945 -0.09852509
0.058049727 -0.09516288 0.069499485 -0.028185349 -0.063087106 -0.071791366 0.070048064 -0.06145038
-0.06363363 -0.062288668 -0.036097057 -0.06271457 -0.05996261 -0.059372995 -0.009967137 0.013466769
0.0037623548 -0.006949284 -0.006350288 -0.012942421 -0.08290302 -0.012623946 -0.02919691 -0.058070935
-0.079506315 -0.007841812 -0.081724495 -0.08409442 0.07786601 0.07531647 -0.076596215 -0.054538738
-0.06254886 -0.06016857 0.050082766 -0.040037155 -0.060437758 -0.050184168 -0.074084066 -0.079594254
0.104690924 0.17244795 -0.15256456 -0.15153825 -0.14347744 -0.13862792 0.34875092 0.30038217
-0.15869898 0.23268871 -0.1463917 -0.1565975 -0.026687175 0.0032719597 -0.08765457 -0.060691077
0.036771953 0.061688736 0.077371195 0.10647192 -0.11167838 0.08021698 -0.12052723 -0.101220995
-0.0453036 0.008441501 -0.016125625 -0.06603629 -0.0051538153 -0.06301696 -0.06412752 -0.036066722
0.010164771 -0.057484373 -0.004912834 -0.039022285 0.046521205 0.013534675 -0.15240498 -0.14847052
-0.1562545 -0.1490323 0.0710546 0.043385 -0.15212812 0.12367685 -0.14927836 -0.022764057
-0.03980496 -0.040734738 0.02137976 -0.033317357 -0.039435368 0.016708473 -0.058750413 0.019341188
-0.0013675953 -0.018377496 -0.0069455253 -0.0521764 -0.074438006 -0.07844393 -0.07668428 0.114610456

base.fc0.bias f4 [400]
00000000: 3717 2d3e bcfe c6bc 4bfc 213e d629 06bd
00000010: b7ae d3bd 401f 82bd c863 203e e993 8cbc
00000020: bbac 17be 86fc dbbd f014 dfbd 4a79 12be
00000030: 03e9 dabd 220c 93bd c80d 8bbb 6d78 a1bd
00000040: d570 d53d 7a2f dfbd 4036 34bc 4723 ffbd
00000050: 7aac bcbc 75b3 ebbd c8a6 dcbd 8523 8dbd
00000060: 14db b53d 6eca 22bd 014d 81bc e773 0abd
00000070: 81da 72bc 23de cabc b7ef 10bd 03e7 04be
00000080: b527 27be b729 fc3d 83b3 b0bc 1ccf 70bd
00000090: fa75 8cbd ca3d eebd c7f7 cabc 7ce1 2f3e
000000a0: 5cff 243e 8bed 04be 9bfe 153e 5e2e 27bd
000000b0: c377 16be 7ab0 07be 34ca 8abd 3d65 c1bd
000000c0: 644e ebbd 8bbf 1cbd 2629 1bbd 14c3 24be
000000d0: 90c5 7cbd cdc3 86bb dfa9 7ebc 1a4a 00be
000000e0: fd8c 68bd 5d61 25bd 9b3c c1bd a0a8 06be
000000f0: dae6 9ebc 284e c3bd 26ef f3bd 8fec 7d3e
00000100: 164a c03d 1f3b cebc c4c4 533e ba80 553e
00000110: 1dce 93bc b043 4cbd 8ce2 a7bc 0e29 803d
00000120: f988 31be 76a1 6abd 7196 e7bd 9e34 3abc
00000130: 029c 973d c546 0bbe fd88 1bbe 32c6 35bd
00000140: 928a cb3b be81 41bc 4c42 05be 3045 4ebd
00000150: 4306 5fbd 9eae b5bd 134e e6bc e2bd 79bd
00000160: 2bfe 3abd a6d2 5c3d 8d96 d7bb 9578 febc
00000170: 32ad 45bd 9e40 aebd 9c25 a1bc 76c8 bc3d
00000180: 5179 9fbc 3172 1fbe 091f 6fbc 4d93 e7bc
00000190: 3cf3 273e 6770 e1bd d6d2 123c c8d7 2b3e
000001a0: 8981 29be b3aa 3f3e 5072 b8bc 7782 af3d
000001b0: 4961 c4bb ddcf 7dbd ca77 a3bd bb4c 6dbd
000001c0: 5177 62bd bc82 83bd 5f8f aabd c07f e4bd
000001d0: 683e d7bd aef9 8fbd a04f 22bb 6785 57bd
000001e0: aa5d 9dbc fd23 77bd 0039 81bd 7980 2f3e
000001f0: 00a5 8e3e e68f d6bd ca63 a4bd 8231 0abe
00000200: 9f95 87bd f00d 87bd 5094 b03b 17ff a6bd
00000210: 523e 79bd 34be 5f3e ffea f5bc 1544 503e
00000220: 0440 7a3e 2e18 9fbd 6931 c4bd 20e7 a1bb
00000230: ea36 393e efeb f0bd fcf1 98bc 8324 7fbd
00000240: 5796 2fbd d669 8abc 29f0 9d3e 0d8d b7bc
00000250: a0d7 43bd e477 853e e87d 47bd 5516 b7bd
00000260: 72b5 d1bc f709 61bd b730 0ebd e5ee 48bc
00000270: 56fa 5ebd 6ff8 cabd 6ed0 9f3e 151b cebc
00000280: 54c5 57bd e87b 4ebc c9e2 1abd f9ae 42bd
00000290: 8c03 1bbd 1692 58bd f119 d8bb 74ef 783d
000002a0: 4001 eebd 9802 0cbe 6e39 26bc 1768 333d
000002b0: 016a f6bd 32ec 9dbd b6fe 1dbd 2dd4 86bd
000002c0: 5e17 d7bd ea02 86bd f18b 8fbd 6b05 edbd
000002d0: 5e59 4ebd ad09 45bd 5b29 87bd 9292 503e
000002e0: 4396 38bc d125 a3bd 2f73 b73d 9fc8 5ebc
000002f0: 2bbb 53bc 128b 393e 7ee0 fdbd 7671 d0bd
00000300: 4b90 cebc ddab 3bbe f6cf 51bd ded5 08bd
00000310: c582 9bbc 7930 443e 3721 0dbe 3f94 5d3e
00000320: e50f 1fbd 27c9 17be 52fe ffbd 2e6c 823e
00000330: 2c5f 3ebc bc96 aebd 1ac9 84bd 9e28 493e
00000340: d2ea b7bd b123 9dbd 0fcf 1b3e 690d dbbd
00000350: 3d3b 84bd a91e 423d a5b4 663b e80f e7bd
00000360: 8c63 ffbd e6d0 a43c 3529 a2bd 3e00 493e
00000370: 6fa8 6ebc bdee 23be 26a8 22bd 31d3 443e
00000380: be9d f8bc 38ec 73bd d210 91bd e900 d33d
00000390: 90f3 adbc 894d 00be 969f bcbd 1bde d4bd
000003a0: eb5c eabd 42a9 733e 2954 7fbd 5233 e7bd
000003b0: 5cb5 37be 9e3a 34bd dcf6 ec3a 1121 a4bc
000003c0: 8681 bcbd 6234 01be 75e6 debd dda6 7abd
000003d0: e0ca cdbd 77b0 b3bc a32e e3bd 4fce f1bd
000003e0: 06cb cdbd 098f 8cbd 8e69 10be 0f0a b0bd
000003f0: 802b c1bd c8d3 e93d 66d4 3b3c 81ca a13d
0.16903387 -0.024291389 0.15818898 -0.03275474 -0.103360586 -0.06353617 0.15663064 -0.017160373
-0.14811985 -0.107415244 -0.108926654 -0.1430408 -0.10688975 -0.071800485 -0.004243586 -0.078842975
0.104219116 -0.10897727 -0.010999262 -0.124579005 -0.023031462 -0.11508838 -0.107739985 -0.068915404
0.088796765 -0.039743833 -0.015783789 -0.03380194 -0.014822603 -0.024764126 -0.03538486 -0.12978749
-0.16323741 0.12312644 -0.021569973 -0.058791265 -0.0685844 -0.11632879 -0.024776353 0.17175859
0.16113037 -0.1298124 0.14647906 -0.040815704 -0.14694123 -0.13250914 -0.067768484 -0.09443138
-0.11489561 -0.038268607 -0.03788104 -0.16090041 -0.061711848 -0.0041126967 -0.01554343 -0.12528268
-0.056775082 -0.040376056 -0.09435388 -0.13150263 -0.019397188 -0.095363915 -0.11910848 0.24797271
0.09389131 -0.025174676 0.20680529 0.20849887 -0.018042618 -0.04986924 -0.020493768 0.062578306
-0.17337407 -0.057282887 -0.11307991 -0.011365084 0.07402803 -0.13601215 -0.15188976 -0.044378467
0.006211587 -0.011810718 -0.13013572 -0.05035895 -0.05444933 -0.08871196 -0.0281134 -0.060972102
-0.04565255 0.053911828 -0.0065792263 -0.031063357 -0.048260875 -0.085084185 -0.019671254 0.092179224
-0.019467028 -0.15570904 -0.014594802 -0.02826848 0.1640138 -0.11007767 0.0089614 0.16781533
-0.1655332 0.1871746 -0.022515446 0.08569806 -0.0059930426 -0.061965812 -0.07981832 -0.057934504
-0.05528957 -0.0642142 -0.08328127 -0.11157179 -0.1050995 -0.070300445 -0.0024766698 -0.052617457
-0.019209702 -0.060337055 -0.063097 0.17138852 0.2786026 -0.10476665 -0.08026846 -0.13495448
-0.06620335 -0.06594455 0.005388774 -0.08154123 -0.06085045 0.218499 -0.030019281 0.20338471
0.24438483 -0.07768284 -0.09579737 -0.0049408823 0.18087354 -0.11763751 -0.018670075 -0.06229068
-0.042867985 -0.01689617 0.3084729 -0.022406125 -0.047813058 0.26068032 -0.048704058 -0.08939806
-0.025599215 -0.054941144 -0.034714427 -0.012263988 -0.054437958 -0.09910666 0.31213707 -0.025159398
-0.05267842 -0.012602784 -0.037813935 -0.04753015 -0.03784518 -0.052873693 -0.0065948893 0.060775235
-0.11621332 -0.13672864 -0.010145528 0.04380044 -0.120319374 -0.07711066 -0.03857299 -0.06583438
-0.10502504 -0.065435246 -0.070091136 -0.11573299 -0.050378196 -0.04810493 -0.06599685 0.20368412
-0.011266294 -0.07966197 0.089575164 -0.0135976365 -0.012923042 0.18119457 -0.12396334 -0.10177891
-0.025215289 -0.1832728 -0.051223718 -0.033407085 -0.018983254 0.19159116 -0.13782202 0.21638583
-0.038833518 -0.14822827 -0.124996796 0.2547316 -0.01161937 -0.08524844 -0.064836696 0.196444
-0.08980335 -0.07672823 0.15215705 -0.10695917 -0.06456611 0.04739252 0.0035202887 -0.11282331
-0.12470159 0.020119142 -0.07918016 0.19628999 -0.014566525 -0.1600904 -0.03971114 0.19221188
-0.030348655 -0.059551448 -0.07083286 0.10302908 -0.021234304 -0.12529577 -0.09210126 -0.10393926
-0.11443504 0.23795035 -0.06233612 -0.112890854 -0.17940277 -0.044001214 0.0018078941 -0.020035299
-0.09204392 -0.12617639 -0.108838 -0.06119429 -0.10048461 -0.021934731 -0.110928796 -0.11806928
-0.10048489 -0.06863219 -0.14102766 -0.085956685 -0.09432125 0.11417347 0.011464214 0.07899953

last.weight f4 [3, 400]
00000000: 6e0f 9f3e 17e4 f03c 338b 653e 2a79 94bc
00000010: 1612 ae3a 4f81 8fbc c421 81be 3b9d aebb
00000020: e9bd deba ea34 73bb dc23 41bc 9b28 4cbc
00000030: eb26 263c 2c3b 2b3d 5dd5 1bbc eb28 2cbc
00000040: 7356 98be 3b90 08bc b002 533b 622a 7bbc
00000050: 705a c63b 6edc c63b 8e6b debb 7de1 0d3c
00000060: 90b5 77be bc5b 2a3d ff8a babc f705 82bc
00000070: 8da7 263c 6745 9f3b d72e aa3c 89bc b13c
00000080: d4f3 0cbc 6d09 313d 0493 b53c 9fb5 b73a
00000090: 3875 993c ea2c a4bb 733f 4f3c 9c5a 373e
000000a0: 7810 15bd f245 9cbc 94ec e53d 12a7 a03c
000000b0: 2157 d0bb cece 023c cf0c 3fbc 2245 acbc
000000c0: 71a1 c63c a414 583c 52a6 5d3c 5b64 b03c
000000d0: 829b ff3c 55a8 5d3e 5ad1 6e3b 2ca1 96bb
000000e0: 8981 0dbd d6c3 853c 83f2 da3c f881 6bbb
000000f0: ef50 113c 3b94 403c 6934 64bc 67ef ca3c
00000100: 97fe f13b f19d 283c 2305 91be 980f 393e
00000110: 59e0 cebb fc96 223d f803 973c 33f2 f5bc
00000120: 85a1 5dbc 74ec 943c bd4d 093c fa1d ccbb
00000130: 8356 3bbe dba9 fa3c 1a72 0ebc 5ba2 8e3b
00000140: dc74 013c e786 83bc 7f2f e43b a4d3 1ebc
00000150: 26af 9f3b 98a1 5e3c 4d52 3c3c a337 1ebb
00000160: 8513 193c a21c d3bd 7aa2 92bb a687 dc3c
00000170: ea77 b9bb 2481 613c 2a34 8e3b 7369 1c3e
00000180: cfc7 51bc 0584 fabb a2e6 52bc 72dc 903c
00000190: bc02 663e d693 a0bc a41b 153b 271a 653e
000001a0: 7328 993b 0af5 fb3b e444 00bc 31e4 1bbd
000001b0: fe35 92bc 33a8 b53c 8410 02bc 04ac 8ebd
000001c0: e1b3 11bc 2f48 c5bb 6cec 5abb 245d fdbb
000001d0: 39f0 b7bb 2685 b03b 5636 853b 83da a9b9
000001e0: 7193 083b 42ee 423a 360c e2bb 0368 8c3e
000001f0: cabb 893e fc7a ea3c 1a2e 2abc 778d 57bb
00000200: c5a5 06bc 31bb 833b abda ff3a 0225 d23a
00000210: 006f 4c3b a15c c8be a6f2 ba3c bbff 9d3e
00000220: 3933 26be f603 493c d3cd 2a3b 5b3c cfbb
00000230: 0c72 803e cbb0 c7b9 8923 3fbc 19ff 353c
00000240: 7066 453c c845 a33c a4cf c93e 393b 18bc
00000250: c353 3a3c 5b86 50be bd45 433c 771a 5e3b
00000260: e59c 523c 70a7 833c fca6 01bd b7fd 9fbc
00000270: 948a f23b 9c2d 893c f921 e5bd 2b01 36bb
00000280: c936 523c 5544 b1bb bdd7 f7bc 671b 3abc
00000290: 3bb1 213a 3a0d 2336 65d1 8f3b 93db 673d
000002a0: 8164 04bc d9ad 04bc e4b9 33bb 6b93 e33c
000002b0: 0acd 10bc 2aa1 fc3b 86a8 dc3c 41b8 1abc
000002c0: aa39 3fbb cd59 bb3c bbfc 8f3c 6609 30bb
000002d0: 7c3a 1c3c 3195 193c 68e5 643d c388 883e
000002e0: dfd4 7ebc 0ddb 92bb 6186 28bd 9967 513c
000002f0: 66cf 17bc 0230 873e 754b 20bc 291d 73bb
00000300: 8ab0 6ebb ced2 d13b 0cb5 b33c 6342 a8bb
00000310: 00af 2cbc 7d41 ad3c 6875 35bc d478 0e3c
00000320: a0e9 bdb9 9541 6bbc ebc8 ccbb 6751 e7be
00000330: c194 be3b 8086 ef3b e7bc 833c 4b0f a13e
00000340: c434 323c 1ec7 28bc 2ef6 62be 46f5 bbbc
00000350: 76f6 24bc 686e d73d 5b69 093d e506 6c3b
00000360: a0b5 4ebc 21b0 e93d 25d6 f83c 43e5 40be
00000370: 2e49 96b9 40e2 de3b 441f 13bd a804 41bc
00000380: 7bf0 873c 9035 8b3c 0ee8 993c 2ac5 09be
00000390: dd84 6e3c 1463 55bb 06ec 97bc 7011 f0bb
000003a0: ee54 74bb 5488 2dbe a002 7a3c ce49 86bb
000003b0: 8b3a 8dbc 6aa1 273b d30b 57bc f329 59bc
000003c0: ac65 993b 237d bc3c 5885 4abc 8392 363c
000003d0: fa86 c03b 35b2 ab3c ab35 403c 65dc c9ba
000003e0: 3690 64bc a5b9 083d 033f 2fbc bfb0 253c
000003f0: d780 17bb d22b 603e 7fad 303b 15ef 3bbd
0.3106646 0.029405637 0.22416382 -0.018124182 0.0013280537 -0.017517714 -0.25221074 -0.005328802
-0.0016993853 -0.0037110397 -0.011788335 -0.012460853 0.010141115 0.041804478 -0.009511319 -0.0105078025
-0.29753456 -0.0083351685 0.0032197647 -0.015329929 0.0060532615 0.0060687577 -0.006787724 0.008659718
-0.24190354 0.04159139 -0.022771357 -0.015871985 0.010171783 0.0048605683 0.020774288 0.021696346
-0.008603055 0.04322188 0.02216483 0.0014015919 0.018732652 -0.005010237 0.012649405 0.17905658
-0.03639266 -0.019076321 0.11226764 0.019610915 -0.006358043 0.007983876 -0.011660769 -0.021029059
0.024246903 0.013188515 0.013528423 0.021532228 0.031202082 0.21646245 0.0036440701 -0.00459685
-0.034547362 0.016328733 0.026726967 -0.0035935622 0.008869394 0.011754091 -0.013928511 0.024772359
0.007385086 0.010291562 -0.28324232 0.18072355 -0.0063133654 0.03969477 0.01843451 -0.030022716
-0.013527279 0.018179156 0.008380351 -0.0062291594 -0.1829472 0.030598572 -0.008694196 0.0043528504
0.007901397 -0.016055537 0.00696367 -0.009694014 0.0048731742 0.013588332 0.011494231 -0.0024142049
0.009343033 -0.10308196 -0.004474935 0.026920151 -0.005660047 0.0137637 0.0043397145 0.152746
-0.012803986 -0.0076451325 -0.01287237 0.017683242 0.2246198 -0.019601744 0.002275207 0.22373258
0.0046740114 0.007689123 -0.007828925 -0.038059417 -0.017848011 0.02217493 -0.007938508 -0.06966403
-0.008892984 -0.006020568 -0.0033405079 -0.0077320505 -0.0056133536 0.0053869663 0.0040653152 -0.00032396996
0.0020839835 0.0007436016 -0.0068984283 0.27423105 0.26901084 0.028623097 -0.010386968 -0.0032890716
-0.0082182335 0.0040201177 0.0019520124 0.0016032758 0.003119409 -0.3913317 0.022820782 0.3085917
-0.16230477 0.012269011 0.0026062622 -0.0063243336 0.2508701 -0.0003808796 -0.011666187 0.011108183
0.012048349 0.019930735 0.3941623 -0.0092914635 0.011372509 -0.20363753 0.011918482 0.0033890286
0.012854789 0.016071051 -0.03165339 -0.01953016 0.0074017737 0.016745381 -0.111881204 -0.0027771692
0.012830445 -0.005409757 -0.03025424 -0.011359072 0.0006168072 2.4296592e-06 0.0043889754 0.056605887
-0.008080603 -0.008098089 -0.0027424032 0.027780255 -0.008837948 0.007709642 0.026935827 -0.009443344
-0.0029178658 0.022869969 0.017576566 -0.002686107 0.009535428 0.009373949 0.05588284 0.2666684
-0.015553682 -0.0044816793 -0.04114378 0.012781047 -0.009265756 0.26403815 -0.009783615 -0.0037096238
-0.0036421143 0.0064033037 0.021936916 -0.005134867 -0.01053977 0.021149391 -0.011075355 0.0086958
-0.00036222953 -0.014358898 -0.006249537 -0.45179293 0.0058160727 0.007309735 0.016081287 0.3145698
0.010876838 -0.0103013795 -0.22164223 -0.022944104 -0.0100685265 0.10519105 0.03354774 0.0036014852
-0.012616545 0.11410547 0.03037555 -0.18837456 -0.00028664753 0.0068018734 -0.03591849 -0.011780895
0.016594162 0.016993314 0.01878741 -0.13454118 0.014558044 -0.0032560276 -0.018545162 -0.0073262975
-0.0037282067 -0.16946536 0.015259415 -0.0040981537 -0.01723983 0.0025578388 -0.013125378 -0.01325463
0.0046813097 0.023008889 -0.012360893 0.01114333 0.0058754655 0.020959 0.011731545 -0.0015400766
-0.013950398 0.03338017 -0.0106961755 0.01011294 -0.0023117566 0.21891716 0.002695888 -0.045882303

last.bias f4 [3]
00000000: fa04 8cbd 7189 66bd d011 30be
-0.06836887 -0.056283418 -0.17194295
