log/MUJOCO_ANT_DIR_12_v4_/Ant-v3/1/model/model_pf_state_8571.pth (torch, 848933 bytes, 6 tensors)

base.fc0.weight f4 [400, 111]
00000000: cfbb 783e 321f 36be 1583 74be de10 e63f
00000010: da26 853f e9a6 0c3e 9867 533e 05ba d7bf
00000020: 93dc 303f 62cd 8b3e 32c0 42bc 80de 72bd
00000030: 3088 56be e871 af3d 367d 563e 04bb 89bc
00000040: 1986 6ebd b9ad 0dbe 8aff 3e3d 657a c93a
00000050: a78d d4bc b3e3 abbd 978c 673d 6bff 383d
00000060: 9d97 5dbc d8ce abbc 05c3 6ebc e3f2 cdbc
00000070: 5f5a 143d f3cc 06bc c349 2cbd 1a7d d13c
00000080: 8df4 cdbc b753 9dbc 0045 b9bc e292 143d
00000090: 03bc 3abd 05c3 13bd 33cf 30bb c871 27bd
000000a0: cdbc ec3c 93b7 0ebd 15b2 4abd 67ab cebb
000000b0: 8b4c 0bbd 07fc 103c 5d09 83bc 9857 283d
000000c0: 5d1c f5bc d3a2 7abc 332a d4bc cd5f 9b3a
000000d0: 08c2 033d 5d46 40bd 90b4 81bc a024 773c
000000e0: 0844 23bd 7d9e 00bd b373 9cbb a79a 153c
000000f0: 3a39 03bc 90ac a63c 8351 d73c 2267 46bd
00000100: 37f5 adbc 57f6 f63c ad3c d9bc 75c8 413d
00000110: 659a 13bd caa6 babc 93fc 19bd cb26 23bd
00000120: 633e 023d 9a90 22bd f302 cb3b 4d61 a6bb
00000130: b356 6b3b bd6d b5bc fbab 293d 27f6 64bc
00000140: 3d9d 00bd 17ee c03c 7a74 3dbd 8050 753c
00000150: 73a8 4cbd 93f9 83bc 3b88 06bd 2a14 02bd
00000160: 27c9 ec3c bb40 1e3d 67e8 b8bc 8d5f 193c
00000170: 9389 58bc fdc2 483d da3a 1e3c 4061 3dbd
00000180: 7a8d 0cbd dd0a adbc 103d 04bd 7dea c43c
00000190: 7df9 153d 68ac 38bd 2dbe 42bd f784 3b3d
000001a0: d3e0 0f3c 9fb8 2fbd ba93 13bc cdeb 51bb
000001b0: 0d44 de3b 7dcd 8c3c 97c0 4a3d 0633 9d3f
000001c0: 004b 0bbf bd46 5b3f 3ce4 c33d a5b4 38be
000001d0: 75fa 6b3f b4e7 08bf f625 1dbf 848b e33e
000001e0: 1467 a43f 8083 013e 6027 0cbf f65b 31bf
000001f0: df8e 83bd 716a 053d 2c1e 083f 3e17 4d3e
00000200: a504 043d e38d 86bd d04f 183d e978 d8bd
00000210: ba39 b6bd 9110 33bc 7e32 e4bb c799 79bd
00000220: 91fb a5bd 5d90 43be fa00 083c d30a 883c
00000230: 5a2e 993b 6741 ffbc d0d1 90bc 558f 393d
00000240: 9a99 6bbb 87c2 c83c e05a ccbc 0bde 073d
00000250: 12f5 2f3d eac6 8abc b3b6 1cbc b029 05bd
00000260: 4308 203d 8094 423c 3ada 483c 83e6 d1bc
00000270: 8008 40bc cdab 9dba 3021 ae3c 8027 3a3b
00000280: f8fb 223d d3ff 87bc cb2d 2fbd a399 273d
00000290: 5296 31bd 53b3 f2bc 23e9 a93c c7e2 c8bc
000002a0: a8af 27bd ba83 5dbc 0008 3d3b ffc0 48bd
000002b0: 4d1c 9abc 9bdb 053d fd8d df3c 5328 1e3d
000002c0: d319 943c 8a0e e43c 772c 863c 73bc b03b
000002d0: 0798 68bc 2380 cdbc 5a68 87bb cd1c a0ba
000002e0: a8dd 2ebd 0d4f d83b ed59 c13c ead2 8c3c
000002f0: 674f b53c 3591 39bd da89 c1bb 0d4a 36bd
00000300: 58d7 0ebd c382 ecbc 1df1 223d 2864 01bd
00000310: 2766 b53c 0f58 0c3d 571f a9bc 0024 a2bb
00000320: 8099 49bb 1723 b83c 5348 b4bc 4a10 9a3c
00000330: b7f3 863c 926f 123d cd9c e33b 9305 02bd
00000340: 8067 d6bb 334c dcbc cd93 84bb 6db7 4d3c
00000350: f52c 41bd 1d00 f63c b50b 34bd 1a4a 813c
00000360: d3e6 2dbc d2a7 03bd 13dc b23c f3a6 5d3c
00000370: 6210 473d b353 29bb 9dc1 953f 1a01 09bf
00000380: 3532 01bf 4adf 953e c075 b73e afa1 ad3d
00000390: da3c 1ebf 27f4 9a3d 9e62 f23e a3f9 843e
000003a0: 63c0 393e bbee b2bf ac2e 29bd 5e44 123c
000003b0: a9f0 c9bd 5698 163f a794 d43e 1c4b 29be
000003c0: 40be b4be dd9d 67bd fc2f 88bd 9b4a 373c
000003d0: d701 be3c 2132 05bd 822f 793c 0606 babd
000003e0: c640 2c3d 4219 043d 3321 70bc b359 2bbd
000003f0: e591 0bbd 40c0 30bd 1db6 8c3c e720 7f3b
0.24290393 -0.17785338 -0.23878129 1.7973897 1.0402482 0.13735546 0.20644987 -1.6853644
0.6908657 0.27305132 -0.011886643 -0.059294224 -0.20950389 0.08566648 0.20946202 -0.016812809
-0.058233354 -0.13835801 0.04663042 0.001537156 -0.025946451 -0.083930396 0.05653056 0.04516546
-0.013524917 -0.020972654 -0.0145728635 -0.025140231 0.036218997 -0.008227575 -0.042062532 0.025572348
-0.025141025 -0.019204957 -0.02261591 0.03627289 -0.04558946 -0.036074657 -0.002697897 -0.040879995
0.028898621 -0.03484304 -0.04948624 -0.006307054 -0.034008544 0.0088491505 -0.015995676 0.04109916
-0.029920751 -0.015297609 -0.025899028 0.0011854112 0.032167464 -0.046942104 -0.01583317 0.015084416
-0.0398598 -0.031401146 -0.0047745346 0.00913111 -0.008009249 0.020345956 0.026283985 -0.0484382
-0.021235092 0.03014676 -0.02651819 0.04731031 -0.036035914 -0.02278461 -0.03759439 -0.039831918
0.031797778 -0.039688684 0.00619542 -0.005077517 0.003590983 -0.022147054 0.04142378 -0.013974703
-0.031399954 0.02355103 -0.04625366 0.014972806 -0.049965333 -0.016110217 -0.032844763 -0.03175751
0.02890451 0.03863595 -0.022571756 0.00936116 -0.013216394 0.04901408 0.009657586 -0.046235323
-0.03431461 -0.021123344 -0.032284796 0.024037594 0.036614884 -0.045086294 -0.047544647 0.045781102
0.00878163 -0.042900678 -0.009007389 -0.0032031417 0.0067830146 0.017187828 0.049500074 1.2281196
-0.54411316 0.85654813 0.095650166 -0.1803766 0.9217904 -0.5347855 -0.6138605 0.4444238
1.2843957 0.1264782 -0.5474758 -0.69280946 -0.06423735 0.032572214 0.5317104 0.20028397
0.032230992 -0.065700315 0.03718549 -0.10569937 -0.08897729 -0.010929243 -0.006964027 -0.06093767
-0.08104623 -0.19098039 0.008301014 0.016606724 0.004674715 -0.031159116 -0.017678171 0.045302708
-0.0035949708 0.02450682 -0.024945676 0.03317074 0.042958327 -0.016940553 -0.009565043 -0.03251046
0.03907038 0.0118762255 0.0122590605 -0.025622612 -0.011720777 -0.001202935 0.02125606 0.0028404891
0.039791077 -0.016601479 -0.04276828 0.040918004 -0.043356247 -0.029626524 0.020741051 -0.024522198
-0.040939003 -0.013520176 0.002884388 -0.04901218 -0.018812323 0.032680135 0.027289385 0.038612675
0.01807872 0.027838964 0.016378624 0.0053935586 -0.014196402 -0.025085514 -0.0041323127 -0.0012215615
-0.042691857 0.0066012205 0.02360245 0.017190415 0.022132589 -0.045304496 -0.0059063258 -0.044504214
-0.034873337 -0.028870946 0.039780725 -0.031589657 0.022143437 0.034263667 -0.020644827 -0.004948139
-0.003076166 0.02247767 -0.022007143 0.018806595 0.016473634 0.035750933 0.0069461823 -0.031743597
-0.0065431 -0.026891803 -0.0040459395 0.012555939 -0.047162015 0.03002935 -0.043956477 0.015782405
-0.010614115 -0.032142468 0.021833455 0.013528573 0.04859961 -0.0025837242 1.1699711 -0.53517306
-0.50467235 0.2927192 0.35832024 0.08478104 -0.618116 0.075660996 0.47340864 0.25971708
0.18139796 -1.3979105 -0.041304275 0.008927433 -0.098603554 0.58826196 0.41519663 -0.16532558
-0.353014 -0.056547035 -0.06649777 0.011187221 0.023194237 -0.03251851 0.015209081 -0.0908318
0.04205396 0.03225065 -0.014656353 -0.04183359 -0.034074683 -0.043152094 0.017176682 0.0038929523

base.fc0.bias f4 [400]
00000000: 918a 07bf 1dba 90bf b504 02bf f96b 1e3f
00000010: 8618 0ebf b5e6 0c3f 63fa 6fbf 32ec 14bf
00000020: 2888 95bf be6e cfbe 5f0f 4d3f 601c 023f
00000030: d069 1dbf 70ce c8be 213e 843d b640 2b3e
00000040: 124e e9be ae38 f1bd d24d bcbe 73af 3f3e
00000050: 707b db3e dbfb 01be 570b 15be a32d babf
00000060: 6989 733d 505b 27be 7c93 b33d 9a59 56be
00000070: 5c94 f0be d760 42bf 1374 bb3e 050e 52bf
00000080: 3fc2 923d d41b bdbe bd4f 6c3e d80f 9cbe
00000090: 4aed 813f 2c93 38bf 08d6 ce3e 5643 7ebf
000000a0: 8691 92be 7928 993e dfd6 05bf 2a87 a63d
000000b0: 2d23 3fbf b5a5 abbe 95b8 1abe 4190 09be
000000c0: 0180 94ba 619a 87bf 1ecf 03be 3c3e 31be
000000d0: c408 19be 2ff8 babe b33e a9be 06ac 1bbf
000000e0: f0d7 5c3e 4b42 5abe bf5b 98bf 7b32 17bf
000000f0: 0de9 903d 8799 38be e542 563d 8abd 3dbf
00000100: 138e 92bf 0402 213d 9c34 d4be a27e b1be
00000110: 0050 c3be f1d9 87bf 389c 77bf 92db 923e
00000120: 95d5 87be f395 7d3d 1cb4 5fbf d2f1 63bf
00000130: 9522 61bf 229f 8dbf 31d1 3bbf 4970 6e3d
00000140: e440 26be 9aec bebe 6610 d53d 0e12 fdbc
00000150: 962e 28bf 7a24 88be fa28 24be 396b 8bbf
00000160: 37ed ef3e af2e 7cbe c103 763f 6e18 1cbe
00000170: dd9c 9f3e ebfb 7dbf 74b7 6f3d e8ad 00be
00000180: 35fa 92bf e594 09bd 42a8 fb3e ddaf 013f
00000190: 9d4b 623d 8a7c 1e3e d7f6 27bf f7f2 debe
000001a0: 727a a43e c670 ffbe cfbf a53d b24a 5dbf
000001b0: d3c5 e93e 69f7 85be aab2 66bf d636 81bf
000001c0: 239c 68be ecb9 85be 9dbb e0be c6da 8abe
000001d0: 9c32 c4bf 5892 16bf 5b68 64bf 4477 c6bd
000001e0: 4cb0 66bf 02ea bfbe e5e6 c83e cd88 7cbf
000001f0: 8714 43bf caa0 42be 701e 803e 8c06 b7bf
00000200: 75d4 86bd 14c7 1abf 5926 913d 5e61 9fbf
00000210: 5648 f8be 3211 713e 1ba9 9a3e 991c 3bbf
00000220: 5071 6a3f 9665 6f3e 03b7 e5be 4de5 1ebf
00000230: a785 efbd 9070 6b3e bd89 25bf 13b4 9a3e
00000240: 902a a63c e5a9 973e 2500 85bf e85c d53d
00000250: bee3 f1be eb0c acbe b047 61bf ae0f 8c3e
00000260: cb25 47be b46b 54bf 3931 653e 0057 c53e
00000270: 2774 213f cc6a 41bc 7446 f0bd c701 b1bd
00000280: 0933 d6be 92e0 bebe 674b 0cbf 8312 9cbd
00000290: ca3f 4a3f 9485 413f 2bb9 37bf a87e eabe
000002a0: 5f40 233e 3028 c8bf a0ae dcbe 804d 423f
000002b0: b1b6 383f 6a91 8bbf 8d6a 99bf e3c2 56be
000002c0: 68ff 3abc 2346 f0be c9fc 00bf ccac 6f3e
000002d0: eb99 82bd 60c5 44bf 6f0c 3cbf 7f63 b4be
000002e0: 0851 1e3f e053 fa3e 4b60 a23e 4627 a9be
000002f0: ee9d 1ebf ff85 373f d700 f9be 97fe 12bf
00000300: cdf4 0c3e 1fd4 f8be 75bb 4abf 5621 0ebf
00000310: 8ef7 19bf 6c7e 81bf 60ef 1c3c b8e9 5b3e
00000320: 51a3 bebe 7297 17bf 2ef8 07bf 1970 b3be
00000330: e16b 93bf 3cf3 8c3c 67ce aabe 0492 2bbf
00000340: ae46 97bf 1715 3cbf 95c0 893f 5e21 bd3f
00000350: f52c abbf ec0b 27be abfa 04bf 01cb 68bf
00000360: 3492 81bf d12e 98be 4b40 f03e e4c9 b13e
00000370: b653 663e 2499 04bf 50e5 24bf 0ae0 d4bd
00000380: fea8 f0be 706d 3d3f 5eb8 b2bd 047e 313f
00000390: 394d 7f3b dd63 37bf 9f18 073e d95b 45bf
000003a0: f18b ca3e 2cce 87bf ea8b ff3d faa6 debe
000003b0: 2766 943f 16af a3be 1197 673e 3259 50bf
000003c0: 19bb 80bf 7e6e 69bf 54ff de3e 14ca 47be
000003d0: 561f 583e 9322 b5be 0bef 9e3b 5ee1 69bf
000003e0: e943 27bd a61e 3d3f d832 16bf b60b b63d
000003f0: e6ef 8bbf b75e a13d 171b e3be e16e 023f
-0.5294581 -1.1306797 -0.5078843 0.61883503 -0.5550617 0.5503953 -0.93741435 -0.58172905
-1.1682177 -0.40514177 0.8010158 0.50824547 -0.6148958 -0.3922 0.06457163 0.16723904
-0.45567375 -0.11778389 -0.36778122 0.18719272 0.42867613 -0.12693731 -0.14555107 -1.4545177
0.059457216 -0.16343427 0.08768365 -0.20932618 -0.4698819 -0.75929016 0.36611995 -0.8205264
0.07165956 -0.36935294 0.23077293 -0.30480838 1.015054 -0.72099566 0.40397668 -0.99321496
-0.2862665 0.2991369 -0.5228099 0.08131249 -0.7466305 -0.33524862 -0.15109475 -0.13433935
-0.0011329652 -1.0593988 -0.12871978 -0.17308897 -0.1494475 -0.36517474 -0.33055648 -0.6080936
0.21566749 -0.21314351 -1.1902999 -0.590614 0.07075701 -0.18027316 0.05230989 -0.7411734
-1.1449608 0.039308563 -0.41446388 -0.34666926 -0.38146973 -1.0613385 -0.96722746 0.28683144
-0.26530138 0.06191058 -0.873842 -0.89040864 -0.87943393 -1.1064188 -0.73366076 0.058212552
-0.16235691 -0.37289888 0.104035184 -0.030892398 -0.65696084 -0.2659033 -0.16031256 -1.0892097
0.46860668 -0.24627183 0.9609948 -0.15243694 0.31174365 -0.9921252 0.058524564 -0.1256634
-1.1482607 -0.033589263 0.49151808 0.5065897 0.05524789 0.15477195 -0.6561102 -0.43544742
0.32124668 -0.49890727 0.08093225 -0.864421 0.4565874 -0.2616532 -0.9011637 -1.009486
-0.22715811 -0.2611841 -0.43893138 -0.27120036 -1.5327945 -0.5881705 -0.89221734 -0.09690717
-0.9011276 -0.3748322 0.3923866 -0.9864624 -0.762032 -0.19006649 0.25023222 -1.4298873
-0.06583492 -0.6046002 0.07087392 -1.2451589 -0.48492688 0.23541716 0.30207142 -0.7309051
0.9157915 0.23378596 -0.4486619 -0.62068635 -0.11695414 0.22992158 -0.64663297 0.3021551
0.020283967 0.29621807 -1.0390669 0.10418111 -0.47244066 -0.33603606 -0.8800001 0.27355713
-0.1944801 -0.8297684 0.22382058 0.38542938 0.6306786 -0.0118052475 -0.11732188 -0.08642917
-0.41835812 -0.3728071 -0.54802555 -0.07620718 0.79003584 0.7559445 -0.7176692 -0.45799756
0.15942524 -1.5637264 -0.43101978 0.75899506 0.72153765 -1.0903752 -1.1985642 -0.20972781
-0.011413433 -0.4692851 -0.5038572 0.2340576 -0.06377014 -0.7686367 -0.7345647 -0.3523216
0.61842394 0.48892117 0.3171409 -0.33037776 -0.6195973 0.71688837 -0.48633453 -0.57419723
0.13765259 -0.48599336 -0.79192287 -0.55519617 -0.60143363 -1.0116706 0.009578556 0.21475875
-0.37233976 -0.5921546 -0.5311307 -0.3504646 -1.1517297 0.017205827 -0.33360597 -0.6701968
-1.1818445 -0.7346968 1.0761896 1.4775808 -1.3373095 -0.16313142 -0.5194499 -0.9093476
-1.0122743 -0.29723218 0.46924052 0.34724343 0.2249287 -0.51796174 -0.64412403 -0.103942946
-0.4700393 0.73995113 -0.087265715 0.6933291 0.003895594 -0.71636754 0.13192986 -0.77093273
0.39559892 -1.0609794 0.12477858 -0.43486768 1.1593674 -0.31969517 0.22616221 -0.813861
-1.0057098 -0.9118422 0.43554175 -0.1951068 0.21105704 -0.3537794 0.0048502735 -0.9135951
-0.04083625 0.7387489 -0.5867133 0.088889524 -1.0932586 0.078793935 -0.44356605 0.5095044

base.fc1.weight f4 [400, 400]
00000000: 9c13 d03c 2929 353c 9bd7 21bd d016 d8bc
00000010: f962 4fbd ab3f c4bc 2949 0a3d 17dc 9e3b
00000020: 33cb a93b c03e 12bd 4936 97bb 0877 e5bc
00000030: dba1 3ebd 2be8 dd3c ae1f 233c 6725 9ebc
00000040: 4b32 98bd ca61 623c a242 5ebd 1aaf dbbb
00000050: 25c6 1f3c b5e2 af3c 6347 40bd ee0a 4ebb
00000060: a012 7abc 1f5f 42bd 4584 70bd 1cf4 923c
00000070: 2f37 1cbc 3a98 96bd e631 293b 7699 a3ba
00000080: 18a5 9a3c f1a5 9fbc 1650 d43c 80f1 3bbd
00000090: 69b1 22bc 33d1 d03c 4234 993b 0aec c0ba
000000a0: 432a 9a3c 609d a43b a0dc 7ebc 9110 773c
000000b0: 835a 33bb 7a56 55bd 4ff8 09bc b789 eb3c
000000c0: a044 d1bc 7169 3fbd a0d6 7bbd 3a27 183d
000000d0: 993d 98bb 2643 a23c aa94 2cbd c89d 1bbd
000000e0: 9f94 88bd fd95 2c3d 6020 be3b bcca 213c
000000f0: 77a5 a7bc e101 43bc 7442 1bbd 99cd 26bd
00000100: 4b85 d03c 6498 3cbd e7c9 70bd 3978 82bd
00000110: be4b 083a 0314 07bd ede1 cd3b 7b91 13bc
00000120: 891b 823c d8fa 81bc 16f5 afbc 2c68 2eb9
00000130: 6894 55bd c798 963b 27f9 1bbd 6601 0a3d
00000140: ec98 353d 508b f63c ded6 07bd fdc9 703c
00000150: abfa f0bb 4ea0 1dbd 8c9d 3d3c 5c89 b3bb
00000160: 784d 8e3b 0c4a e63c cafe 83bd 38f2 10bd
00000170: 9d7d 3d3d 71f2 4f3c 18c2 cfbc 518a 97bc
00000180: da96 21bd b5ab b9bc 2a64 58bd 3c38 8dbc
00000190: dd75 67bd f148 a6bc 210d 80bd 43dc babc
000001a0: a972 4ebc f063 1bbd 358a 98bd 9055 b43c
000001b0: e324 df3b e000 69bb d224 8dbd 8740 49bd
000001c0: e213 e9bb 8336 14bc 1f17 c2ba ddd1 013b
000001d0: 672a 8b3c ad1d 04bd 031b d839 14ec 2c3c
000001e0: a4f7 70bd 582e 53bd d338 87bd 4f12 40bd
000001f0: 2734 683c ef94 0abd a41e febc 309c 45bd
00000200: 6fc1 a83c 80c6 09bd f256 603a cd5c 083d
00000210: 32a2 283c 6d72 7b3d 4f17 f7bb 3b82 60bd
00000220: 081b 56bc 65d8 1dbd e58b e43b dc76 033d
00000230: 44e6 5a3c 5f95 dabc 76da 84bd 70ce 12bd
00000240: 7206 0d3d 9a20 a1bb 7e38 9038 e2bf 38bd
00000250: b1a7 b83b 0a37 06bd 6c50 fb3c 3648 823b
00000260: b8e2 78bd f127 61bd 960e 0b3d c647 58bd
00000270: 3a27 9aba a7a0 da3c b047 19bc 351e 89bd
00000280: ab6e 5cbd fe98 6fbb 5b81 133b b1e7 56bd
00000290: 561b 69bc 0739 55bb 77fb 24bd 4094 bcbc
000002a0: 9354 cd3c 31d4 aa3a 25bd 88bd e54f ba3c
000002b0: 5d87 663b 1378 82bd 10eb 6cbc d1a0 b13c
000002c0: 9e50 bb3b 803c 8738 e0de bebc 30d6 92bd
000002d0: 728d 79bc ffc4 59bc 71e4 0a3d 984c 6dbd
000002e0: 0823 813c 3d80 0dbd e93c e5bc dd26 8cbd
000002f0: dd90 de3c 7301 58bd c35c eebc fc46 e0bc
00000300: daa0 81bd 7a6c 5dbd 4600 373c 0beb 693a
00000310: 7c95 0cbd 8a85 a9bb eb93 41bc 9e53 cc3a
00000320: 3754 303c 6da9 74bd f986 893c 8b49 953c
00000330: 6b6f e6bc 1be8 693c 617c 05bd 9169 393c
00000340: 0087 66bd cbdf 51bd f6b1 b13c d887 d6bb
00000350: 6fc6 47bd ce15 f6bc bbbf 7bbc 992e 62bd
00000360: 4e79 0abd 0b64 e93c 68d0 a0bc d6c2 70bd
00000370: 53d5 f83c e9d8 1dbd 103d 07bd cd15 03bd
00000380: ef15 41bc ae33 24bc 74b8 b6bc cb37 203d
00000390: 7ca5 4dbd 504d 85bc 51b3 c7bb ebbb 6ebd
000003a0: f459 53bd 0bd5 0a3b d653 96bd b53f 5abd
000003b0: d7ca 0b3d 3040 4fbd 25fe 713b 322f 3abd
000003c0: af24 68bc 1cee c7bc 6de8 e8bc 1f13 76bd
000003d0: a02a 45bc a914 103d e63f 9dbd fc4d 72bd
000003e0: 9c88 92bc 10d0 593c 08c2 e33c 5bcf 023d
000003f0: 9888 093d 305a 4ebd 9446 8abc ebca 98bd
0.025399975 0.011057177 -0.039512258 -0.026378065 -0.050631497 -0.02395614 0.033761177 0.004848014
0.005181694 -0.035704374 -0.0046146256 -0.02801086 -0.046541076 0.027088245 0.0099562835 -0.019304944
-0.074314676 0.01381726 -0.054262765 -0.0067042233 0.009751831 0.021470407 -0.04694308 -0.003143962
-0.01526323 -0.047453996 -0.058719892 0.017938666 -0.009534641 -0.07353254 0.0025817095 -0.0012481648
0.018877551 -0.019488307 0.025917094 -0.04588461 -0.009929993 0.025490379 0.004675419 -0.0014718783
0.01881898 0.0050236434 -0.015555531 0.015079633 -0.0027367182 -0.052084424 -0.008421018 0.028752191
-0.025545418 -0.046731416 -0.06148398 0.037146784 -0.004646015 0.01980741 -0.042133965 -0.03799227
-0.06668972 0.042135227 0.0058021992 0.009874996 -0.020464642 -0.011902303 -0.03790517 -0.040723417
0.025454184 -0.04604377 -0.0587863 -0.06370587 0.0005199275 -0.03297807 0.006283036 -0.009006853
0.01588227 -0.015866682 -0.02147917 -0.0001663274 -0.052143484 0.004595849 -0.038079407 0.03369274
0.04433529 0.030095726 -0.033163898 0.014696595 -0.0073541007 -0.038482957 0.011573207 -0.005479021
0.004342731 0.02811148 -0.064450815 -0.035387248 0.046262372 0.01269208 -0.025361106 -0.018498572
-0.039450504 -0.022664884 -0.0528299 -0.017238729 -0.056508888 -0.020298453 -0.06252504 -0.022810107
-0.012600579 -0.037937105 -0.07448236 0.022013456 0.006809817 -0.00355535 -0.068917885 -0.049133804
-0.007112966 -0.0090462 -0.0014807916 0.0019808926 0.016987992 -0.032254864 0.00041218856 0.010554332
-0.05882992 -0.05155787 -0.06602635 -0.04689246 0.01417259 -0.03383344 -0.03102047 -0.048244655
0.020600049 -0.03363657 0.0008557878 0.033291627 0.010292577 0.06138842 -0.0075406204 -0.054811697
-0.013067968 -0.038536448 0.0069746845 0.032095775 0.013360564 -0.026682554 -0.064869806 -0.035841405
0.034429975 -0.0049172165 6.8769776e-05 -0.04510487 0.0056352247 -0.032767333 0.030677997 0.0039758934
-0.06076309 -0.05496973 0.033949457 -0.052802823 -0.0011760958 0.026687933 -0.009355471 -0.06695215
-0.05381648 -0.0036559696 0.0022507522 -0.052467052 -0.014227709 -0.0032535212 -0.040278878 -0.02301991
0.025064742 0.0013033209 -0.066767015 0.022743175 0.0035175898 -0.063705586 -0.01446034 0.021683129
0.0057163974 6.448571e-05 -0.023299634 -0.07169759 -0.015231477 -0.013291596 0.033909265 -0.057934374
0.015763775 -0.034546126 -0.027983146 -0.0684335 0.027168686 -0.052735757 -0.029096967 -0.027377598
-0.06329508 -0.05405853 0.011169499 0.0008923269 -0.034322247 -0.00517339 -0.011815052 0.0015588885
0.010762266 -0.05973189 0.016787993 0.018223545 -0.0281293 0.01427653 -0.03258932 0.011316673
-0.05628109 -0.051238816 0.021691304 -0.0065469556 -0.048773225 -0.030039694 -0.015365536 -0.05522022
-0.03380709 0.028490087 -0.019630626 -0.05877956 0.030375158 -0.03853694 -0.033017218 -0.032003213
-0.0117850145 -0.010022087 -0.022304751 0.03911571 -0.050206646 -0.016272217 -0.006094374 -0.05828468
-0.051599458 0.0021184112 -0.07340209 -0.053283412 0.03412899 -0.050598323 0.0036925164 -0.045455165
-0.014168902 -0.024405532 -0.028431142 -0.06007683 -0.012034088 0.035175953 -0.07678203 -0.059156403
-0.017887406 0.013294235 0.027802482 0.03193603 0.03357753 -0.05037898 -0.016879357 -0.074605785

base.fc1.bias f4 [400]
00000000: 6860 783d 7846 8b3d b747 4d3e be99 783e
00000010: b30b 65be 8b00 05be 50c7 353d e498 953d
00000020: e3eb 083e f067 513e 303a 693d 9bcf 56bd
00000030: b98d 4cbe 442f 753d 7559 403e 0b29 9d3d
00000040: 771a 81bd 7b22 cfbe 9abb 0bbe b04b 74bd
00000050: 0a5e 4dbc 0a71 33be bdc2 94bd 999f 093e
00000060: 5c40 6fbe ccaa b0bc 2251 49be f1cd 883d
00000070: f130 91bd a36d 02be 7066 50be 06f3 e33d
00000080: c5a3 a23d 5ca8 833e 9b39 78be 5dec 37be
00000090: 8147 0cbf 7e2f c2bb d9da 973e efac 313e
000000a0: 2f45 d7be 3b77 cabe 822d 54be b1f9 96bc
000000b0: 9e07 84be b985 3c3d e855 9dbd e90c 97be
000000c0: 097f 873e de38 7a3d 1e0f 80be ac2d 1f3d
000000d0: 2d32 aebe 9924 edbd 1d12 b5be 6ed3 bf3e
000000e0: a9ab c03d 4ddd 383d fc39 5c3d 57cd 9e3d
000000f0: 62be 633d 3600 923d a0b9 26be fe46 5cbc
00000100: ed93 ed3d 67fd 963d 7e8b 633e 9242 c3be
00000110: 50c7 44be 4dfd cbbe 200b 1ebe dd9f a1be
00000120: 1ec8 3ebe c3bd fabc 99a2 a5bd 6db9 b5be
00000130: d8fc ad3e 5d30 853d 4b6b f63e eeb4 8bbe
00000140: 49cd 4bbe c4eb 913d 5ae4 58be d691 86be
00000150: 18ff 61be f2aa 2b3d 3d93 dfbd 4d29 723d
00000160: c33c edbd 2b86 7dbc 5068 2c3d 23a0 443d
00000170: 71b4 3a3e b9b5 1fbe 2c8e 8fbd a674 c8be
00000180: b738 b0bc 9bb2 31bd 40e0 bebe 5eef f8be
00000190: 68a5 063d 1b12 53be 51db 17bf d244 293e
000001a0: 73e2 6f3d 0e09 853d d220 d9bd 85d8 8c3d
000001b0: fb21 413e 56bd 473e 8f5c 243d 5577 783d
000001c0: 2381 bdbe 8668 3bbd f737 85bd 2c0d 723d
000001d0: be24 f7bc e565 c43d c332 e13d 8f64 663d
000001e0: 6d54 57bd b1bc 86be 80f7 7e3d 2acf 203d
000001f0: 93c0 643d 4384 93be bf3f 38be 15ae 00be
00000200: 4c65 04bf 0a49 0a3f 2050 4e3e da7b 703e
00000210: 8cef 95be 8d60 1c3f 1784 4ebd ad38 58be
00000220: 57e8 913d 878f 52be cf6c 1cbd 3b0a fbbb
00000230: f05e 033d 6f08 dcbd f778 d6be 36c0 2f3f
00000240: 47a8 8e3d a396 27bd fc02 7a3b 6800 c2bd
00000250: 72aa 533e ce09 48bd 61de 4bbe 8e90 f6be
00000260: 5d2d 9a3d 5f51 eebe 048a 663e 0803 dabd
00000270: 1a1f d83e e145 ba3d 23bb 773d 9185 8cbe
00000280: bd73 3cbe c2ec 5a3d d122 6b3d 1262 b1be
00000290: 1fc0 c1be 4e10 fdba f96b 3c3d c022 cfbd
000002a0: 8123 933d 2e6c 593d f14f ca3d 018f f6bd
000002b0: 8f1e 193d 12f5 8abc 4d08 df3d 5fdd 29be
000002c0: 944f 2f3e 3971 c3be fe83 86be 8168 8fbe
000002d0: 45c5 50be 70e3 773e e821 9ebe a8fb fe3c
000002e0: 6039 8e3d 2604 dbbd 699e 7fbd 0175 0dbd
000002f0: 937b 023f 56f6 673d bd97 29be 7956 e8bd
00000300: 1ecb efbd 6704 52be ccee f6bc ded8 8f3d
00000310: 9424 41be 5583 703d 3c94 5f3d 2550 45bd
00000320: 7171 27bd e30b 263e 7d42 cebe 93d8 c9bd
00000330: 214f eabd 9ac4 cabd 2191 b6bd bd40 2ebe
00000340: 15bc d63d 39aa 943d a641 27bd 0912 4d3e
00000350: 46f1 65be cc94 13be c6da c5be 7bf5 9a3d
00000360: a2a2 99be ac88 f7be bfd0 5a3d 6c4c 0dbd
00000370: 5c6e 2d3e f581 e83d acc2 dabe 392d 72be
00000380: 739e 243e 3bd7 653b 81cb 4e3d 85af 57be
00000390: 387d 50be f130 093f b0ec 913d 8fd6 30be
000003a0: a7e7 91bc 824a 7a3d bbdd 083e b4ab e33c
000003b0: d6c4 763d 8f3e 273e 81ea bdbd f7f3 343d
000003c0: 6bc5 063e f776 953d 3f61 163b 0b66 81be
000003d0: 3bc0 793d d4cf e6bd 2924 0ebf c4cb 13bf
000003e0: 1421 a13d 08cc 843d bbe7 443d dac2 913e
000003f0: e589 e53d a6f7 36be 1b90 a23e 8756 57be
0.060638815 0.0680055 0.20046888 0.24277398 -0.22367744 -0.12988488 0.044379532 0.07304552
0.13371234 0.20449805 0.056940258 -0.05244408 -0.19975938 0.05985953 0.18784125 0.07673844
-0.06303876 -0.40455994 -0.13645783 -0.059642494 -0.012534628 -0.1752359 -0.07263706 0.13439788
-0.23364395 -0.021565817 -0.19659856 0.06679905 -0.07089413 -0.12737136 -0.20351577 0.111303374
0.07941393 0.25714386 -0.24240725 -0.17961259 -0.54796606 -0.0059260717 0.29659155 0.17351125
-0.4204497 -0.3954409 -0.20720485 -0.018429609 -0.2578706 0.046025965 -0.07682401 -0.29502037
0.26464108 0.06108939 -0.25011533 0.038861915 -0.34022656 -0.11579246 -0.35365382 0.37465996
0.094077416 0.045132924 0.053766236 0.07754009 0.055601485 0.071289465 -0.16281748 -0.01344466
0.1160048 0.073725514 0.22221181 -0.38136727 -0.19216657 -0.3984169 -0.15433931 -0.31567279
-0.18631026 -0.030608064 -0.08087654 -0.3549303 0.33981967 0.06503365 0.48128733 -0.27286476
-0.19902529 0.07125047 -0.21180859 -0.2628314 -0.22069967 0.041911073 -0.10916755 0.05912142
-0.11583855 -0.015473883 0.042091668 0.04800428 0.18232895 -0.15596665 -0.07009539 -0.39151496
-0.021511419 -0.043383222 -0.37280464 -0.48620123 0.032872587 -0.20612375 -0.59319025 0.16530159
0.05856557 0.06495868 -0.10601963 0.06877235 0.18860619 0.1950582 0.040127333 0.06066068
-0.37012586 -0.04575398 -0.06504815 0.059094593 -0.030168887 0.09589747 0.1099601 0.056248244
-0.05257075 -0.26315835 0.062247753 0.039260067 0.055847716 -0.28811845 -0.17993067 -0.12566407
-0.51717067 0.540177 0.20147753 0.23484746 -0.29284322 0.61084825 -0.05041894 -0.2111537
0.071243934 -0.20562564 -0.038189705 -0.0076611317 0.03207296 -0.10743796 -0.41889164 0.68652666
0.0696569 -0.040915143 0.0038148751 -0.09472734 0.20670488 -0.048837475 -0.1990905 -0.4815716
0.075281836 -0.46546456 0.22513586 -0.106451094 0.4221123 0.090953596 0.0604812 -0.27445653
-0.18403526 0.053448446 0.05740625 -0.34645134 -0.3784189 -0.0019307227 0.04600141 -0.1011405
0.07184506 0.053081684 0.09878529 -0.120389946 0.03738266 -0.016962562 0.10890255 -0.16588353
0.171202 -0.3817232 -0.26272577 -0.28009418 -0.20387752 0.24207854 -0.30885243 0.031125858
0.06944537 -0.106941506 -0.06240693 -0.03453541 0.5096981 0.05663141 -0.1656179 -0.11344618
-0.117086634 -0.20509492 -0.030143164 0.07023786 -0.1886161 0.058718998 0.054584727 -0.048172135
-0.04087967 0.16215472 -0.40285102 -0.098557614 -0.11440874 -0.0990078 -0.089144 -0.17016883
0.104850926 0.0725903 -0.04083409 0.20026411 -0.2245532 -0.1441223 -0.38643473 0.07566353
-0.3000689 -0.4834646 0.053421732 -0.03449671 0.1693663 0.11352912 -0.42726648 -0.23650064
0.16076069 0.0035070914 0.050487045 -0.21063049 -0.20360267 0.53590304 0.07125223 -0.17269348
-0.017810656 0.061106212 0.13365833 0.027791835 0.06024631 0.16332458 -0.09273244 0.044177976
0.13161246 0.07298081 0.0022946147 -0.25273165 0.06097434 -0.11270109 -0.55523926 -0.57732797
0.07867637 0.064842284 0.048072558 0.28468972 0.11207942 -0.17867908 0.3175057 -0.21029101

last.weight f4 [16, 400]
00000000: 03b1 b9bb 5fe2 f93b da5e 603b 783d f8b8
00000010: 771b bebe cc41 29bd 9ade 96bb 7a9a 9e3b
00000020: 8689 df3d 7a59 e03d fb62 5c3d a743 afbd
00000030: 371f ae3d d0c4 173b 77f6 9bbd 044f c53c
00000040: 44a6 fc3c a04a 123e bbdd e33e 3f38 c63b
00000050: 5e11 fdbd 58b8 003e e6fd 003f 121d ecbd
00000060: 2009 cb3e 1007 98bd 4125 febd b55e 9c39
00000070: 6f21 4d3c fee3 8fbc 27ea 723e 585a 92bd
00000080: 9fdc d3bc 3a0a 72bd b594 1bbd 1374 263d
00000090: f89f c83e e098 5a3c 0fef 4bbf 17ee e73d
000000a0: c352 4f3e 8019 56be b712 d93d d087 04bf
000000b0: 5de1 563b de92 ac3b 1398 b83c 5b40 3b3d
000000c0: 2066 083c a425 37ba be09 b93c cc5f 9cbd
000000d0: 698e f93e e98f 943d fc7d 88bd d0b1 0fbe
000000e0: e190 67bd ecaf 513b 1b8e 0b3c 48be afbb
000000f0: 2a74 e8bc 4143 b13a 3af4 173e ac7a aebd
00000100: d1ac 283e 30ac d93b cf1f 3d3e bff9 923e
00000110: 8173 b9bd ebc2 713e 19fe ad3d 98b3 8e3e
00000120: 86f1 083e 1120 893b f991 37be 5f37 e03d
00000130: f349 2fbe 93f1 d63c 3f1e eebc 9d0d 69bd
00000140: 3ee8 09be b605 8a38 f23d c73e e88e 073f
00000150: c2c6 28bd b505 95bb 6ffe 463b 260e 9e3c
00000160: de6d 333c 5000 f73b 37dc 4d3b 9539 39bc
00000170: 573c 63be f55b 31bd f21e 8a3e 9be2 b63d
00000180: ed57 223d c55e 07bd 25c0 29be e490 62bd
00000190: f099 7cbd 13cf 6fbe 243b 573d b971 c53b
000001a0: b10a 8d3b bce3 813e 67c5 9abe 351d 88bc
000001b0: efd0 22be 3d5f 00be f0de 3a3c dc1e e2bb
000001c0: 6682 9a3e 9df2 e8bd aff9 d73d 1d59 133c
000001d0: 01bd ea3c b478 313c 7662 30bd 29bf 51bb
000001e0: 1f6a 5a3e db7b 2f3d 3356 4fbd 5070 c8bc
000001f0: c010 acbc 9612 653d f029 663e a265 083f
00000200: 6a06 973e c878 25be b93a 563d 4994 94be
00000210: 6c60 3a3b dacf 22be 0f90 c0bc a7f6 413d
00000220: 9838 903b 0b62 23be a1a6 c53e 9559 b2be
00000230: 7765 a13d 9dd2 543e 6d5b 7abd 5d85 b63d
00000240: 0a53 d33b b2d1 8ebc 8314 a7bd 31f0 bebe
00000250: 5be4 8bbb 0395 38be 7be7 533e 464a b73d
00000260: f762 babb 1de0 b6be 4d5a dbbe fd04 86bb
00000270: 5d65 8f3d 2223 92bd fd37 9fbd 8d69 03be
00000280: 17e3 3d3d f09a d2be e78f f8bd 8867 b83e
00000290: 4b68 423f f074 f63d f4e2 7b3d fdf6 333e
000002a0: c07e 873b 62e0 843c 100b 0d3e 4ea4 1c3e
000002b0: b67f 183d 5b1b 093d 0224 b0bb 28a0 573d
000002c0: e93b bebd 05f0 49be 7afa ac3e 88f8 f3bd
000002d0: db9d 163d ff57 283e 862a 333e dfc9 303e
000002e0: d141 1e3c 0778 04be 23a4 0fbe e15c 28bf
000002f0: 09e8 2ebb f0ad 893a f802 4dbe 3173 6bbd
00000300: 0425 ca3e a177 54bd 94a1 5cbb cb0b 653d
00000310: 0ed1 80bd 2ac1 b9bb ab16 993a 94a8 9f3d
00000320: 3341 afbd 4205 08be 7148 7cbe dd21 983b
00000330: 8dae 423e d573 f3bd c95a f3bd 82b2 193d
00000340: 4ab8 7bbe f4bd 913b db7b 003d a43e 27be
00000350: 3806 893c 1b44 bd3d 9986 b83e 2307 99bc
00000360: 6dca 0cbe 6488 ac3c b8c4 80bc 538f 28be
00000370: 4ef9 4e3d 1331 97bd 607b 0cbf 2985 7bbe
00000380: 1cea a8bd 2ee8 ce3d f101 86ba 357a 403e
00000390: 3ca7 a63e 6029 fdbd 3fac a53c 224a 8abd
000003a0: da0d f8bb edab b9bb 4940 91bc 2705 c33d
000003b0: 256a 0bbd 8f19 97bd edd6 9a3d 329a 0e3e
000003c0: 3d5f 9dbc 1917 3c3e 63fd 9dbd e24f 263e
000003d0: 4843 1ebb ffc4 c7bd e721 a3be 8430 383d
000003e0: ab43 d3ba b8a5 3e3c a990 e53b c94d bebd
000003f0: 8591 2a3d f96b 23be 2686 06be 4b1c 773e
-0.0056668534 0.0076258625 0.0034236223 -0.00011837011 -0.3713033 -0.041322514 -0.004604173 0.0048401924
0.109149024 0.10954566 0.053805333 -0.085578255 0.085020475 0.002315808 -0.07615369 0.02408553
0.030841 0.1428628 0.44505104 0.0060491855 -0.12356828 0.12570322 0.5038742 -0.11528982
0.396554 -0.07423222 -0.12409449 0.000298252 0.012520178 -0.01756477 0.23722135 -0.07146138
-0.025862036 -0.059091784 -0.037983615 0.04063804 0.39184546 0.013342112 -0.7966165 0.11324709
0.20246415 -0.20908165 0.10599273 -0.51769733 0.0032788136 0.0052665314 0.022533452 0.04571567
0.00832513 -0.0006986505 0.022587653 -0.07635459 0.48741463 0.07254011 -0.066646546 -0.14032674
-0.05653465 0.0031995727 0.008517767 -0.0053632595 -0.028375704 0.0013524072 0.14839259 -0.085194916
0.16472174 0.006642841 0.18469165 0.28706166 -0.09055234 0.23609512 0.08495731 0.27871394
0.13373384 0.004184731 -0.17926778 0.10948061 -0.17118053 0.026238238 -0.029067157 -0.05689775
-0.134675 6.5814165e-05 0.38914448 0.5295243 -0.041205175 -0.0045477995 0.0030364057 0.019293856
0.010951487 0.007537879 0.0031411776 -0.0113052325 -0.22190987 -0.043300588 0.26976734 0.0892994
0.039634634 -0.033049364 -0.16577204 -0.05531396 -0.061670244 -0.23418836 0.052546635 0.0060255197
0.004304253 0.2536906 -0.3022873 -0.01661549 -0.15900014 -0.1253633 0.0114056915 -0.0069006514
0.3017761 -0.113744 0.1054567 0.008993414 0.028654577 0.0108320005 -0.04306265 -0.003200481
0.21329544 0.042842727 -0.050619315 -0.024467617 -0.02100408 0.055925928 0.22476935 0.5328008
0.2949708 -0.16159356 0.052302096 -0.29019383 0.002843882 -0.15899602 -0.023506192 0.047354367
0.0044012778 -0.15955369 0.3860369 -0.3483397 0.07880681 0.20783468 -0.061122347 0.08912156
0.006449108 -0.017433975 -0.08158209 -0.37292627 -0.0042691655 -0.18025593 0.20693772 0.089497134
-0.005688067 -0.3571786 -0.42842332 -0.00408995 0.070017554 -0.07135607 -0.07774351 -0.12833233
0.046359148 -0.41133833 -0.12136822 0.36016488 0.7594039 0.12034023 0.061495736 0.17574687
0.004134983 0.016220275 0.13773751 0.15297052 0.03723117 0.033473354 -0.005375386 0.05264297
-0.09288771 -0.19720466 0.33784848 -0.11912638 0.036771636 0.16439818 0.1749669 0.17264508
0.009659247 -0.12936412 -0.14027457 -0.6576672 -0.0026688597 0.0010504108 -0.20020664 -0.057482902
0.39481366 -0.0518719 -0.0033665644 0.05591945 -0.06289874 -0.005668779 0.0011679729 0.077958256
-0.08557358 -0.13283256 -0.24637009 0.0046427087 0.19011898 -0.118873276 -0.1188255 0.037523754
-0.2458202 0.004447693 0.031368118 -0.16332489 0.016726598 0.09241506 0.3604019 -0.01868016
-0.13749094 0.02106113 -0.015718803 -0.16460924 0.050530724 -0.07382407 -0.54875755 -0.24562515
-0.08247778 0.101028785 -0.0010223967 0.18796618 0.32549465 -0.12361407 0.020223735 -0.06752421
-0.0075700106 -0.005666247 -0.017730849 0.09522467 -0.034036774 -0.07377922 0.07560525 0.13926008
-0.019210452 0.18368186 -0.07714345 0.1624141 -0.002414899 -0.09754371 -0.31861803 0.044968143
-0.0016118189 0.01163619 0.00700577 -0.0929218 0.041642684 -0.15959157 -0.13137111 0.24131887

last.bias f4 [16]
00000000: 4809 52be 8be4 c73e 77af d4be 9186 043f
00000010: 0aa9 fd3d ecbd f53d 3cf2 e03d 148d c23d
00000020: ae28 833e 5a83 693e 299f 823d 916c fabd
00000030: bb4b 723e 321a 15be e366 e43e f75b cbbe
-0.20511353 0.39041552 -0.4154012 0.5176783 0.12385757 0.11999115 0.109837025 0.09499565
0.25616974 0.22804013 0.06378014 -0.12227739 0.23661701 -0.14560774 0.44609746 -0.397186
