log/MUJOCO_ANT_DIR_12_v4/Ant-v3/2/model/model_pf_state_2973.pth (torch, 848933 bytes, 6 tensors)

base.fc0.weight f4 [400, 111]
0	0xbf08a97a	-0.533836
1	0x3c660332	0.014038848
2	0x3f813882	1.009537
3	0x3dd1fa76	0.1025285
4	0x3f262a36	0.6490816
5	0xbe98794e	-0.29780048
6	0xbe4f30e0	-0.20233488
7	0x3e868419	0.26272658
8	0x3e8c1104	0.27356732
9	0x3c445655	0.011983474
10	0x3efa7792	0.4891935
11	0x3dfe2e9f	0.12411236
12	0xbecd3c96	-0.40085286
13	0x3e571c2b	0.21006839
14	0xbcc8d3b3	-0.024515009
15	0x3deb88ff	0.11500739
16	0x3ee4e0f3	0.44702873
17	0x3d099dac	0.033597633
18	0x3e0cf2cb	0.13764493
19	0x3d2b7631	0.041860763
20	0xbd0c4b51	-0.034251515
21	0x3c6f3ed1	0.014602379
22	0x3d1d062b	0.03833596
23	0x3d51b8ab	0.051201504
24	0xbe0a1d8f	-0.13487838
25	0x3d5ab85e	0.053398483
26	0x3de150d4	0.11001745
27	0x3d28b957	0.04119238
28	0xbc857e6d	-0.016295636
29	0xbcd2c88d	-0.025730396
30	0x3c8761f3	0.016526198
31	0x3b9e8fe7	0.004838932
32	0xbc940ad0	-0.018071562
33	0x3cd3f67a	0.025874365
34	0xbcef0bc0	-0.029180408
35	0x3cdb1737	0.026744468
36	0x3c2b0000	0.010437012
37	0x3d0703fb	0.03296278
38	0x3cd26da7	0.025687052
39	0xbbfe1473	-0.0077539026
40	0x3d204968	0.039132506
41	0xbc3fb647	-0.011701173
42	0xbcf4e9f3	-0.029896712
43	0x3d396f58	0.0452722
44	0xbc2de4e0	-0.01061365
45	0xbd13525d	-0.03596722
46	0x3d0d4f13	0.03449924
47	0xbc1b7e67	-0.009490586
48	0xbd2a8113	-0.041627
49	0x3d0f0be2	0.03492344
50	0xbc8aa933	-0.016926384
51	0x3cbfb0c7	0.023399724
52	0x3d0eb30d	0.034838725
53	0xbcae3367	-0.021264745
54	0xbd289f4a	-0.041167535
55	0x3d1bb19a	0.03801117
56	0xbbab790d	-0.0052329362
57	0xbcdc3b43	-0.026883727
58	0x3d257550	0.04039508
59	0xbd1b95fd	-0.037984837
60	0xbd11650a	-0.03549675
61	0x3d22f7e0	0.039787173
62	0xbc46b21a	-0.012127424
63	0xbc4d0353	-0.012513
64	0x3ca7d96a	0.020489413
65	0xbd236c92	-0.039898463
66	0x3cd52503	0.026018625
67	0xbcb91587	-0.022593273
68	0x3ce9a0d3	0.02851907
69	0x3d16b78a	0.03679613
70	0x3b1946cd	0.0023388148
71	0xbc36f50d	-0.011166823
72	0xbd0c9153	-0.03431828
73	0x3d4a233f	0.04935002
74	0xbd1d32ca	-0.038378514
75	0xbd2ce75b	-0.042212825
76	0x3ceda460	0.029009044
77	0xbd1f1038	-0.038833827
78	0xbb90155a	-0.0043970766
79	0xbca9d153	-0.020729696
80	0xbcc708a0	-0.024296105
81	0xbc1cfee7	-0.009582258
82	0xbcefca43	-0.02927125
83	0xbd385b63	-0.04500903
84	0x3b079500	0.0020688176
85	0xbd088785	-0.033332366
86	0x3cf8fbb0	0.030393451
87	0x3c889e03	0.016676908
88	0x3bfc7d0d	0.007705337
89	0xbc18008d	-0.009277475
90	0xbc5de587	-0.013543493
91	0x3cc037b0	0.023464054
92	0xbc8408da	-0.016117502
93	0x3d16e83b	0.036842566
94	0x3cac06f7	0.020999415
95	0xbce0c52a	-0.027437765
96	0x3c4f16fa	0.012639755
97	0x3d2cb638	0.042165965
98	0x3d2683cf	0.040653046
99	0x3bcba740	0.006215006
100	0xbc9414da	-0.018076349
101	0xbcec0273	-0.028809762
102	0xbd38cb02	-0.04511548
103	0x3c7fbe53	0.015609342
104	0xbb640700	-0.0034794211
105	0xbd165147	-0.036698606
106	0x3d076180	0.033051968
107	0x3ccf0dbd	0.025275106
108	0x3c6684ad	0.014069718
109	0x3c1a466d	0.009416205
110	0x3cbc1c70	0.022962779
111	0xbf8305c8	-1.0236139
112	0x3e4fdb51	0.20298506
113	0x3e8dc488	0.27689004
114	0x3f341a65	0.70352775
115	0xbebcadee	-0.36851448
116	0x3d9d5aba	0.0768332
117	0x3def1ef1	0.116758235
118	0xbddc5e62	-0.107601896
119	0xbe81bb14	-0.25338042
120	0x3bf9a6a0	0.00761874
121	0xbdc7e7ee	-0.09761034
122	0x3da0ff87	0.07861238
123	0xbd087cea	-0.033322252
124	0x3cd13e3f	0.025542377
125	0xbc25e1b3	-0.010124612
126	0x3dfe21c5	0.12408785
127	0xbdd5281a	-0.104080394
128	0x3e25c7c1	0.16189481
129	0xbdf11a28	-0.11772567
130	0xbc8d6f28	-0.017264917
131	0x3c5b7fca	0.0133971665
132	0xbcddd7fb	-0.027080527
133	0x3cf3041a	0.029665042
134	0xbd2094da	-0.039204456
135	0xbca5601d	-0.020187432
136	0xbd711a88	-0.058863193
137	0x3d9b8d0a	0.075952604
138	0xbd0e54b0	-0.034748733
139	0xba9c4f00	-0.0011925399
140	0xbbe53240	-0.0069945157
141	0xbc5ca4e0	-0.013467044
142	0x3c9ced40	0.019156098
143	0xbd3ea5b7	-0.046544757
144	0x3ca48e2a	0.02008732
145	0xbd30e61d	-0.043188203
146	0xbcf5d84d	-0.030010367
147	0xbd4c2697	-0.04984149
148	0xbc26895a	-0.010164583
149	0x3cac8f00	0.021064281
150	0xbd03b473	-0.03215451
151	0x3cfcf55a	0.030878711
152	0xbc9035aa	-0.017603714
153	0xbb992e80	-0.0046747327
154	0xbc0f2a67	-0.008738137
155	0x3d1b801a	0.037963964
156	0x3c254fa7	0.010089791
157	0xbd25e2e2	-0.040499575
158	0x3d0c5477	0.03426024
159	0x3ca1e047	0.019760264
160	0xbc1942ba	-0.009354288
161	0xbc62605a	-0.013816917
162	0x3c12c020	0.008956939
163	0xbd3d2307	-0.046175983
164	0xbd24a18a	-0.04019312
165	0x3c575ea7	0.0131451255
166	0xbcd1ea6d	-0.025624478
167	0xbc949b50	-0.018140465
168	0xbd2d7040	-0.042343378
169	0xbd23d0a0	-0.039993882
170	0xbca1828a	-0.019715566
171	0x3bbbbacd	0.0057290555
172	0xbd49ff7b	-0.04931591
173	0xbd46c615	-0.04852875
174	0x3d36ff6a	0.044677176
175	0x3c99acdd	0.018759185
176	0x3c871a27	0.016491963
177	0x3d052743	0.032508146
178	0x3d251b1d	0.04030906
179	0x3c9f906d	0.019478047
180	0x3d2fdaa8	0.042933136
181	0x3bb1b9e7	0.0054237726
182	0xbcf605b0	-0.030032009
183	0xbcb5fc8a	-0.022215147
184	0xbcdd62bd	-0.027024621
185	0xbc9c9647	-0.019114627
186	0x3c9c7d4d	0.019102717
187	0x3cc6282a	0.024189074
188	0xbd2b301a	-0.04179392
189	0x3c8717aa	0.016490776
190	0x3cabb783	0.020961529
191	0xbd0455d5	-0.03230842
192	0x3c27588d	0.010213983
193	0x3ca9837d	0.020692581
194	0x3c87f9ca	0.0165986
195	0x3d322b18	0.04349813
196	0x3cb14fc7	0.021644486
197	0xbd31dc10	-0.04342276
198	0xbbf93300	-0.0076049566
199	0x3cc1b253	0.023644602
200	0xb9f9b400	-0.0004762709
201	0xbd22361d	-0.039602388
202	0xbcbef7fd	-0.02331161
203	0x3c015860	0.007894605
204	0x3d416d05	0.04722311
205	0xbd097f57	-0.033568706
206	0x3cf2e2e7	0.029649211
207	0xbd265515	-0.040608484
208	0xbd061d1a	-0.032742597
209	0x3cc5c17a	0.024140108
210	0xbd4c7c07	-0.04992297
211	0x3cddc5e0	0.027071893
212	0x3cd96383	0.026536709
213	0x3872a000	5.7846308e-05
214	0x3c674c8d	0.014117372
215	0x3c714fc0	0.014728487
216	0xbbcbf3c0	-0.0062241256
217	0x3caa92f0	0.020822018
218	0x3be4b4e7	0.006979573
219	0x3d0fbeea	0.03509418
220	0x3d192dcb	0.037397187
221	0x3d043b0b	0.03228287
222	0xbf043b8d	-0.5165337
223	0xbe5c8c32	-0.21537855
224	0xbf60cbe2	-0.878111
225	0x40057d25	2.0857632
226	0x3e20a44b	0.15687673
227	0x3ea78ef5	0.32726255
228	0x3d92b0c3	0.07162621
229	0xbe00ee36	-0.1259087
230	0x3e180050	0.14843869
231	0xbe59d9a0	-0.21274424
232	0x3cad678a	0.021167535
233	0x3eedd192	0.46448952
234	0xbd9902f1	-0.07471264
235	0x3ebc720d	0.36805764
236	0x3e6faa07	0.23404704
237	0x3ad1eb58	0.0016015572
238	0x3c4d96d6	0.012548169
239	0xbc500712	-0.012696998
240	0xbcd5142b	-0.026010593
241	0x3c71171e	0.014714984
242	0xbcbc58e9	-0.022991614
243	0x3c9f2f0e	0.019431617
244	0xbc9cd1f1	-0.019143077
245	0xbc10c8c6	-0.008836931
246	0xbad5f3a5	-0.0016323222
247	0x3d1c0b2d	0.038096596
248	0xbc333508	-0.010937937
249	0xbbf89ac0	-0.007586807
250	0xbbd39bb3	-0.00645777
251	0xbcae8330	-0.02130279
252	0x3c9cbc03	0.01913262
253	0x3d47c31b	0.04877005
254	0x3c9a37e7	0.018825484
255	0x3d443c7d	0.04790925

base.fc0.bias f4 [400]
0	0x3df60171	0.12011994
1	0x3f215011	0.63012797
2	0x3e1661c7	0.14685737
3	0xbe838548	-0.25687623
4	0xbb705d22	-0.0036676605
5	0x3ef0b7d5	0.47015253
6	0xbe95e512	-0.2927633
7	0xbeeaadea	-0.4583581
8	0x3d0f6974	0.035012677
9	0x3e33757d	0.17525287
10	0xbf08524e	-0.53250587
11	0x3f29a50b	0.6626746
12	0x3e73d268	0.23810732
13	0xbe96a68e	-0.29423946
14	0x3e834a4f	0.2564263
15	0xbeba51d3	-0.36390552
16	0x37508c8b	1.2430489e-05
17	0xbe8f65b1	-0.28007272
18	0x3dc28c08	0.09499365
19	0xbf52cc24	-0.82342744
20	0x3dad144b	0.08451136
21	0xbe0f683e	-0.14004609
22	0x3e5bbbcf	0.21458362
23	0x3e253470	0.16133285
24	0x3d5ca311	0.05386645
25	0xbe749c59	-0.23887767
26	0x3f4c59ba	0.7982441
27	0x3d0b0230	0.033937633
28	0x3e938c5c	0.28818023
29	0xbebbf329	-0.36708954
30	0xbd2b55c9	-0.041829858
31	0x3e5ce5c8	0.2157203
32	0x3d810280	0.06299305
33	0xbeae76f3	-0.34075126
34	0xbecc0e60	-0.39854717
35	0x3eadce03	0.33946237
36	0x3e8b1f94	0.2717253
37	0x3e0c7e03	0.13719945
38	0xbe6ae1cf	-0.22937702
39	0xbd463f9b	-0.048400503
40	0x3cfc6184	0.030808218
41	0xbf1254b0	-0.5716047
42	0xbef441fc	-0.47706592
43	0xbde136aa	-0.109967545
44	0x3f0a333e	0.5398444
45	0xbeaabf08	-0.3334887
46	0x3e832474	0.2561375
47	0x3eb6f2a1	0.35731986
48	0x3d42265d	0.047399867
49	0xbdc877ad	-0.09788451
50	0xbea9c2ce	-0.33156437
51	0x3ecda269	0.40162972
52	0xbed4e0a0	-0.41577625
53	0xbee57532	-0.44815975
54	0x3ef270f0	0.4735179
55	0x3d0b3f95	0.033996183
56	0xbe5fde50	-0.21862149
57	0x3dc5892f	0.09645306
58	0x3dee20df	0.116273634
59	0xbe438a62	-0.19095758
60	0xbe907f2c	-0.28222024
61	0x3d4ee138	0.050507754
62	0x3e7bfcf1	0.24608208
63	0xbdef4973	-0.11683931
64	0xbdec002e	-0.11523472
65	0xbe8bf6a3	-0.27336606
66	0xbec8c199	-0.39210203
67	0xbf0491e2	-0.517851
68	0x3e8120e8	0.25220418
69	0x3e5f5869	0.2181107
70	0xbe4009d2	-0.18753746
71	0x3f0f7a47	0.56045955
72	0xbf0abe11	-0.5419627
73	0xbe02978b	-0.12753122
74	0xbf182b1f	-0.594408
75	0x3eb0d41e	0.34536833
76	0x3e98c2d9	0.29836157
77	0xbe58b6a7	-0.21163426
78	0x3e814d3e	0.25254244
79	0xbcd126f0	-0.025531262
80	0x3ec6b33a	0.38808614
81	0xbf00d6f5	-0.50328
82	0x3f084988	0.532372
83	0x3e19afa2	0.15008405
84	0x3f076c9c	0.529001
85	0xbd656e05	-0.056013126
86	0x3edfe63c	0.43730342
87	0xbe9e54a1	-0.30923942
88	0x3e1016ed	0.14071245
89	0x3f1f30cf	0.6218385
90	0xbea79ba0	-0.3273592
91	0xbe7a1f57	-0.24426018
92	0xbecc854c	-0.39945447
93	0xbf25165b	-0.64487237
94	0x3de4b62f	0.11167561
95	0x3e8756aa	0.26433307
96	0xbee3eb79	-0.4451559
97	0xbf0ffe1f	-0.56247133
98	0xbe71e021	-0.23620655
99	0xbf2af7d3	-0.667844
100	0xbee6340e	-0.4496159
101	0x3ee2f2dd	0.44325915
102	0xbdb23f19	-0.08703441
103	0xbf39c00a	-0.72558653
104	0x3f063a06	0.52432287
105	0x3ef7a259	0.4836605
106	0xbeb5d95f	-0.35517403
107	0xbf06c807	-0.5264897
108	0xbd90a06b	-0.07061847
109	0xbe9606cf	-0.2930207
110	0x3e60a21f	0.21936844
111	0x3e418dfd	0.1890182
112	0x3ecc03d7	0.3984668
113	0x3f012298	0.5044341
114	0x3e6accd9	0.22929706
115	0xbc7a9480	-0.015294194
116	0x3e5cf8b4	0.21579248
117	0x3ea284e2	0.31742007
118	0xbe6814fd	-0.22664256
119	0xbf26f602	-0.6521913
120	0x3ec982c6	0.39357585
121	0x3e2831f9	0.16425313
122	0xbf28924b	-0.65848225
123	0xbe93d2fd	-0.2887191
124	0xbee414fe	-0.44547266
125	0xbdf479b1	-0.11937273
126	0xbe2534ca	-0.16133419
127	0xbea117b5	-0.314634
128	0x3e0ca692	0.13735417
129	0x3dbe34ef	0.0928744
130	0xbec98814	-0.39361632
131	0xbe2db877	-0.16964899
132	0xbee979f9	-0.4560087
133	0x3eb65e6e	0.3561892
134	0xbf0d7801	-0.55261236
135	0x3eacb27b	0.3372992
136	0xbdea8afa	-0.11452289
137	0x3e8e4081	0.27783588
138	0x3de29984	0.11064437
139	0xbed91991	-0.42402318
140	0xbf075d7f	-0.5287704
141	0x3e7f2302	0.24915698
142	0x3ea6617a	0.32496244
143	0xbe0c0eba	-0.13677493
144	0xbeb81a94	-0.35957778
145	0x3e7ff044	0.24993998
146	0x3da15ed0	0.07879412
147	0x3e0758b0	0.13217425
148	0x3e484d2b	0.19560687
149	0x3b7a920b	0.003823402
150	0x3e7b8cc9	0.24565424
151	0x3e31b717	0.17355
152	0x3f0cb23f	0.5495948
153	0x3f34ef26	0.7067741
154	0xbe6f3a4f	-0.23362087
155	0xbe5a6627	-0.2132803
156	0xbed2992e	-0.41132492
157	0xbe4cc518	-0.1999706
158	0x3f1b9218	0.60769796
159	0x3e0f4123	0.13989691
160	0xbeb8d53a	-0.3610018
161	0x3e7333f8	0.23750293
162	0x3f218f88	0.63109636
163	0xbefa3312	-0.4886709
164	0xbdf6122d	-0.120151855
165	0xbdeb9589	-0.11503131
166	0x3f3b2661	0.73105437
167	0xbe090d0e	-0.13383886
168	0x3e636164	0.2220512
169	0x3ed49f3f	0.41527745
170	0x3dd9c7fd	0.10633848
171	0xbdaae54a	-0.08344515
172	0x3f2c523f	0.67313
173	0x3e5c59e6	0.21518669
174	0xbdeabead	-0.1146215
175	0xbe0294ed	-0.12752123
176	0xbe05bbb9	-0.13059892
177	0x3de1c2c3	0.11023476
178	0x3ea40801	0.32037356
179	0x3f14cef8	0.5812831
180	0x3dbec46f	0.093148105
181	0x3ec48795	0.3838469
182	0x3e29f218	0.16596258
183	0xbee9ca3d	-0.45662108
184	0xbe81724d	-0.25282517
185	0xbf4f71ed	-0.8103321
186	0xbd99fffd	-0.07519529
187	0xbea2a061	-0.31762984
188	0xbf088b95	-0.53337985
189	0xbf052f56	-0.52025354
190	0xbd91ecf8	-0.07125276
191	0xbf0a0ee4	-0.5392897
192	0xbf1ad806	-0.60485876
193	0x3dd02c7c	0.10164735
194	0x3ec5fe69	0.38670662
195	0x3f15556b	0.5833346
196	0x3e0c2b1d	0.13688321
197	0x3f2c0373	0.67192763
198	0xbea6d8c5	-0.32587257
199	0xbe106664	-0.14101559
200	0x3eabca0c	0.33552587
201	0x3e6ea1d7	0.23303925
202	0x3df3c75e	0.11903261
203	0xbf183cce	-0.5946778
204	0x3e843bdf	0.25826928
205	0xbf4d9ab8	-0.8031421
206	0x3e81e48f	0.2536969
207	0x3e489d40	0.19591236
208	0xbf012331	-0.5044432
209	0xbe9c384f	-0.3051171
210	0xbc833d2f	-0.016020386
211	0x3bff4aba	0.0077908905
212	0xbd40458f	-0.046941336
213	0xbee8d8c0	-0.45477867
214	0x3d808c11	0.062767155
215	0xbe07f9b4	-0.13278848
216	0x3e1cd394	0.15315086
217	0x3dde33e7	0.10849743
218	0xbef2ed93	-0.4744688
219	0xbedebf12	-0.4350515
220	0xbc862f89	-0.016380088
221	0x3e538e81	0.2065983
222	0x3f1e85ea	0.61923087
223	0x3d52cc05	0.0514641
224	0x3e606ab7	0.21915708
225	0x3e2eb803	0.17062382
226	0xbee78025	-0.45214954
227	0xbe3764e7	-0.17909585
228	0x3f2ad665	0.6673339
229	0xbe9d0650	-0.3066888
230	0x3d045731	0.032309715
231	0x3d6511ac	0.055925056
232	0x3ef980a2	0.48730952
233	0xbedf9442	-0.436678
234	0xbec8524a	-0.39125282
235	0xbe4ddbb8	-0.20103347
236	0xbf3a34d7	-0.7273688
237	0xbc17fbc1	-0.009276331
238	0xbeb1fd34	-0.3476349
239	0x3da0e398	0.0785591
240	0x3ea88a0b	0.32917818
241	0x3b814d3a	0.0039459737
242	0xbf01622b	-0.5054042
243	0x3ee7598e	0.45185512
244	0x3f1c124d	0.60965425
245	0x3e6093d3	0.2193139
246	0x3f1ffcac	0.6249492
247	0xbf1b196a	-0.60585654
248	0x3e5beb99	0.21476592
249	0x3ede9443	0.4347249
250	0xbe7ae055	-0.24499638
251	0xbe55f55f	-0.20894383
252	0xbed4126a	-0.414203
253	0xbced44d9	-0.028963493
254	0x3f383553	0.71956366
255	0xbd6ccd7a	-0.057813145

base.fc1.weight f4 [400, 400]
0	0x3e456e8c	0.19280452
1	0x3d75bb4f	0.059993085
2	0x3d131681	0.035910133
3	0xbecf73cc	-0.40518034
4	0x3ea4b5cf	0.3216996
5	0xbc92dd69	-0.017927842
6	0xbd5a2293	-0.05325563
7	0xbdbb3fd0	-0.09143031
8	0x3d7693d1	0.060199562
9	0x3d03a835	0.032142837
10	0xbe055cad	-0.13023634
11	0x3e55c82a	0.20877138
12	0xbcd1d75c	-0.025615387
13	0xbf0416f7	-0.5159754
14	0x3e369fbc	0.17834371
15	0xbe666f51	-0.22503401
16	0x3d2de7c2	0.04245735
17	0x3d65cedf	0.05610549
18	0x3d8c7d67	0.06859856
19	0x3e4eba73	0.20188312
20	0x3f02d90d	0.51112443
21	0x3ca2b539	0.019861804
22	0x3d0e9448	0.03480938
23	0xbca9202a	-0.02064522
24	0xbedbac13	-0.4290472
25	0xbee29142	-0.44251448
26	0x3e325730	0.17416072
27	0xbf0bf169	-0.5466524
28	0x3e31eafe	0.17374799
29	0xbc7e8e29	-0.015536823
30	0x3eeace5c	0.45860565
31	0xbe0f4e63	-0.13994746
32	0xbcd27d86	-0.02569462
33	0x3d76af6f	0.0602259
34	0xbf206267	-0.6265015
35	0x3dc17294	0.09445682
36	0x3f49d43b	0.78839463
37	0x3ec20bf9	0.3789976
38	0xbc126fb1	-0.008937762
39	0xbd9b1b3e	-0.075735554
40	0xbd3676d7	-0.04454693
41	0xbd44643d	-0.047947157
42	0x3ec92079	0.39282587
43	0x3cb0aa53	0.021565592
44	0xbe65e85c	-0.2245192
45	0x3d20d355	0.039264042
46	0xbdd619e6	-0.104541585
47	0x3dff6bf2	0.12471761
48	0x3e624b4d	0.22099037
49	0x3e10421e	0.14087722
50	0xbe2e1cda	-0.17003193
51	0x3d4e36e5	0.05034532
52	0xbecc3575	-0.39884534
53	0xbe1b2d9b	-0.15154116
54	0xbf678c2f	-0.9044828
55	0xbe63d10c	-0.22247714
56	0xbe67fe7b	-0.2265567
57	0x3d1852c4	0.037188306
58	0xbe8a84c6	-0.27054423
59	0xbe296a9c	-0.16544574
60	0xbe1a1c1c	-0.15049785
61	0x3c1125cb	0.008859108
62	0x3ec14807	0.37750265
63	0x3d1cbadb	0.038264137
64	0xbc0fb5d0	-0.008771375
65	0x3ea28d1d	0.31748286
66	0xbe6622b5	-0.22474177
67	0x3dc28b89	0.094992705
68	0x3e220d35	0.1582535
69	0xbe555a8b	-0.2083532
70	0x3dfa2b65	0.12215308
71	0xbea81194	-0.3282591
72	0xbee48b9c	-0.44637764
73	0x3dedf056	0.11618106
74	0xbe65cc9e	-0.22441337
75	0xbda28a02	-0.07936479
76	0xbe3b7816	-0.18307528
77	0xbd87bcd9	-0.06627817
78	0x3df70b1d	0.120626666
79	0xbeaed6e4	-0.34148324
80	0xbd5128de	-0.051064365
81	0xbd8faebd	-0.070157506
82	0xbd876c9f	-0.06612515
83	0xbe156aec	-0.14591569
84	0x3e1c3ff4	0.15258771
85	0x3dc5e604	0.096630126
86	0xbe16baa8	-0.14719641
87	0xbe4d776b	-0.20065086
88	0x3dc0523a	0.093906835
89	0xbda79de7	-0.08184414
90	0xbeaf87b5	-0.34283224
91	0xbeb29a19	-0.34883192
92	0x3db40431	0.08789862
93	0x3ec292c8	0.3800261
94	0x3ca1fbf2	0.019773457
95	0x3e47afd3	0.19500665
96	0xbbd26569	-0.0064207804
97	0xbed15573	-0.40885505
98	0xbd8ff8c8	-0.07029873
99	0xbd8ef8a7	-0.069810204
100	0xbed2331b	-0.41054615
101	0xbd1c8056	-0.03820833
102	0x3e08120b	0.13288133
103	0xbd7c9a82	-0.061670788
104	0x3e27a2ec	0.16370744
105	0xbe73b134	-0.23798066
106	0x3e8e22e6	0.27761
107	0xbe2810bf	-0.16412638
108	0xbd8ff2ad	-0.070287086
109	0x3e4449b6	0.19168743
110	0x3e4df303	0.20112233
111	0x3deba96b	0.11506923
112	0xbe832c5b	-0.25619778
113	0x3e209fe9	0.15686001
114	0xbd562e9b	-0.05229054
115	0x3cb89499	0.022531794
116	0x3e0a3711	0.13497569
117	0x3e0882ce	0.13331148
118	0xbef4890a	-0.47760803
119	0xbf008d90	-0.5021601
120	0xbdf31b21	-0.11870409
121	0x3db53ce6	0.08849506
122	0xbecb8aa6	-0.39754218
123	0xbf279d61	-0.65474516
124	0x3ea97077	0.33093616
125	0xbd037c82	-0.03210116
126	0xbd1dd390	-0.03853184
127	0xbeb16b0f	-0.34651992
128	0xbd9177e0	-0.071029425
129	0xbe10bc2c	-0.14134282
130	0x3d5e6b18	0.05430135
131	0xbe4462fd	-0.19178386
132	0xbe9ee61c	-0.31034935
133	0xbcbbd05f	-0.022926508
134	0xbcb98627	-0.022646977
135	0x3e85e98f	0.26154754
136	0xbe91eab2	-0.2849937
137	0x3e25098a	0.1611692
138	0x3dc33bf4	0.095329195
139	0x3d698015	0.057006914
140	0xbee804a6	-0.45316046
141	0xbd2c6385	-0.042087097
142	0x3d2f0fa3	0.04273952
143	0xbbf2e476	-0.0074124886
144	0xbdc3842c	-0.09546694
145	0xbd677d79	-0.056516144
146	0xbefa4f39	-0.48888567
147	0x3e810eb0	0.25206518
148	0x3d44f678	0.048086613
149	0x3c54f6c6	0.0129982885
150	0x3e80b310	0.25136614
151	0xbec3d2cf	-0.38246772
152	0xbf2c8ee3	-0.6740553
153	0x3e22c324	0.15894753
154	0xbd2b8ae2	-0.041880496
155	0x3d2593ed	0.040424276
156	0xbe34e55a	-0.17665616
157	0x3d819882	0.06327917
158	0xbe5b13e1	-0.21394302
159	0xbe30d70f	-0.17269538
160	0xbeaac24d	-0.33351365
161	0xbe2dd341	-0.16975118
162	0x3ddd6c44	0.10811666
163	0xbf25eeec	-0.6481769
164	0xbc2dbf83	-0.010604742
165	0xbe7fc6fa	-0.24978247
166	0x3eaf3294	0.34218276
167	0x3e1609d4	0.14652187
168	0xbd59f9f8	-0.053216904
169	0x3bfa140b	0.007631784
170	0xbe19ddaf	-0.15025972
171	0xbe3dbc4f	-0.18528865
172	0xbd0e5e83	-0.034758102
173	0x3dd065b5	0.10175649
174	0xbe5db8b4	-0.2165249
175	0x3e3daf3b	0.18523876
176	0x3e96513a	0.29358846
177	0xbdb63913	-0.08897605
178	0xbea30bce	-0.31844944
179	0x3d81b7c1	0.063338764
180	0xbe12d8e1	-0.14340545
181	0x3e23afe5	0.15985067
182	0x3dd98c90	0.10622513
183	0x3d53a434	0.05167027
184	0x3e4b8215	0.19873841
185	0xbe91d7a5	-0.28484836
186	0x3e27830e	0.16358587
187	0xbdfa49ce	-0.122211084
188	0xbe9a2c74	-0.3011204
189	0xbe20ceea	-0.15703931
190	0x3ec8d6ae	0.39226288
191	0xbe3500da	-0.17676106
192	0x3dedf8c6	0.116197154
193	0x3db1702d	0.08663974
194	0x3e35fea7	0.17772923
195	0x3d6ef927	0.05834308
196	0x3e636f3a	0.22210398
197	0x3e297563	0.16548686
198	0xbe9860c9	-0.2976134
199	0xbe85358b	-0.26017413
200	0x3d941e90	0.07232392
201	0x3e8e07d3	0.27740344
202	0xbe250901	-0.16116716
203	0x3d0a5bb6	0.03377887
204	0x3ea0fb6d	0.31441823
205	0xbe9f5957	-0.31122848
206	0x3d17585d	0.036949504
207	0x3e047004	0.12933356
208	0xbf2ec2ba	-0.6826588
209	0xbc3a5ccf	-0.011374666
210	0x3e3f318c	0.18671244
211	0x3dd3d4c1	0.10343314
212	0xbe73793e	-0.23776719
213	0x3e3be632	0.18349531
214	0xbe6b4068	-0.22973788
215	0xbdaf07b9	-0.08546395
216	0xbed01a11	-0.40644887
217	0x3d738903	0.059456836
218	0x3cbd4b5b	0.023107221
219	0xbe622a39	-0.22086419
220	0x3e3ad1d3	0.18244104
221	0x3e012367	0.12611161
222	0x3e69586a	0.22787634
223	0xbf2849ef	-0.65737814
224	0x3dadb75e	0.0848224
225	0x3e68da68	0.22739565
226	0xbde4eebf	-0.1117835
227	0xbe3babf0	-0.18327308
228	0x3dc4164d	0.09574566
229	0xbe574670	-0.21022964
230	0x3e441853	0.19149904
231	0xbedffdf1	-0.4374843
232	0x3ea79dc1	0.32737544
233	0x3db1ad2a	0.086756065
234	0x3db38d12	0.087671414
235	0xbcd0c8c3	-0.025486356
236	0xbe6d50d8	-0.2317537
237	0x3da8a449	0.0823446
238	0x3edaf592	0.4276548
239	0xbe1b6172	-0.15173891
240	0x3e3add96	0.18248591
241	0xbd00e803	-0.031471264
242	0xbe8b21dc	-0.2717427
243	0xbccc1f2a	-0.024917204
244	0x3e455f12	0.19274548
245	0x3d94c29c	0.07263681
246	0xbf0fe085	-0.56201965
247	0x3d2be23d	0.041963805
248	0xbe1020ff	-0.14075087
249	0x3e4de3c3	0.20106415
250	0x3e778002	0.24169925
251	0x3d03999b	0.03212891
252	0xbd8c1141	-0.068392284
253	0xbdbfbf61	-0.093626745
254	0xbc602d89	-0.013682731
255	0x3e829577	0.25504658

base.fc1.bias f4 [400]
0	0x3e2fdd91	0.17174365
1	0x3bb9d886	0.0056715636
2	0xbe28cfe0	-0.16485548
3	0xbda3ddd8	-0.08001298
4	0x3d748bbc	0.059703574
5	0x3d9ccf10	0.076566815
6	0x3d9d2df3	0.0767478
7	0x3d9e16f6	0.07719223
8	0xbe15d1f2	-0.14630869
9	0x3d9ea4da	0.07746287
10	0xbea560d2	-0.3230043
11	0x3d3ec734	0.046576694
12	0xbd80abfd	-0.06282804
13	0xbe4ce852	-0.20010498
14	0xbdfbc52d	-0.12293468
15	0x3d07328a	0.033007182
16	0x3dade36d	0.08490644
17	0xbcd07461	-0.025446119
18	0xbd6ee834	-0.058326915
19	0xbca13fff	-0.019683836
20	0xbe02f395	-0.12788232
21	0xbde178d9	-0.11009378
22	0x3c8acdbe	0.016943809
23	0x3cd1a742	0.02559245
24	0x3d61eb20	0.055155873
25	0x3d26792f	0.040642913
26	0x3e60bdd0	0.21947408
27	0x3e5b6dcd	0.21428604
28	0x3cb31d73	0.021864628
29	0x3da4f093	0.080536984
30	0x3d93a011	0.072082646
31	0x3ce10236	0.027466875
32	0xbe608557	-0.21925865
33	0xbc698357	-0.014252505
34	0xbe024601	-0.12722017
35	0x3d6906dc	0.056891307
36	0x3c4a839e	0.012360482
37	0xbe15797b	-0.14597122
38	0xbe17fe64	-0.14843136
39	0x3d89ccf5	0.067285456
40	0x3b2a18b0	0.0025954656
41	0xbda74c94	-0.08168903
42	0xbd5dae08	-0.054121047
43	0xbcd991b8	-0.026558742
44	0x3e0be549	0.13661684
45	0x3e69c735	0.22829898
46	0x3d954eab	0.07290395
47	0x3d84f092	0.06491198
48	0x3c519cd5	0.012793739
49	0x3d6618d8	0.056176037
50	0x3d9b3666	0.07578735
51	0x3d6deab8	0.058085173
52	0xbd9b71a4	-0.075900346
53	0x3d8f8e45	0.07009558
54	0xba76137f	-0.00093870604
55	0xbe7514e6	-0.23933753
56	0x3ee36d68	0.44419408
57	0x3d8184ae	0.06324135
58	0x3d527a29	0.051386032
59	0x3d8391e5	0.064243115
60	0xbd2a5e61	-0.041593913
61	0x3daad9d0	0.08342326
62	0xbc3fcf39	-0.011707121
63	0xbe819fa3	-0.25317106
64	0xbd46534c	-0.04841928
65	0x3d9df90e	0.07713519
66	0x3d825265	0.06363372
67	0xbc420393	-0.0118416725
68	0xbce3e458	-0.027818844
69	0xbcad019d	-0.021118933
70	0xbe19c3da	-0.15016118
71	0xbe0aafe5	-0.13543661
72	0x3e13fda2	0.14452222
73	0xbd939613	-0.07206359
74	0x3d8c37fe	0.06846617
75	0xb9bfc2e6	-0.0003657557
76	0x3d2dc6b5	0.04242583
77	0xbe7fcb37	-0.24979864
78	0x3e61bec5	0.22045429
79	0x3df55be9	0.11980421
80	0xbdc01e1d	-0.09380744
81	0xbd17ec7e	-0.03709077
82	0xbe9e3435	-0.30899206
83	0x3d83b1f9	0.0643043
84	0x3d9b42f5	0.075811304
85	0xbd8ddf6b	-0.06927379
86	0xbd0dd4b8	-0.034626693
87	0xbe3ca04f	-0.18420528
88	0xbe98a927	-0.29816553
89	0x3db1fd12	0.086908475
90	0xbdfe1f94	-0.12408367
91	0xbd8638ad	-0.06553779
92	0x3d959b5b	0.07305022
93	0x3daf39e8	0.085559666
94	0x3d3f7e96	0.04675158
95	0xbd1cd4ca	-0.03828887
96	0xbdfec688	-0.124402106
97	0x3da62daa	0.081141785
98	0x3da3ca87	0.079976134
99	0xbc841ba8	-0.016126469
100	0x3d7de44b	0.061985295
101	0xbca2d736	-0.019878011
102	0x3d6f30c3	0.058396112
103	0x3d854ba1	0.06508566
104	0xbe16ae79	-0.14714994
105	0x3d871e8b	0.065976225
106	0x3d8435da	0.06455584
107	0x3ddaa7b1	0.10676516
108	0xbbf1f4e3	-0.007383929
109	0xbd6ab4bf	-0.05730128
110	0x3e3cf8fd	0.18454356
111	0xbc17cf73	-0.009265768
112	0xbe369e03	-0.17833714
113	0x3df3ac60	0.11898112
114	0xbca043bd	-0.01956355
115	0xbda045ff	-0.07825851
116	0x3dfbce4f	0.122952096
117	0xbd0d7e17	-0.034544077
118	0x3d17d231	0.03706569
119	0xbca4ab0c	-0.020101093
120	0x3d9f9e32	0.07793845
121	0x3d8bca29	0.06825668
122	0x3d8a62bc	0.06757113
123	0xbdcc0e2d	-0.09963641
124	0xbe14ae57	-0.1451963
125	0x3d6df2a9	0.058092747
126	0x3d7c9e3c	0.06167434
127	0x3e5f81f5	0.21826918
128	0x3d83ba4c	0.06432018
129	0x3d8f4226	0.06995039
130	0x3b8f27e5	0.0043687695
131	0x3d9e8cf3	0.07741728
132	0x3db65fc4	0.089049846
133	0xbb3431ed	-0.0027495578
134	0xbd57b166	-0.052659415
135	0xbc5e4ff2	-0.013568865
136	0x3db726a5	0.08942918
137	0xbde32726	-0.11091451
138	0x3d49f630	0.04930705
139	0x3da632e0	0.081151724
140	0x3d08a906	0.03336432
141	0xbd6e0537	-0.058110442
142	0x3da199e0	0.078906775
143	0xbd67acb2	-0.05656118
144	0x3d7341af	0.059388813
145	0x3c9918fc	0.018688671
146	0x3e02fac9	0.1279098
147	0x3d42e7b4	0.04758425
148	0xbcc7f170	-0.024407119
149	0x3e09cf78	0.1345805
150	0x3e67f722	0.22652867
151	0x3cbab8b6	0.022793155
152	0x3d91abe8	0.07112867
153	0x3cc56cb4	0.024099685
154	0x3da0de7d	0.07854936
155	0xbe2720fb	-0.16321175
156	0x3da56d48	0.08077484
157	0xbce3c2dd	-0.027802879
158	0xbd37c177	-0.044862237
159	0xbe0e79cd	-0.13913651
160	0x3db19942	0.0867181
161	0xbd264208	-0.040590316
162	0x3da692b7	0.081334524
163	0x3d6472f9	0.05577371
164	0xbd8fd330	-0.07022703
165	0xbc9f9ca9	-0.019483881
166	0x3dac0c7a	0.08400817
167	0x3d8b8da0	0.06814122
168	0xbe4de136	-0.20105442
169	0x3d80f507	0.06296735
170	0x3d52d8a8	0.05147615
171	0x3d43e1f5	0.04782291
172	0x3b670aea	0.0035254308
173	0xbdbef6c4	-0.093244106
174	0x3d54dc5f	0.051967975
175	0x3d8f735d	0.07004426
176	0xbe1d5b6f	-0.1536691
177	0x3d9a3fc3	0.07531693
178	0x3d9039c7	0.0704227
179	0x3c815c92	0.015791211
180	0xbd137295	-0.035997946
181	0x3dfa0da9	0.12209637
182	0xbd0665e4	-0.032812014
183	0xbe250065	-0.16113432
184	0x3d96dd99	0.07366485
185	0xbd7c3b4b	-0.061579984
186	0x3d927dd4	0.07152906
187	0x3d96f595	0.0737106
188	0x3e16c7e2	0.14724687
189	0x3ee2bb38	0.44283462
190	0xbd5ace51	-0.053419415
191	0xbcae98ac	-0.021313034
192	0x3c550fc1	0.013004244
193	0x3dab7ec0	0.08373785
194	0x3e1ef342	0.15522483
195	0xbdad5675	-0.08463756
196	0x3da35f08	0.0797711
197	0xbebced63	-0.36899862
198	0x3e5de2a4	0.21668488
199	0x3d4c1545	0.04982497
200	0xbd1960ff	-0.03744602
201	0xbd65d481	-0.056110863
202	0x3dc32d7a	0.09530158
203	0xbc191226	-0.009342706
204	0x3d952ad0	0.072835565
205	0x3e06a690	0.13149476
206	0x3d9fbac0	0.077992916
207	0x3ce5c877	0.02804969
208	0x3c6a1d0a	0.01428915
209	0xbe335fc5	-0.17517002
210	0xbebe069b	-0.37114415
211	0x3da313a7	0.07962733
212	0xbda8596f	-0.08220183
213	0x3d51e05b	0.051239353
214	0x3ead28e4	0.3382026
215	0x3cbfaaba	0.023396838
216	0xbe3c4fc7	-0.18389808
217	0xbcef7f0a	-0.029235382
218	0x3d99a528	0.07502204
219	0xbeb60f05	-0.35558334
220	0x3d94a187	0.072573714
221	0x3e2f43f8	0.17115772
222	0xbe289c9f	-0.16465996
223	0x3e0ea544	0.13930231
224	0xbdabd314	-0.08389869
225	0xbe60d899	-0.21957625
226	0x3cf59561	0.029978456
227	0x3a5bddcc	0.00083872373
228	0xbe295793	-0.16537313
229	0x3e27337c	0.16328233
230	0xbe444bc2	-0.19169524
231	0x3d86f2dd	0.06589291
232	0x3e806064	0.2507354
233	0x3e423b1b	0.1896786
234	0x3bc41560	0.0059839934
235	0xbd31602b	-0.043304604
236	0xbe21bbc8	-0.15794289
237	0xbd519105	-0.051163692
238	0x3ca3360f	0.019923238
239	0x3e281389	0.16413702
240	0x3c5aa0ad	0.013343972
241	0x3d76957d	0.060201157
242	0x3da59854	0.08085695
243	0x3dff100c	0.124542326
244	0x3de0b885	0.10972694
245	0xbe2d4d04	-0.1692391
246	0x3d9c6c4f	0.07637846
247	0xbe0c86e1	-0.13723327
248	0xbc7f1ec1	-0.015571297
249	0x3d97b572	0.07407655
250	0xbdea94bc	-0.1145415
251	0xbda2f072	-0.079560176
252	0xbd5634f5	-0.052296598
253	0x3d8759ef	0.0660895
254	0x3d99617e	0.07489298
255	0x3e9d2e4a	0.30699378

last.weight f4 [16, 400]
0	0xbcfc86f7	-0.030826075
1	0x3d98c0ac	0.07458624
2	0xbc4d0784	-0.012513999
3	0x3ccaa239	0.024735557
4	0x3d9dead8	0.077108085
5	0x3c23809b	0.009979392
6	0x3dee4d96	0.11635892
7	0xbc861830	-0.016368955
8	0xbed50787	-0.41607305
9	0xbb913ae0	-0.0044320673
10	0x3dbe55f6	0.092937395
11	0x3c8bbd38	0.017058
12	0x3e009d5e	0.12560031
13	0x3e006dce	0.12541887
14	0xbe857849	-0.26068333
15	0xbcdf2f7c	-0.027244322
16	0x3dae5005	0.08511356
17	0x3ce544d8	0.027986929
18	0x3e9dfe8f	0.30858275
19	0x3dc9dc2c	0.098564476
20	0xbea27fb9	-0.3173807
21	0x3ccc8dac	0.024969898
22	0x3e7db3ca	0.24775615
23	0x3deb00b7	0.11474746
24	0xbb41c300	-0.0029565692
25	0x3c571367	0.0131271845
26	0xbdf28af6	-0.11842911
27	0xbc147629	-0.009061375
28	0xbd1adf4b	-0.037810605
29	0xbb95ffc5	-0.0045776092
30	0x3c81e02a	0.01585396
31	0x3e776caf	0.24162553
32	0x3d9feef2	0.07809247
33	0x3cb28b6a	0.021794993
34	0x3e28cf0f	0.16485237
35	0x3bdc5aa1	0.006724671
36	0xbe3ee021	-0.18640186
37	0x3bcbb250	0.006216325
38	0xbe4c484b	-0.19949453
39	0x3ca8b695	0.020594874
40	0xbe6d548e	-0.23176786
41	0xbdfe990a	-0.12431534
42	0x3cd955c2	0.02653015
43	0x3e4e62dc	0.201549
44	0xbc895d73	-0.016768193
45	0xbc4c77e5	-0.012479757
46	0x3bb7f118	0.0056134574
47	0x3e0d9db9	0.13829698
48	0x3dad4fe4	0.084625036
49	0x3ca9be03	0.020720487
50	0xbd240840	-0.04004693
51	0xbe265fe7	-0.16247521
52	0x3ebe7e1f	0.37205598
53	0x3bbef055	0.0058269897
54	0x3d0461c0	0.032319784
55	0x3b87fbac	0.0041498747
56	0xbcf47479	-0.029840695
57	0x3bc639fb	0.0060493923
58	0x3cc3117f	0.023812054
59	0x3bfc839b	0.0077061183
60	0x3d7a432a	0.06109921
61	0xbbea3702	-0.0071476707
62	0xbda0ff39	-0.0786118
63	0x3c193a68	0.009352304
64	0x3cff092e	0.031132307
65	0x3b843b5b	0.004035396
66	0xbdeb98aa	-0.11503728
67	0x3e663b82	0.22483638
68	0x3d80a6b8	0.06281799
69	0xbd57b71c	-0.05266486
70	0x3e6c6281	0.23084451
71	0x3ec0aac6	0.3763029
72	0x3e83de78	0.25755668
73	0x3cdf3399	0.027246283
74	0xbc36681d	-0.011133221
75	0xbe733cd3	-0.23753671
76	0xbd84aa96	-0.06477849
77	0xbd813da1	-0.06310583
78	0xbc85fcde	-0.016355928
79	0x3cd0f2af	0.025506346
80	0xbd901805	-0.07035831
81	0xbdfb2b8e	-0.12264167
82	0x38b2f187	8.5326894e-05
83	0x3c108e68	0.008823015
84	0x3be4924e	0.0069754487
85	0x3dd2ad0f	0.102869146
86	0xbe132362	-0.14368966
87	0x3ec2b6a4	0.3802997
88	0xbee24392	-0.44192177
89	0x3d16f588	0.03685525
90	0xbe9cf5e8	-0.30656362
91	0xbd91ddc7	-0.07122379
92	0x3d509953	0.05092747
93	0x3d36d58a	0.04463724
94	0x3d1a8636	0.03772565
95	0xbdd20744	-0.10255292
96	0xbe3c3b46	-0.18381986
97	0xbc0a68c1	-0.008447827
98	0x39f044c3	0.000458276
99	0xbd973c7f	-0.073845856
100	0xbce75cb8	-0.028242454
101	0xbd8871ef	-0.06662356
102	0x3bc118b4	0.0058928374
103	0x3c0690ad	0.008213204
104	0x3e3f214d	0.18665047
105	0x3ba84dba	0.005136219
106	0x3b11edb9	0.0022266938
107	0x3e8e6fea	0.2781976
108	0x3dcf1693	0.101117276
109	0x3dbde111	0.09271444
110	0xbcbe1216	-0.023201983
111	0xbdd218c6	-0.102586314
112	0x3deea5dc	0.11652729
113	0xbdd1fe8c	-0.10253629
114	0xbe2734e5	-0.16328771
115	0x3e740931	0.23831631
116	0xbd746f1d	-0.05967628
117	0xbde06adb	-0.10957881
118	0xbd843b8b	-0.064566694
119	0x3ba787d6	0.0051126285
120	0x3c72d4ae	0.014821215
121	0xbb9a7b3b	-0.0047143972
122	0x3a47f04c	0.00076270546
123	0xbe38b144	-0.18036371
124	0x3b3ced1c	0.0028827852
125	0xbb9a37cc	-0.0047063585
126	0xbc32f65f	-0.010922997
127	0x3cee2558	0.029070541
128	0x3bc98247	0.0061495635
129	0xbc5e879b	-0.013582136
130	0xbedda788	-0.4329188
131	0x390a9e03	0.0001321957
132	0x3e7a7413	0.24458341
133	0x3ded2bfc	0.11580655
134	0xbe239251	-0.15973784
135	0xbe474b62	-0.1946235
136	0x3e9519d4	0.29121268
137	0xbd99dd00	-0.075128555
138	0xbc320aef	-0.010866865
139	0x3bf58552	0.0074926997
140	0x3de0f0cf	0.109834306
141	0x3ccbf857	0.024898691
142	0xbc0826ec	-0.008310061
143	0x3db4fd95	0.088374294
144	0x3c63cbdc	0.013903584
145	0x3d696834	0.05698414
146	0xbdddf268	-0.10837251
147	0x3a9df0cb	0.0012049911
148	0x3e3b35d6	0.18282256
149	0x3df12e47	0.11776405
150	0xbd03b3d6	-0.032153927
151	0x3e83c01f	0.25732514
152	0xbae6c2fd	-0.0017605718
153	0x3d59cbf7	0.05317303
154	0x3c23b37b	0.009991522
155	0x3e5ecc42	0.21757606
156	0x3e548236	0.20752797
157	0x3c8da95a	0.017292667
158	0xbd3a9806	-0.045555137
159	0x3c66cd0c	0.014086973
160	0x3e0e9788	0.13924992
161	0x3e2072a7	0.15668736
162	0x3dc48084	0.09594825
163	0x3e12bf86	0.14330873
164	0x3e331aba	0.17490664
165	0xbd664234	-0.05621548
166	0xbd8ad5c1	-0.067790516
167	0x3c201bc9	0.0097722495
168	0x3d26d1f4	0.04072757
169	0xbb88ff1f	-0.0041808034
170	0xbd4045f4	-0.046941712
171	0xbe9a89d9	-0.30183294
172	0xbc4f167a	-0.012639636
173	0xbd0e5a16	-0.03475388
174	0x3e217f0f	0.15771125
175	0x3ba28423	0.0049595996
176	0x3e2264d0	0.1585877
177	0x3aa6b1a7	0.001271774
178	0xbc8036c6	-0.015651118
179	0xbd9161aa	-0.07098706
180	0xbe834032	-0.25634915
181	0x3dd3047f	0.10303592
182	0x3de1f60b	0.11033257
183	0x3e91d2d2	0.28481156
184	0xbca5caeb	-0.02023836
185	0xbe401303	-0.18757252
186	0xbc23e343	-0.010002914
187	0xbb7dfe89	-0.003875645
188	0xbdaae0f9	-0.083436914
189	0x3e27bdcf	0.16381
190	0x3dd98648	0.10621315
191	0xbe260fb1	-0.16216923
192	0x3e74fe71	0.23925187
193	0x3dd0f6fe	0.1020336
194	0xbc2c7372	-0.010525571
195	0xbd8d18d5	-0.06889502
196	0xbb9f0701	-0.00485313
197	0x3e981de3	0.29710302
198	0x3c833ca0	0.01602012
199	0x3ddb0f65	0.10696296
200	0x3e36d141	0.17853262
201	0x3e16bc98	0.1472038
202	0x3dd7abc3	0.10530808
203	0xbedbf733	-0.42962036
204	0x3b22237e	0.0024740393
205	0x3d194fba	0.03742955
206	0x3d0c9a9e	0.034327142
207	0xbe175043	-0.14776711
208	0x3d5e81d0	0.054323018
209	0x3e291151	0.16510512
210	0xbe4f37e6	-0.20236167
211	0x3bede0cb	0.0072594634
212	0xbcffad0f	-0.03121045
213	0x3c95e0f8	0.01829575
214	0xbcd8a6a3	-0.026446646
215	0x3d521611	0.051290575
216	0x3c3c0a7a	0.011477107
217	0xbeb55b22	-0.3542109
218	0xbc0d9499	-0.0086413855
219	0xbe470248	-0.19434464
220	0xbbe8bb30	-0.0071023926
221	0x3d844420	0.06458306
222	0xbe7ff71a	-0.24996606
223	0xbda770c0	-0.08175802
224	0xbd8460be	-0.064637646
225	0x3e0f2124	0.13977486
226	0x3b766496	0.0037596575
227	0xbd9f30d3	-0.07772984
228	0x3d6e5c51	0.05819351
229	0xbe08f975	-0.1337641
230	0x3eaa174c	0.332209
231	0x3b76c227	0.0037652345
232	0x3d840bed	0.06447587
233	0x3c8b1fc9	0.01698293
234	0x3efef24b	0.4979423
235	0x3db029c5	0.08601717
236	0x3ea06b10	0.31331682
237	0xbe2d7439	-0.16938867
238	0xbcf02fa0	-0.029319584
239	0xbdc3de74	-0.09563914
240	0x3d8e27cb	0.06941184
241	0x3c96c5d0	0.018404871
242	0xbd436c24	-0.047710553
243	0xbdcfb307	-0.10141569
244	0xbe4fd687	-0.2029668
245	0x3cdab9e4	0.026699968
246	0x3b557cf5	0.00325757
247	0x3f0c059e	0.5469607
248	0x3d3a5b46	0.0454972
249	0xbc37d9b0	-0.011221334
250	0xbd91ec42	-0.07125141
251	0xbe97198a	-0.29511672
252	0x3e1177ba	0.14205828
253	0x3bba2f4a	0.005681907
254	0x3c5987b5	0.013276984
255	0x3dc80fe6	0.097686574

last.bias f4 [16]
0	0xbc880f63	-0.0166089
1	0x3ea0dd03	0.3141862
2	0x3e4213f5	0.18952926
3	0x3e45a2e4	0.19300419
4	0x3dd17aa0	0.10228467
5	0xbdea0e85	-0.11428551
6	0xbd5bc177	-0.0536513
7	0x3e9f572a	0.31121188
8	0xbe1d187d	-0.15341373
9	0xbda7e58e	-0.08198081
10	0xbe57dcff	-0.21080397
11	0x3e415d3c	0.18883222
12	0x3d9d61e6	0.07684688
13	0x3d7b0848	0.061287194
14	0xbe71adbf	-0.23601435
15	0xbebb73f2	-0.36611897
