log/MUJOCO_ANT_DIR_12_v4/Ant-v3/5/model/model_pf_task_9914.pth (torch, 27411 bytes, 4 tensors)

base.fc0.weight f4 [400, 12]
000000 86 35 7c 36 56 5e 9b bd 1b f6 56 bd 06 55 9e bc
       3.758208e-06 -0.075863525 -0.0524808 -0.019327652
000010 b6 3e 43 bd c4 ab 29 bd 1a 6f 32 bd e2 9b 0e bd
       -0.047667228 -0.041423574 -0.043562986 -0.03481663
000020 de 38 88 bd fd 24 24 bd 3a f2 80 bd ce ba 56 bd
       -0.066514716 -0.040074337 -0.06296201 -0.052424245
000030 48 13 36 bd 1e 5b 3d bd 43 27 82 3c 85 9e 49 bd
       -0.04445198 -0.046229474 0.015887862 -0.04922344
000040 df 21 5e bd a9 ee 71 bd c8 d6 53 bd 11 91 a1 bb
       -0.05423152 -0.059065495 -0.051718503 -0.0049306233
000050 bf dd 7c bd 5a cb ce bc 81 8f 3e bd 48 40 80 bd
       -0.06173491 -0.02524345 -0.046523575 -0.06262261
000060 f6 31 f3 bd b2 d3 22 3e 8e 78 f2 bd 41 65 ef bd
       -0.11874764 0.15901068 -0.118394 -0.116892345
000070 bc dd d2 bd a1 75 d3 bd 91 15 f3 bd bb 7a cb bd
       -0.10296199 -0.1032517 -0.11869348 -0.09935518
000080 96 5c d7 bd e8 ef d4 bc 56 68 08 bd 41 e8 f6 3d
       -0.10515706 -0.025993302 -0.033302628 0.12056018
000090 b4 cb 93 3d e2 4b f2 3d f2 af f9 3d cf 3e 66 3d
       0.07216588 0.1183088 0.12191762 0.056212243
0000a0 e4 5b 46 be d8 06 6b be 78 58 56 be 42 7c 74 be
       -0.19370991 -0.2295183 -0.20932186 -0.23875526
0000b0 fa dc d2 bd ec 6d 46 be 32 25 80 bd 08 76 4c be
       -0.10296054 -0.1937787 -0.062570944 -0.199669
0000c0 59 91 8a bb 0a 2d 7e bd b6 0d 3a be a0 fc 1a be
       -0.0042287526 -0.06205467 -0.18169293 -0.15135431
0000d0 b6 2e 31 be cb 9f 07 be cd 78 2b bd cc 26 36 be
       -0.17302975 -0.1324455 -0.04186325 -0.17788237
0000e0 c8 bd 3a be 51 5c 36 3e ed 80 32 be 25 88 05 be
       -0.18236458 0.17808653 -0.17431994 -0.13040216
0000f0 61 3d bc 3e 37 9a 8f 3e cb 37 43 be f7 e6 41 be
       0.36765578 0.28047344 -0.19064252 -0.18935762
000100 cc 67 40 be 21 71 46 be fb 8c 47 be d5 94 41 be
       -0.18789595 -0.19379093 -0.19487374 -0.18904431
000110 ca bb 42 be a0 47 43 be ed 67 a9 3e 4b 19 db 3e
       -0.19016948 -0.19070292 0.33087102 0.42792735
000120 05 7e 8f 3d 37 c7 0d 3e 8c 04 0f be 15 06 06 be
       0.07006458 0.13845526 -0.13966578 -0.13088258
000130 8f 52 0e be 31 4d 0e be b2 bc 0c be 86 a0 10 be
       -0.13898681 -0.13896634 -0.13743857 -0.14123735
000140 c3 12 13 be ff 9e 98 3d 64 52 11 be 53 58 55 bb
       -0.14362626 0.07452201 -0.14191586 -0.0032553866
000150 05 7b 93 bd 1a 22 8d bc 8f 26 55 bc fe 48 84 bd
       -0.072011985 -0.017228175 -0.013009681 -0.06459235
000160 68 77 8b bd 30 12 3d bd 77 8c 85 bd b7 e3 5d bd
       -0.06809884 -0.046159923 -0.06520932 -0.054172244
000170 dd 20 cf 3c 7c aa f3 bc 72 0a 87 bd 9a 30 ff 3c
       0.025284225 -0.02974438 -0.06593789 0.031151105
000180 f2 af b1 bc 08 ee 2d bd 25 ac ba bc 76 02 53 bd
       -0.021690343 -0.042463332 -0.022787163 -0.05151602
000190 c8 f9 33 bd 91 d7 bf 3c 3b 88 c0 bc c3 1b 85 bd
       -0.04393938 0.02341822 -0.02350246 -0.06499436
0001a0 3f af 56 bd 37 24 6d bd fa 1a 20 bd b7 9d 6b bc
       -0.05241322 -0.057895865 -0.039088227 -0.014380864
0001b0 35 55 ea 3e 80 f2 09 3f 76 9c 61 be d4 26 66 be
       0.45768133 0.5388565 -0.22032341 -0.22475749
0001c0 ff b0 5b be 07 2a 60 be e3 ed 5e be af 06 5b be
       -0.21454237 -0.21891032 -0.21770434 -0.21389268
0001d0 f5 2c 60 be 0e b2 5f be f2 52 5d be 3b ba 53 3e
       -0.2189215 -0.21845266 -0.21613672 0.2067651
0001e0 64 9f cd be cc 09 76 be 0e cd 7e 3e 98 e9 a6 3e
       -0.40160668 -0.24027175 0.2488291 0.32600093
0001f0 40 83 9a bd c8 ef 9f 3e 71 ee bd 3e 50 8b 1a 3e
       -0.07544565 0.31237626 0.3709598 0.15092206
000200 d6 01 ea be 15 8d e7 be a1 db ea be 72 3b e1 be
       -0.45704526 -0.45224825 -0.4587069 -0.43990666
000210 11 d5 a3 3c 6d 23 11 bd 98 88 fc 3b fc 1c 10 3c
       0.019999059 -0.035434175 0.007706713 0.008795973
000220 03 c0 10 bd e6 b0 59 3b 00 aa e6 bc 45 ac 03 bd
       -0.035339367 0.0033217012 -0.028157234 -0.03214671
000230 fe 63 48 bd 61 6e 80 bd 79 4f ea bc ba 05 01 bd
       -0.048923485 -0.06271053 -0.028602349 -0.031499602
000240 7a c4 40 bd 7e 1c 56 bd f6 09 51 3b 4f 5b 41 bd
       -0.047062375 -0.052273266 0.0031896806 -0.04720622
000250 f7 58 01 bd d2 d0 78 3b fb c7 51 bd 0d ac 64 bd
       -0.031578984 0.0037966263 -0.051216107 -0.055828143
000260 8d 81 3a bd 14 1e 02 bc 6f 1e 08 bd 5d 0a 04 3d
       -0.045533706 -0.0079417415 -0.03323215 0.032236446
000270 b1 93 bd 3e 82 9a c9 3e cf 09 7e be d9 3a 80 be
       0.37026742 0.39375693 -0.24808429 -0.25044897
000280 48 65 7e bd 93 10 80 be bc ce 56 bd e8 a6 68 be
       -0.062108308 -0.25012645 -0.05244325 -0.2271992
000290 4a fd 2a be 18 80 1d be 86 a1 7b be 22 c2 53 3e
       -0.16698185 -0.15380895 -0.24573335 0.20679525
0002a0 a2 87 87 be b5 ee 51 be 0b 3c 3c be 53 5b 60 bd
       -0.26470667 -0.20501216 -0.1838228 -0.054774594
0002b0 22 89 87 be c0 c8 3a 3d 6f 24 ca bc 5a 97 b5 3c
       -0.26471812 0.045601606 -0.024675576 0.022166897
0002c0 b9 6e 16 be 28 0c 14 be c8 f7 3f be 7e 99 87 be
       -0.14690675 -0.14457762 -0.18746865 -0.26484293
0002d0 44 11 ce bc 8e a1 cb bb e5 09 25 bd 48 2e 97 bd
       -0.025154717 -0.006214327 -0.04029264 -0.07381874
0002e0 b3 a9 d3 bc 61 6f 9d 3b 48 96 b5 bc 41 24 c4 38
       -0.025837755 0.004804537 -0.022166386 9.352761e-05
0002f0 df c4 b2 3c eb 4f 99 bd 4a 0e db bc d1 5e 15 bd
       0.021822391 -0.07485946 -0.026740212 -0.036467377
000300 8a 96 d8 be 97 54 bc be 19 72 d6 be fa 41 0b 3e
       -0.42302352 -0.36783287 -0.41883925 0.13599387
000310 4d f7 89 3e e8 46 48 3e fe 09 da be d6 c9 da 3c
       0.26946488 0.19558299 -0.42585748 0.026707571
000320 17 a8 3e 3f e8 19 d0 be ea d4 c7 3d 80 ee d7 be
       0.74475235 -0.40644765 0.09757407 -0.4217415
000330 e6 11 94 3b 01 6b 6a bd 37 37 1d bd ab c3 61 bd
       0.004518735 -0.057230953 -0.038382735 -0.055118244
000340 00 9c fb bc a5 b9 f7 bc f6 39 68 bd de f5 04 bd
       -0.030714035 -0.03023989 -0.0566959 -0.03246104
000350 60 8a 1b 3c 10 9c 21 bd bb 79 05 bd a5 7f f2 3c
       0.00949344 -0.039455473 -0.032586794 0.029601881
000360 3f c8 a8 3d 9c 56 97 bd e5 13 44 be 3e ae 54 be
       0.08241319 -0.07389566 -0.19148214 -0.20769593
000370 69 8c 47 be 13 92 53 be 7b 4f 54 be d0 8e 54 be
       -0.19487156 -0.20661192 -0.20733444 -0.20757604
000380 7e f4 d4 bd fc 42 9c 3e 8d 2b d2 3e 7e 8a 4c 3e
       -0.10398196 0.30519855 0.41048852 0.19974706
000390 69 9f e2 3c 29 14 ee bc c3 a5 00 bd 93 ff 00 bd
       0.027663903 -0.029062347 -0.031408083 -0.031493735
0003a0 6f e9 0b bd bc d1 c2 bc e8 69 18 bd 2e 23 1d bd
       -0.034158166 -0.02378165 -0.037210375 -0.038363628
0003b0 a3 8f 15 bd 3c 2f 44 bd 3e ad b5 bc dd 5b 18 bd
       -0.036513936 -0.04789661 -0.022177335 -0.037196983
0003c0 28 14 89 be 8e 20 ab be e2 c5 0d bc dc f4 4e 3d
       -0.2677319 -0.33423275 -0.008653136 0.050526485
0003d0 f4 fe 2f 3e 2b b1 85 3e ee af 0e 3e 72 2e 3f 3e
       0.171871 0.2611173 0.139343 0.18670061
0003e0 16 5f 2d 3e b5 c8 a0 be 3b ae a8 be 7d f2 a2 be
       0.16930804 -0.31403127 -0.32945427 -0.3182563
0003f0 17 31 73 bd d0 a2 cd 3c 67 19 96 bc f0 35 6e bd
       -0.059372988 0.02510205 -0.01832266 -0.058156908

base.fc0.bias f4 [400]
000000 07 a2 0b ba 60 80 8d bc e4 79 25 be 2e 3a fb bd
       -0.0005326573 -0.017273128 -0.16159779 -0.12266956
000010 a1 b0 37 be ef a5 12 3e ca db 0e be 12 1b 04 bd
       -0.17938472 0.14321111 -0.1395103 -0.03225238
000020 f2 09 c2 bc 87 95 36 3e 9d 53 b4 3e 05 15 ae bc
       -0.023686383 0.17830478 0.35220042 -0.021250257
000030 4b 21 06 bd 9c ab 06 3e 31 9e 3d bd 35 ec b8 bc
       -0.032746594 0.13151401 -0.04629344 -0.02257357
000040 a5 b6 b6 3e 41 0a 04 bd be f5 9c 3c da 96 ef bc
       0.35686222 -0.03223634 0.019160148 -0.029246736
000050 91 78 8f 3e 2d 2c d2 bc d1 73 fc bb 07 c5 ef bd
       0.28021672 -0.02565583 -0.007704236 -0.11707502
000060 28 ac 34 bc aa f2 a5 bc 53 ef a0 3e 94 9c 60 bd
       -0.011027373 -0.020257313 0.3143259 -0.054836825
000070 fc 8b 9d 3e 7a c8 03 be d8 02 09 bc e0 96 12 bd
       0.30770862 -0.12869444 -0.008362494 -0.035788417
000080 dc e0 7b 3e 09 1f 9a bd 66 41 f6 bd a1 e1 a1 bc
       0.24597496 -0.07525451 -0.120241925 -0.019760909
000090 44 11 04 bb ac fd 07 bd c1 fb b0 3e d4 b2 0a bd
       -0.0020151893 -0.033200905 0.34567073 -0.03386195
0000a0 45 55 2f bd 35 1a 7b bc a7 ef 0d bb 27 91 08 bd
       -0.04280593 -0.015326072 -0.0021657737 -0.033341553
0000b0 8f 05 96 bc 58 19 02 be 34 88 ec bc ca 83 70 3e
       -0.018313197 -0.1270498 -0.02887354 0.23487774
0000c0 83 63 2d bb 1d 81 8d bb 28 02 e8 3a c2 a9 ec bb
       -0.0026457019 -0.00431837 0.0017700838 -0.007222385
0000d0 8e 8a 50 bc f9 d8 bc 3e b9 df 13 bd 0a 83 9a bc
       -0.0127283465 0.36884287 -0.03610203 -0.018861312
0000e0 c8 c2 bd bc ac 74 a0 3d ae af 15 bc 06 89 da bc
       -0.023164168 0.078347534 -0.009136124 -0.026676666
0000f0 64 05 a3 3c 29 bf ce bc ac d6 29 bd c2 75 bb 3d
       0.019900031 -0.025237637 -0.041464493 0.0915332
000100 54 f4 b8 bc be f4 c2 bc 42 ae b9 3e c8 eb 52 be
       -0.022577442 -0.023798343 0.3626576 -0.20597756
000110 90 e9 99 bc 2f 31 fc bc 4c bf 2d bd 15 35 e2 bc
       -0.01878813 -0.030785171 -0.042418763 -0.027613202
000120 fa 5a 62 bd be 0b c0 bd 5c 9a cc 3a d7 63 0f bd
       -0.055262543 -0.0937724 0.0015609968 -0.035007324
000130 46 8a f3 bb a2 30 8f 3e 4a 49 a8 bc 28 8b 51 bd
       -0.007432255 0.2796679 -0.02054276 -0.0511581
000140 f6 a1 8b 3d 28 54 af bc 5e a8 2f bd cc 94 c3 bc
       0.06818001 -0.021402434 -0.042885177 -0.023874663
000150 80 62 29 bd 40 f9 b4 3e dd fa 46 bd 9c 7c d5 3a
       -0.041353703 0.35346413 -0.048579086 0.0016287747
000160 77 f2 bb bb ab c8 b5 bc b6 45 7b bc f2 3a 92 3e
       -0.005735691 -0.022190413 -0.015336445 0.28560597
000170 a1 04 76 bc ce ad 09 3c 85 46 da bd 5b 04 16 bd
       -0.015015752 0.008403255 -0.10657982 -0.036625247
000180 b6 a0 94 3e ea 86 43 bc 48 e7 60 3c f5 0a 90 bc
       0.29028863 -0.0119340215 0.013727017 -0.01758335
000190 73 26 d6 bc a0 0b c0 bb d0 64 de bc 74 71 07 bd
       -0.02614138 -0.005860761 -0.02714768 -0.03306718
0001a0 b2 ce 1f bc 47 5f 09 bd f7 50 46 bd 84 73 a6 bb
       -0.00975387 -0.03353813 -0.048417058 -0.0050796885
0001b0 89 8b 0f bd e5 f2 88 bc c9 97 12 be 4f 42 4b 3b
       -0.03504518 -0.016717384 -0.14315714 0.0031014865
0001c0 70 6e a4 bd 47 df c6 bb 78 2c bb bc 1a d7 8b bb
       -0.08028877 -0.006069097 -0.022848353 -0.0042675855
0001d0 80 ad d5 bc ca dd 7f 3b 64 aa 09 bd e7 15 8c bc
       -0.026083708 0.0039042109 -0.033609763 -0.017100288
0001e0 47 f1 7d be 2c 8d f5 bc 1e c3 b3 bc 09 4b eb bc
       -0.24799071 -0.029974543 -0.021943625 -0.028722303
0001f0 79 bc 05 bd f7 53 4d bc f0 73 17 be 76 c3 d4 bc
       -0.032650445 -0.012532226 -0.1479032 -0.02597211
000200 32 84 d9 bc 99 22 30 bc 07 68 e6 bc 8c 0e 9c bd
       -0.026552293 -0.010750436 -0.028125776 -0.07619962
000210 f4 a9 01 bd d2 19 17 bd 32 c3 d4 3d 2c 45 8e ba
       -0.03165622 -0.03688986 0.10388793 -0.0010854355
000220 99 b3 ab bc 1f 09 03 bd 51 29 7c 3e f9 1b 24 bd
       -0.020959662 -0.03199112 0.24625136 -0.04006574
000230 28 34 84 bc 40 a2 f3 bc 42 07 0a bd 44 a0 c5 bc
       -0.016138151 -0.029740453 -0.033698328 -0.024124272
000240 ad a2 96 bc 2b ea a1 bc 6f 80 42 bd b9 78 97 3b
       -0.018388117 -0.01976498 -0.047485765 0.0046225456
000250 23 54 11 3c 86 01 f2 38 24 f0 f5 bd 47 47 bf bd
       0.008870157 0.00011539743 -0.12008694 -0.09339767
000260 23 15 25 bd fc 8f 26 bd d6 29 ff bc 70 5e 89 3d
       -0.04030336 -0.040664658 -0.031147879 0.06707466
000270 43 9a 8f bc c3 72 cc bb 45 be d7 bc d2 de ae bc
       -0.017529612 -0.0062392666 -0.026335845 -0.021346483
000280 ed 87 bb bc aa 00 15 bc b8 ba 98 bc b6 4e 35 bd
       -0.022891963 -0.009094397 -0.018643722 -0.044264518
000290 18 9f a5 bc d5 34 2f 3e 72 02 41 bd ff e4 4c bc
       -0.020217463 0.17109998 -0.047121473 -0.012505769
0002a0 cc 4f bc bc f2 b9 f8 bc e3 26 32 3c ad d3 ca bd
       -0.022987269 -0.030362103 0.010873529 -0.09903655
0002b0 58 ce fa bc b3 3e 02 bd c3 a4 22 bd 1b af cc bc
       -0.03061597 -0.031798076 -0.03970791 -0.02498584
0002c0 3b 65 bb 3e 1a d2 35 bc 7d 62 9d bc 89 3d 91 bb
       0.3660067 -0.011097455 -0.019212002 -0.0044323844
0002d0 91 52 51 bd 54 54 df 3e 2f 16 79 be 6c ab c0 bd
       -0.051104132 0.43619025 -0.24324869 -0.09407696
0002e0 7b b2 34 bd 33 28 9e bc 30 e4 0a bd 62 7f 52 bc
       -0.044115525 -0.019306278 -0.033909023 -0.012847753
0002f0 3b e2 bf bc 96 28 d8 bc 90 0c 06 bd 9e d8 0b bd
       -0.023423305 -0.02638654 -0.032726824 -0.03414213
000300 4a 3a e9 bc 76 bb 16 bd 1e f8 05 bc fc 8c a2 bc
       -0.028470177 -0.03679987 -0.0081768315 -0.019842617
000310 3f b4 30 bb de b5 08 bd 45 67 b4 bd 26 f5 81 bc
       -0.0026962904 -0.033376567 -0.088087596 -0.015863966
000320 ad 76 db bc ad b9 af bc 92 f2 e3 bb 11 0a 46 bc
       -0.026789987 -0.021450842 -0.006956407 -0.012087361
000330 73 46 28 bd 60 59 9d 3e b1 b2 b3 bc a5 8f a0 bc
       -0.04108281 0.3073225 -0.021935793 -0.019599745
000340 e2 ff 0f bd 8d 4d f3 bd bf 50 87 3c f0 a6 15 3c
       -0.03515614 -0.11880026 0.016517995 0.009134039
000350 16 2c 7e bc 03 54 ee bb 3e 33 d8 bc f2 92 8f ba
       -0.015513441 -0.0072731986 -0.026391622 -0.0010953827
000360 b1 68 cd bb fa 20 0b bd e3 6f 65 3e 50 92 09 be
       -0.0062685837 -0.033966996 0.22405963 -0.1343472
000370 59 9c f7 bd cf 75 ed b8 55 31 a7 bc 43 be 09 bd
       -0.12090368 -0.00011322984 -0.020409266 -0.033628713
000380 80 28 0d 3c 6b 2e a9 bc 34 5b bd bc 0e 36 81 3e
       0.008615613 -0.020652017 -0.023114778 0.25236553
000390 68 db cf 3d a0 ce 24 be aa 31 4d 3e e9 1f 5c 3e
       0.1014927 -0.16094446 0.20038477 0.21496548
0003a0 fb 3e c8 bb 39 97 81 3e b8 a4 fe bc 88 69 15 bc
       -0.0061110235 0.25310686 -0.031084403 -0.009119399
0003b0 cb 60 a7 bc 58 9a 41 bd 54 c5 b8 bd 7f 70 09 bd
       -0.020431897 -0.047266334 -0.09022012 -0.03355455
0003c0 8e ae a4 bc ff 07 52 bc c8 75 6d 3d 5e 60 58 bc
       -0.020102765 -0.012819289 0.057973653 -0.0132065695
0003d0 32 e3 0c 3f e8 f3 34 bd ed 80 3b bd f2 b5 a3 bc
       0.5503417 -0.04417792 -0.04577725 -0.01998422
0003e0 7b b9 4f bd 77 02 e9 bc 1f 36 21 be 81 ba 09 be
       -0.050713997 -0.028443558 -0.15743302 -0.13450052
0003f0 93 19 17 bd d9 3b 8d 3b a0 6b 26 bc 3c 34 29 bc
       -0.036889624 0.004310113 -0.010157496 -0.010327395

last.weight f4 [3, 400]
000000 c8 cc 8f bb f8 35 01 3c 05 83 14 3d 7b ec e6 bd
       -0.0043884255 0.007886402 0.036257762 -0.11275574
000010 03 5d fc 3d 62 6d cf be 16 79 2c 3d 58 f8 aa bc
       0.12322428 -0.4051314 0.042107664 -0.020870373
000020 06 f1 10 bb 60 2f c5 be ad c0 86 3e 98 2b 49 bc
       -0.0022116317 -0.38512707 0.26318875 -0.01227846
000030 64 30 18 3c 55 71 87 be c1 6a c3 3c 7d 7e f3 bb
       0.009288881 -0.26453653 0.023854615 -0.00743085
000040 e2 6a 49 be f6 45 35 bc 9c b7 5c be 03 50 26 bd
       -0.19669679 -0.011064043 -0.21554416 -0.04060365
000050 87 ef 38 3d e9 43 94 3b 1e ed 73 bc dd 75 e2 3d
       0.045150306 0.004524697 -0.014888076 0.11057637
000060 b8 d2 ac bb 67 3a cf bb 30 d6 a7 3e 77 3b 6a bc
       -0.005274143 -0.006324101 0.327806 -0.014296404
000070 98 9c 3e bd f9 ee 98 bd 81 2a 31 bb 80 e3 35 bc
       -0.04653606 -0.074674554 -0.002703339 -0.0111016035
000080 7b 86 03 3f 95 ec 28 3d 99 f3 a8 bd 48 c1 0e bc
       0.51377076 0.041241247 -0.082495876 -0.008713074
000090 1a a0 72 bc 72 e0 3d bc 55 45 42 be 52 c2 2e bc
       -0.014808679 -0.011589156 -0.1897176 -0.010666447
0000a0 68 79 27 3c ed 3f 5f 3c 55 2f 21 bc 4f 56 0f bc
       0.010221817 0.013626081 -0.009837945 -0.008748605
0000b0 50 42 c8 bc 5a 51 f4 bd 26 83 e2 3c 4f d8 b2 be
       -0.024445683 -0.11929579 0.027650427 -0.34930655
0000c0 97 f8 01 3c cb 9e ed 3b e8 2a 13 bc 58 db 90 bc
       0.007932804 0.0072515956 -0.008982398 -0.017682716
0000d0 44 ac 10 3a ec 73 07 3e 08 25 85 3a c0 56 1b bc
       0.00055188336 0.13227814 0.0010158131 -0.009481132
0000e0 3d 60 af bc 43 9f ce bd 54 73 93 3e d4 c1 eb bb
       -0.021408195 -0.100889705 0.28798926 -0.007194737
0000f0 3b de 64 be 7c 78 06 3c ba cc 12 bd 2a 02 13 3e
       -0.22350399 0.008207437 -0.035839774 0.14356294
000100 d4 9d 03 bc ba 1d 73 3c 26 bb f9 bd e1 95 44 3d
       -0.008033235 0.01483863 -0.12193899 0.0479945
000110 37 0b 62 ba de 93 3c bd bb c9 6e bc 38 e0 bc bb
       -0.0008622887 -0.046039455 -0.0145744635 -0.0057640336
000120 6c 8c 00 3d 86 7d 98 3d d7 f1 0a 3e ca 78 86 3a
       0.031383917 0.07445817 0.13568817 0.0010259387
000130 5b cc 91 3a 2c 7e 55 be ca 5e 8f bc 1e 8f d7 3c
       0.0011123525 -0.20848912 -0.017501254 0.02631336
000140 d4 70 bc bd a2 de 20 bc ed 60 0c bc 1c 78 7b bc
       -0.09201208 -0.009818705 -0.008568031 -0.0153484605
000150 0a 7f 88 3c bd a8 14 be 38 62 99 3b 3a a4 8f 3b
       0.01666214 -0.14517494 0.004680898 0.004383591
000160 22 a7 6b 3b 8b 3d ff ba 5e a5 35 bc 61 bf ab be
       0.0035957773 -0.0019473297 -0.01108679 -0.33544448
000170 dd 35 8b bc ea c0 9a 3a fa ae 59 3a 76 e1 80 bc
       -0.016993457 0.001180676 0.00083039666 -0.015732508
000180 b2 3e 14 be 16 90 c2 ba 3d e2 36 bc c0 00 85 3a
       -0.14477041 -0.0014843966 -0.011162338 0.0010147318
000190 53 ac c0 bc 1b 9f 37 bc 32 d6 b1 bc 9b 64 46 bc
       -0.02351967 -0.011207367 -0.021708582 -0.012108947
0001a0 73 41 99 bd 73 a0 a6 ba 26 6d 35 bd 00 9c 2a bc
       -0.074831866 -0.0012712613 -0.044293545 -0.01041317
0001b0 ed d0 28 bd ce 58 18 bc 02 a8 9d bd 55 ae 94 ba
       -0.041214872 -0.009298516 -0.076980606 -0.0011343459
0001c0 b7 a9 32 be 79 10 3b bc a4 e8 e4 bc 83 a7 88 3b
       -0.17447554 -0.011417502 -0.027942963 0.0041703596
0001d0 80 83 19 3c ac 8f 6f bb ea c8 01 bc ed ff c3 b9
       0.009369731 -0.003655414 -0.007921437 -0.00037383978
0001e0 3d c6 f4 bd d8 6a 50 bc 79 bc 26 bd a5 c9 08 bc
       -0.119518735 -0.012720786 -0.040707085 -0.008348857
0001f0 0e f2 a4 bc ac b8 c0 b9 32 98 80 bd f3 87 05 bb
       -0.020134952 -0.00036758685 -0.06279029 -0.0020375222
000200 d1 65 57 bd ce fe 76 bc 88 e2 68 bd 4e e9 2d bd
       -0.052587334 -0.015075399 -0.056856662 -0.042458825
000210 c9 44 44 bc 5c fd ff 3b de ee 94 3e 13 54 52 bc
       -0.01197929 0.007812185 0.2908849 -0.012837428
000220 8f 89 ec bb 5d 48 e7 bb 0e 52 08 3f 21 fb a8 bb
       -0.0072185467 -0.007058187 0.53250206 -0.00515689
000230 95 70 be ba 4d 23 23 bb dc 66 97 bc 3f 54 97 bc
       -0.0014529402 -0.0024892867 -0.018481664 -0.018472789
000240 20 8d 57 3b d7 10 42 3c 46 f0 f2 bc ab f7 c3 b9
       0.0032890514 0.011844835 -0.029655587 -0.00037377825
000250 8f d9 44 3b d0 47 66 3c 76 fe fa 3d b1 b0 d6 3e
       0.0030036902 0.014055207 0.12255566 0.4193168
000260 66 fa 0f bc 89 d7 27 bd 26 5c 8a ba cd 9f b4 3c
       -0.008787727 -0.040977035 -0.0010556027 0.022048855
000270 8c 4b 4e 3c f1 84 3c bc 44 7e 2e bc 81 a2 83 bc
       0.012591254 -0.011506305 -0.010650221 -0.016068699
000280 0e 9a 26 bb e3 78 53 bb c1 32 03 3b 06 b1 77 3d
       -0.0025421414 -0.00322681 0.0020019265 0.060471557
000290 a3 60 71 bc c5 a7 94 be 3b cb 41 3c e9 03 0b bc
       -0.014732513 -0.29034248 0.011828239 -0.008484819
0002a0 33 86 48 bc e2 10 c5 bc b3 58 3a bb 7b 63 08 bd
       -0.012239027 -0.024055902 -0.0028434217 -0.033297997
0002b0 cf d1 cd bc 40 bb d0 bc 84 c9 e3 bc e0 e1 ac b5
       -0.025124459 -0.025479913 -0.027806051 -1.2880737e-06
0002c0 be 13 80 bd 44 ca 19 3c 1d 59 65 bd c2 44 d9 b9
       -0.062537655 0.009386603 -0.05599319 -0.00041440694
0002d0 d2 bb fc bb 12 ed f5 3e 6b 3b b7 bd a8 90 bb 3b
       -0.0077128196 0.48032433 -0.0894688 0.0057240315
0002e0 66 97 13 bd 2b a8 4e 3c e1 9f 23 bd 30 f1 40 bb
       -0.036033057 0.012613337 -0.039947394 -0.0029440634
0002f0 93 ff cc bc 16 63 07 3c cb fd 59 bc 47 19 fa bb
       -0.025024211 0.00826337 -0.013305138 -0.007632408
000300 00 2c 74 bc fa 36 f7 bc b1 bf 28 bc 2d 8a be 3a
       -0.014903069 -0.030177582 -0.010299609 0.0014537029
000310 8b 42 5d bc ec a8 36 bc 92 43 98 3c d0 56 b9 bb
       -0.013504635 -0.011148673 0.018586908 -0.005656101
000320 63 80 49 bd 5e fe 88 bc 08 2e 16 bc 33 6b e2 39
       -0.049194705 -0.016722854 -0.009166248 0.0004318595
000330 45 55 c8 39 f4 d1 5c 3c 34 f4 4a 3d 79 2c 8c 3c
       0.00038210503 0.013477791 0.049549296 0.01711105
000340 17 7d 83 bc 0b 65 19 bc 74 22 c1 ba 05 9f 49 bb
       -0.016050858 -0.009362469 -0.0014734999 -0.003076495
000350 78 f4 c0 3b 08 49 50 bb f8 0b 47 bd de 6f 96 3b
       0.005888518 -0.0031781811 -0.0485954 0.0045909723
000360 a8 d5 a7 3c be 6b b7 3b 90 25 64 3e 45 d2 60 3c
       0.020487621 0.0055975607 0.22279954 0.013722007
000370 ac 78 e3 3d 7c 9f 14 bc dc 3c 46 3c ea f7 57 bb
       0.11107001 -0.009071227 0.012099471 -0.0032954165
000380 7f d8 98 bb f5 23 33 bb 9a f2 4b bc bb 5a ac bd
       -0.00466448 -0.0027334664 -0.012447977 -0.08415743
000390 60 83 16 3e e7 57 1e 3d f6 c8 3c be 8c dc 9d be
       0.14698553 0.03865805 -0.18436036 -0.30832326
0003a0 ea 39 4e bc 88 66 b2 be 38 b0 e7 bc b6 73 ab bb
       -0.01258705 -0.3484385 -0.02828227 -0.0052322997
0003b0 6a 46 9b 3b 39 99 57 3c 12 95 31 3c a5 c4 88 bb
       0.0047386186 0.01315909 0.010838764 -0.0041738325
0003c0 25 c0 a9 bc 27 1b 96 bc c4 f7 41 be eb 2b 3c ba
       -0.020721504 -0.018323494 -0.18942171 -0.0007178175
0003d0 8f 68 53 3d 24 d3 cf bb 3a 68 40 3c bd dd 31 3c
       0.051613387 -0.0063423086 0.0117436 0.010856089
0003e0 e3 ce 17 3c e6 6b 72 bb 13 20 96 bd a2 e1 ce bd
       0.009265634 -0.0036990582 -0.073303364 -0.1010163
0003f0 20 4a ad 3b 59 6c bf 3b 53 0a c4 3a 15 28 39 ba
       0.0052883774 0.0058417735 0.001495669 -0.00070631626

last.bias f4 [3]
000000 c5 2a a1 bc d2 c9 77 bd ca b3 ad be
       -0.019673714 -0.060495205 -0.3392623
