log/MUJOCO_ANT_DIR_12_v4/Ant-v3/4/model/model_pf_state_finish.pth (torch, 848933 bytes, 6 tensors)

base.fc0.weight f4 [400, 111]
000000 7d b6 1b 3f d4 fa e1 bd a9 2e 4a 3f 9b af e2 3f
       0.6082533 -0.1103417 0.7897745 1.770984
000010 c9 f0 93 3e 9a 39 b0 3f be 85 06 bf 8a 19 20 bf
       0.28894642 1.3767579 -0.52547824 -0.6253897
000020 7f 5d b2 3d f3 87 99 bf d7 63 2a 3f 60 73 60 bf
       0.08709239 -1.1994613 0.66558594 -0.8767605
000030 c4 fb 87 bf ef c1 2e 3e 72 55 bd bd 8f 08 2a be
       -1.0623708 0.17066167 -0.09244813 -0.16604827
000040 79 c3 d4 bd 8c 5e 63 3e ed 01 8c bd 6f 77 0a bd
       -0.10388846 0.22204036 -0.06836305 -0.033805307
000050 7b 1e 58 bc d7 c3 41 3c e7 47 87 bd 4e 66 85 bc
       -0.013190861 0.011826477 -0.06605511 -0.016284134
000060 2e 1b 9d 3d fc a5 94 bc a6 72 42 ba 80 2f 0f bb
       0.076712 -0.018145554 -0.00074175966 -0.002184838
000070 53 66 36 3d 3a c9 8f bc 7a 12 4d bc cb 64 05 bd
       0.044531178 -0.017552007 -0.012516612 -0.032566827
000080 80 4b 8a bc 2d a7 4c bd f0 e4 d3 bc 33 af 6a 3b
       -0.016881704 -0.04996412 -0.025866002 0.0035809993
000090 33 49 25 bb 17 eb a5 3c 48 dc 3f bd 8d d3 86 3c
       -0.0025220632 0.020253701 -0.046840936 0.016458297
0000a0 73 7c a1 3b a7 1a 73 bc 55 01 36 bd 80 a0 f4 bc
       0.0049281656 -0.014837897 -0.044434864 -0.029861689
0000b0 12 60 1b 3d 82 00 22 bd 4d 58 ae 3b fb a0 17 3d
       0.037933417 -0.039551266 0.005320585 0.037018757
0000c0 8d 8b 4b 3d 3d a1 21 bd aa 88 b0 bc d7 8d ed bc
       0.049693633 -0.03946041 -0.021549542 -0.028998299
0000d0 5a 6c dc 3c 5f 9b 14 bd 7a 1e cb 3c 67 56 51 3c
       0.026907135 -0.036280986 0.024794806 0.012776948
0000e0 da 1e 9d 3c f3 ef 1a bd 97 65 b4 bc 77 9d f7 3c
       0.01917975 -0.03782649 -0.022021098 0.030226452
0000f0 3a 20 35 bd 0d 14 ce 3b 9a ed c9 3c a0 2c e2 bc
       -0.044220187 0.0062890113 0.02464943 -0.02760917
000100 e7 54 19 3b d2 bf 35 bd 73 f4 ea bb 8d fa ac bc
       0.0023396553 -0.044372387 -0.007170254 -0.021115566
000110 0a fe 8e 3c 2d 37 11 bc 6d 81 13 bd 00 24 1e 3c
       0.01745512 -0.008863253 -0.036012102 0.009652138
000120 43 59 c8 3c 27 da e8 bc 17 f2 3b 3d 1d 5a 34 bd
       0.024456626 -0.028424336 0.04588517 -0.04403125
000130 00 5a 32 3b 5f 81 46 bd d7 ec b6 3c 4d 59 44 bb
       0.0027214289 -0.04846322 0.02232973 -0.0029960454
000140 20 69 04 3d 00 c2 f4 3c 88 e1 11 bd 6a d3 08 bd
       0.032326818 0.029877663 -0.035615474 -0.033404745
000150 63 8d c8 bc 87 15 15 3c ed b9 14 3c c7 63 98 3c
       -0.024481481 0.009099371 0.009077531 0.018602265
000160 ef 9a 41 bd aa 40 b1 bc 15 1c 0f bd cd 25 2d bb
       -0.047266897 -0.02163728 -0.03493889 -0.0026420236
000170 5a 3b d2 3c 97 45 f8 3c 22 91 27 bd 70 ec a1 bc
       0.025663067 0.03030662 -0.040909894 -0.019766062
000180 c7 a2 e4 3c 10 e7 17 3d 8d e8 0a bd 00 cb f6 3a
       0.02790965 0.037085593 -0.033913184 0.0018828809
000190 ba 6d 48 3d 5a ed ca 3c 43 b4 83 3c 83 d9 9d 3c
       0.04893277 0.024771381 0.016077166 0.019268757
0001a0 f3 28 bd 3c 12 05 16 3d 97 2c f5 3c 40 9c df bb
       0.023090815 0.03662593 0.029928489 -0.0068240464
0001b0 6d 92 c5 3c 08 c0 05 3d fa f7 43 bc c1 c2 a5 3f
       0.024117673 0.03265384 -0.011960978 1.2950059
0001c0 30 99 bf be ca 68 cf 3f f7 df a8 3d 01 dc 75 bf
       -0.3742156 1.6203854 0.08245843 -0.96038824
0001d0 10 f2 75 3d 73 32 37 3f 47 11 38 3e 1d 14 16 3f
       0.060045302 0.71561354 0.17975341 0.5862444
0001e0 b8 c4 e9 be b2 c3 45 3e 55 db cf bd 19 f9 05 bf
       -0.45657897 0.19312933 -0.10149256 -0.5233322
0001f0 0c d4 9d bd b0 9d ed 3d d7 a9 5d 3e 3c 0d 13 be
       -0.0770646 0.11602342 0.2164682 -0.14360517
000200 e0 b8 5f 3d 20 09 2b be 07 92 5d bd 9a 31 d0 3e
       0.05461967 -0.167027 -0.05409434 0.40662843
000210 11 02 f0 bd 71 b4 3d 3d f7 af 90 bd 48 70 c9 bc
       -0.11719144 0.04631466 -0.07064813 -0.024589673
000220 fe 0b b9 bb 6d c5 cf bd 5a 88 5d 3c 4d 2b 13 3c
       -0.0056471815 -0.10145078 0.013521278 0.008982492
000230 47 a6 47 bc b0 f6 08 3d 20 1d 23 bc 12 0a 0a bd
       -0.01218564 0.033438385 -0.009955674 -0.03370101
000240 3d 9d c7 3c 70 74 84 bc a8 d8 1d bd b7 2a 84 3c
       0.02436697 -0.016168803 -0.038536698 0.01613365
000250 fb cf 18 bd 03 00 b9 3c 0d 29 91 3c f7 4c 1e bd
       -0.03730772 0.022583013 0.01771977 -0.03864762
000260 6f 11 06 3d 67 5f 41 3b 43 27 ff 3c 48 25 18 3d
       0.03273147 0.0029506327 0.031146651 0.03714493
000270 80 b4 60 bb 67 de c1 b9 c0 f9 02 bc 60 9b 59 bc
       -0.0034287274 -0.0003697753 -0.007994115 -0.013281673
000280 c0 8c 8b bb 73 9c 13 bc 4d ef e5 bb 2d 1f 16 3c
       -0.004258722 -0.009009468 -0.0070170523 0.009162706
000290 bd 87 aa 3c 1a f3 3a bb 38 65 0a 3d 67 29 2b 3c
       0.020816678 -0.0028526247 0.033787936 0.010446883
0002a0 43 47 f0 bc d7 e4 d3 bc 60 f1 42 bd b3 58 21 bd
       -0.029330855 -0.025865955 -0.047593474 -0.03939123
0002b0 8b 5c 39 3d 30 fb 81 bc 9d 38 e8 3c 07 ec 2d 3c
       0.04525427 -0.015866846 0.028347308 0.010615355
0002c0 00 85 0f bb 40 29 cd bb 07 ff 86 3c cd cd 2b 3b
       -0.0021899343 -0.006261021 0.016479028 0.0026215196
0002d0 4d b5 84 bc ad cf 97 3c ca 00 3e 3d 00 92 f7 bb
       -0.016199732 0.018531645 0.04638747 -0.0075552464
0002e0 a2 cb 3a bd c7 ed 3e 3d 0a ba 86 3c aa 5a 2f 3d
       -0.045604356 0.04661348 0.016446132 0.042811073
0002f0 9a 98 ea 3c 70 b1 25 bd 5a b5 67 3c 07 16 1c 3d
       0.02863722 -0.04045242 0.014142359 0.038106944
000300 cd 01 f5 bc cd b8 87 bc 0d 67 28 bc d3 83 48 bc
       -0.029908085 -0.016567612 -0.0102784755 -0.012238461
000310 fb 47 2a 3d ed d4 4f bc b3 e6 34 3b 8b f0 37 bd
       0.041572552 -0.012685043 0.0027603328 -0.044907134
000320 9a c8 5f bc 5a 7e b4 bb d0 ba c9 3c 43 68 eb 3c
       -0.013658667 -0.0055082263 0.024625212 0.02873624
000330 68 17 48 3d ea cf 85 3c 85 7e 4b 3d 73 28 a0 3c
       0.048850447 0.016334493 0.049681205 0.019550538
000340 00 b2 dd bb dd 59 31 bd 08 b8 19 3d 80 f0 a9 3c
       -0.006765604 -0.04329859 0.03752902 0.020744562
000350 cb aa 09 3d ea ae 9e bc d0 cb f5 bc c7 04 1f 3c
       0.033610146 -0.019370515 -0.030004412 0.009705729
000360 67 85 4a 3d e0 bb 39 3d b3 4e c5 bb 78 72 1f 3d
       0.04944363 0.045345187 -0.0060213446 0.038927525
000370 75 1d 28 3d a3 71 81 bc c5 2f 82 bd 2e 6e 32 bc
       0.041043717 -0.015801257 -0.063567676 -0.010890527
000380 a1 07 98 bf 3e 62 61 bf f0 fc c2 bf 44 a0 74 3b
       -1.1877328 -0.8804053 -1.523344 0.003732697
000390 4e 4d 1a 3e 16 d5 fc 3e 25 e4 9d 3e 47 5d 1e 3e
       0.15068552 0.49381322 0.30838123 0.1546527
0003a0 d9 c6 c5 be bc b6 c9 3d 88 95 9c be 8c c6 02 3f
       -0.3862827 0.09849307 -0.30582833 0.5108421
0003b0 d7 aa 0e be 7f 0c 67 be c3 25 6b bd da 28 2f bc
       -0.13932358 -0.2256336 -0.05740906 -0.010690892
0003c0 89 04 97 bd 50 0b f5 bb 25 ee c5 bc ab 89 97 bb
       -0.07373912 -0.007478155 -0.024161408 -0.0046245656
0003d0 10 bb 57 3d 2e a1 05 3d 1a 0b dd bc eb f5 a1 bc
       0.05266863 0.032624416 -0.026982833 -0.019770583
0003e0 10 ac 33 bb a7 93 07 3d 45 92 00 bd ba 96 0c bd
       -0.002741579 0.033099797 -0.031389493 -0.03432343
0003f0 4d 5f 47 bd 7a 62 01 3c 47 6e cf 3c cd c0 bf bb
       -0.04867487 0.007897014 0.025321139 -0.005851841

base.fc0.bias f4 [400]
000000 a5 c3 da 3d c0 9d 4c bf 29 6e 4f be 75 04 3e bc
       0.106818475 -0.7992821 -0.20256867 -0.011597742
000010 62 bf b0 3c 51 72 00 3d 1d 79 83 be be 26 c0 3f
       0.021575633 0.03135902 -0.2567834 1.5011823
000020 85 f1 f3 3e c0 3d 2c bf f6 6a a0 3d 6f 4a 86 3e
       0.47645202 -0.67281723 0.07832901 0.26228663
000030 46 33 94 bf 7f 6c 6f bf 8c 4f 5f 3e 76 89 a5 3e
       -1.1578147 -0.93524927 0.21807688 0.32331437
000040 01 fa 3f 3f 33 6d 18 bf 63 a0 b4 be af 5f 94 bf
       0.7499085 -0.59541625 -0.35278615 -1.15917
000050 60 02 23 bf 3e 7c 48 bd 97 ca bb be c8 70 c7 3f
       -0.636755 -0.04894661 -0.36678 1.5581293
000060 5b c8 fe 3c 6a 5d 27 bf 12 eb 53 bf 1f fa 67 bf
       0.031101396 -0.65376914 -0.82780564 -0.9061603
000070 66 8a ce bd 75 49 85 be 94 eb 26 bf 95 e9 87 3e
       -0.10084991 -0.26032606 -0.65203214 0.26545396
000080 b6 01 49 be 97 21 38 bf 73 bd 60 bf 29 b9 99 3f
       -0.19629559 -0.71926254 -0.87789077 1.2009631
000090 fe 79 17 be ce 3f d6 bd a9 e6 6b bf 87 85 09 be
       -0.1479263 -0.104613885 -0.92148834 -0.13429843
0000a0 0d 8a 55 bf 91 3d 14 bf 4f 0e 0b be 0d 03 8a bf
       -0.83413774 -0.5790644 -0.13579677 -1.0782181
0000b0 ce 08 5b 3f 36 16 2d bf 25 1b cf be 8e 4f 0d bd
       0.8556031 -0.67612016 -0.40450397 -0.034499697
0000c0 19 40 c5 3e 8c c5 5c bf f9 ad 9d 3f b2 e1 b7 bf
       0.38525465 -0.8623893 1.2318717 -1.4365752
0000d0 4d 07 a6 3e ac e9 2d 3e 38 c1 d6 3d e7 43 4c bf
       0.32427445 0.1698367 0.10486072 -0.7979111
0000e0 8b 0f 3f bf ee 76 45 3e 4d cf 70 be f9 92 97 3f
       -0.7463309 0.1928365 -0.23516579 1.1841727
0000f0 33 2e 3a 3e 19 33 3b bf 3a c4 df 3c ab 3a 27 bf
       0.18181686 -0.73124844 0.027315248 -0.65323895
000100 38 dc 0c 3f 6f 36 62 bf 9e d6 52 3d 69 b9 2e 3f
       0.5502353 -0.8836431 0.051474206 0.68251663
000110 9b 82 78 bf 20 4e 20 bf ee 57 1a be 13 5b 99 bf
       -0.9707429 -0.6261921 -0.15072605 -1.1980919
000120 0c 89 6d bf b8 51 68 3f cb 79 50 3e fa 58 7b bf
       -0.9278724 0.9074969 0.2035896 -0.9818264
000130 6a 00 58 be e2 02 87 be 37 35 ea 3e af 70 42 be
       -0.21093908 -0.26369387 0.45743725 -0.18988298
000140 e6 bd 8c 3e 09 e4 82 3c 88 62 42 3f cb 7f f0 bd
       0.2748863 0.015977876 0.75931597 -0.117431246
000150 f9 41 99 bf b9 de 8b bf 1d c5 b5 3e b7 a9 3b 3e
       -1.1973258 -1.0927345 0.35501948 0.1832646
000160 a9 54 b9 3e 91 17 4a be d6 19 3b 3e 4a c1 32 3f
       0.36197403 -0.19735552 0.18271574 0.69826186
000170 3c 3a 58 3f 34 42 41 3f ec 9c dd 3f 65 16 80 be
       0.8446386 0.7549164 1.7313514 -0.25017086
000180 2a c5 a8 bf 14 03 3b 3e 71 0e 9d be 07 ce 59 bf
       -1.318517 0.18262893 -0.3067508 -0.8508
000190 bf aa 84 bf 67 ad 88 be 7f fe db be 67 79 5a be
       -1.0364608 -0.26694795 -0.42967603 -0.21335374
0001a0 44 0a 60 3e 01 e4 24 be 43 dd 35 3e 5e 55 8b bf
       0.21878916 -0.16102602 0.17760186 -1.0885427
0001b0 e4 0f 12 bd ff ef 86 bf f2 4f 04 bf fb 81 3e bf
       -0.035659686 -1.0541991 -0.51684487 -0.74417084
0001c0 34 e5 c6 3e f8 e8 35 bd 2a 41 9f bf fd a9 51 be
       0.38846743 -0.04441163 -1.2441761 -0.20475002
0001d0 d4 2f 29 3e a3 75 dc 3e 24 62 73 bf 9d f2 70 bf
       0.16522151 0.430585 -0.95071626 -0.941202
0001e0 7e 5b 90 bf c3 ff fa bd 0b 67 a0 3c ab ac 62 bf
       -1.1277921 -0.12255814 0.019580385 -0.8854472
0001f0 28 c3 96 3e 4f 2f 1e bf 9e 56 ae be c2 4c 91 bf
       0.29445767 -0.6179094 -0.3405046 -1.135155
000200 56 03 34 bf de 65 77 bf 05 4a 8d be b6 13 c8 be
       -0.7031759 -0.9663981 -0.27595535 -0.39077538
000210 fc 0c 1d 3e 6a ab 06 bf c0 9f 56 3e f9 8a 20 3c
       0.15336984 -0.5260531 0.20959377 0.009798759
000220 43 57 34 be 8e de 1c 3c eb 14 e2 3e 67 1d 3c 3f
       -0.17611413 0.009574546 0.44156584 0.73482364
000230 fd 4f 64 be a9 f8 91 bf 0d d2 bb be 87 de 6c bf
       -0.22296138 -1.140401 -0.36683694 -0.9252705
000240 72 90 f7 3e a5 63 ac be bf 5b 2e bf 65 32 7d bf
       0.4835239 -0.33669773 -0.68108743 -0.9890502
000250 94 5a 01 3e c0 04 c0 be b0 d2 42 be d1 7a a2 bf
       0.12632209 -0.37503624 -0.19025683 -1.269373
000260 95 47 46 bf e4 a9 21 3f 04 64 72 be ca 79 67 3f
       -0.77452976 0.6314986 -0.23670965 0.9042021
000270 85 3c 41 be b3 cc 16 bf c6 3d 3d 3e b0 0b 08 bf
       -0.18870743 -0.58906096 0.18480596 -0.53142834
000280 bd a7 4f bf 44 5b a3 3e fe b3 84 3d 34 87 20 3e
       -0.81115323 0.31905568 0.06479643 0.15676576
000290 31 98 3f be 3a ad 31 bf 3b f1 3f bf 17 cc c2 bf
       -0.187104 -0.6940495 -0.74977463 -1.5218533
0002a0 1e f3 1c bf a1 4c 89 bf 2f 2c 32 3e 0e 9d 2f bf
       -0.6130847 -1.072651 0.17399667 -0.6859902
0002b0 33 f6 f6 3e 27 44 d0 bd f9 5c 6a be 24 3a 8c bf
       0.4823471 -0.10169249 -0.22887029 -1.0955243
0002c0 f0 3e 9b 3e c3 6e da 3d a3 a2 00 bf f6 98 05 3f
       0.30321455 0.10665657 -0.50248164 0.52186525
0002d0 5a ad f2 be 59 41 97 3c 12 23 f0 3c 56 78 5a bf
       -0.47397882 0.018463777 0.029313598 -0.8533987
0002e0 d4 db 69 bf a9 8b 89 3f f2 f1 f3 be 88 04 ca be
       -0.91351056 1.0745746 -0.47645527 -0.39456582
0002f0 88 52 a6 3d fc 8c 2f 3f 7b 06 e9 be b7 df 36 be
       0.0812121 0.685745 -0.45512757 -0.17858778
000300 21 d5 d9 bd 68 c2 b7 be d4 5f 23 3f 9a b5 f6 3e
       -0.10636354 -0.35890508 0.638181 0.48185426
000310 c2 35 1f 3e 15 2f b2 be 19 ea c9 3e ca e2 57 3f
       0.1554785 -0.34801546 0.39436415 0.8433043
000320 9b 74 11 be 3f 1b c5 bd 9f 22 31 bf 19 c2 d0 3e
       -0.14204638 -0.096243374 -0.6919345 0.40773085
000330 0b da 20 be 2f 6f 71 bf b2 e0 10 bf 84 72 41 3c
       -0.15708177 -0.9431028 -0.5659286 0.011807088
000340 4b 58 2b 3f ec 26 13 bf c6 4f 43 bf 66 1c 0c bf
       0.669316 -0.57481265 -0.762936 -0.5473083
000350 e8 2c fa be 15 7e 19 bf 75 b6 15 bf 0d fd 00 bf
       -0.48862386 -0.5995801 -0.5848153 -0.50386125
000360 99 58 71 bf 36 38 da 3e 73 6c 8e bf c5 d9 77 bd
       -0.94275814 0.4262101 -1.1126846 -0.060510416
000370 ba 74 34 3f a7 10 5f 3d a7 49 07 3f 98 58 bd be
       0.7049061 0.05445924 0.5284676 -0.36981654
000380 e1 b2 37 bf 02 03 a1 bf 65 f9 86 3f 60 80 ee be
       -0.7175732 -1.2579043 1.0544859 -0.46582317
000390 4c 8b 87 bf b1 2b 07 bf 06 73 1f be fe f0 b7 3d
       -1.0589385 -0.5280104 -0.15571222 0.089815125
0003a0 87 40 19 3e a8 f5 b3 be 58 95 83 bf a9 19 bf bf
       0.14966021 -0.35148358 -1.0279951 -1.4929706
0003b0 0e be 35 3d 78 4b a4 be 1a b3 b6 be 34 03 a9 3e
       0.044370703 -0.32088828 -0.3568352 0.33010256
0003c0 fa ff 41 3e 42 b7 aa be 94 6a 0f bf b4 0c e7 3e
       0.18945304 -0.3334294 -0.56022 0.4512688
0003d0 df bb d8 3e 8f 14 22 bf 9a 82 cd 3f 16 b0 43 3f
       0.42330834 -0.6331262 1.6055481 0.7644056
0003e0 6d b2 88 bf 99 06 72 bc f6 c1 66 bf b7 5a 8b 3e
       -1.0679451 -0.014772081 -0.9013971 0.27217647
0003f0 c9 79 91 3e 71 c0 e8 be 24 0f 36 bf 70 a8 bd 3e
       0.28413227 -0.4545932 -0.7111685 0.3704257

base.fc1.weight f4 [400, 400]
000000 cb e8 99 be 51 3b 64 bd ca e6 a1 be e5 02 8c 3e
       -0.3006042 -0.05572063 -0.3162139 0.27345958
000010 05 e8 83 3e 26 21 ad be db a5 ff bd f7 a7 0c be
       0.25762954 -0.33814353 -0.12482806 -0.13735949
000020 4f b3 d2 bc b9 c6 a0 be 8a 43 c9 3e 2f f2 6f bf
       -0.025720267 -0.31401613 0.3930934 -0.9372892
000030 14 47 82 3d 59 2d 92 be 4c 58 42 bf 6a 1c 79 bf
       0.06361213 -0.28550223 -0.7591598 -0.9730898
000040 36 03 98 3e 1d b0 f4 bd f8 f4 63 bf cf 65 79 bf
       0.2968995 -0.119476534 -0.8904567 -0.9742097
000050 ef 69 f2 bd bc fe 98 3e d2 c7 b4 be 31 99 be be
       -0.118366115 0.29881847 -0.353087 -0.3722625
000060 d4 88 7c be b8 dc 77 3c fa e7 45 3e 46 2d ac 3e
       -0.24661571 0.015128307 0.19326773 0.3362829
000070 4e 5e 92 bd 10 3e da be 66 72 6f be 4c 28 5c 3f
       -0.071468934 -0.42625475 -0.23383483 0.8599899
000080 31 fb 2d 3f e0 91 87 be 39 e0 17 3f 6a 9c 94 bc
       0.6796141 -0.2647848 0.5932651 -0.01814099
000090 da a1 47 3f 72 1f ce 3d 67 a2 19 bf df 79 10 bf
       0.7798134 0.100645915 -0.6001343 -0.5643596
0000a0 52 00 3d 3e a2 de 9f bd 2c 0a a7 3d 73 ab ac 3e
       0.18457153 -0.07806136 0.08156237 0.33724555
0000b0 f8 83 03 bc 78 43 04 be d9 cf f0 3e f7 77 01 3e
       -0.008027069 -0.12916362 0.47033575 0.12643419
0000c0 dc 15 78 be 72 6c 44 bf 08 15 33 bf c8 be d7 bd
       -0.24227089 -0.76727974 -0.69953966 -0.105344355
0000d0 76 4c 1d 3f de e5 8b be 9c f9 d9 bd 03 a0 9c be
       0.61444795 -0.27323812 -0.10643312 -0.3059083
0000e0 50 f3 d4 bd 00 d6 45 3e a9 d7 6a bf 8c 16 7d bf
       -0.10397971 0.19319916 -0.9173532 -0.9886253
0000f0 ec 5c 4f 3e 44 29 6b 3f 91 f1 c6 be af d4 71 bf
       0.2025029 0.9185984 -0.38856176 -0.94465154
000100 bc 91 00 3f 4d 1a 27 3e dc 49 6d bf 23 d4 0f bf
       0.50222373 0.16318627 -0.92690825 -0.5618307
000110 80 be 69 3c 20 6a e0 3e 51 05 68 be 6c 4e f3 bd
       0.01426661 0.43830967 -0.22658278 -0.11880192
000120 76 1b 1c bf 2a d7 d6 be 99 87 e8 3e cb 24 67 3e
       -0.609794 -0.41961032 0.45415953 0.22572629
000130 13 c4 4f bf a4 c2 a4 3e bd 9c 16 bf 39 ed 4a be
       -0.8115856 0.3217975 -0.58832914 -0.19817056
000140 37 ca 81 be 01 ea 03 bf 33 27 64 be f6 4d 1f be
       -0.2534959 -0.51528937 -0.22280578 -0.15557083
000150 f0 da bd be 2f 8c b6 be 8c a6 a5 bf 21 bb 90 3e
       -0.370811 -0.35653827 -1.2941451 0.28267768
000160 66 9b bb 3e 2a d1 cf 3e d8 19 f6 bd 03 5d 90 be
       0.36641997 0.40589267 -0.12016648 -0.28195962
000170 6e 75 33 be 26 67 82 3e 55 18 20 be e9 44 48 3e
       -0.17525265 0.2546932 -0.15634282 0.19557537
000180 3f 31 4f bf 63 f3 11 3f 15 b4 bd 3e b4 f6 40 be
       -0.8093452 0.57012004 0.37051454 -0.1884411
000190 0b f8 95 3e 4d f2 1d bf 62 12 da be 1b 15 79 bd
       0.29290804 -0.61697847 -0.4259215 -0.060811143
0001a0 4f 62 19 be 0e 1e c9 be 00 ca 3b be af 44 dd 3e
       -0.14978908 -0.39280742 -0.18338776 0.43216464
0001b0 4d 7b cf 3e 19 00 62 3f 76 df 02 3f ee 8a 52 3e
       0.4052376 0.882814 0.51122224 0.2056081
0001c0 aa dc 5a bf 20 8a 6d be 2c be 9d 3c 28 d6 56 3f
       -0.85492957 -0.23197222 0.01925572 0.83920527
0001d0 98 c5 1d be 61 b2 9e be d7 54 33 bf b3 aa 9a be
       -0.15407407 -0.30995467 -0.7005133 -0.30208358
0001e0 de 1a 08 3f fb 60 78 bf 69 9e 1c 3f 53 53 4d 3e
       0.53165996 -0.9702298 0.61179215 0.20051317
0001f0 87 ce ec be 4a 15 00 be 37 8b 07 bd ed 28 e1 3e
       -0.46251318 -0.12508121 -0.03309175 0.43976536
000200 76 66 91 be 1e a8 15 be 99 11 a1 bd 11 92 b2 3e
       -0.28398484 -0.14614913 -0.078646846 0.34877065
000210 f1 8e ba be 85 5e 94 3e 03 f7 93 be 44 ad b6 3e
       -0.3643718 0.28978363 -0.28899392 0.35679066
000220 2b 79 06 bf bd f0 5f 3e 15 1d a6 be 3f ac 58 3e
       -0.5252864 0.21869178 -0.32444063 0.21159457
000230 eb 03 c6 be 29 3b d3 3e 22 6e a9 3d ac 8a a4 3d
       -0.38674864 0.41256073 0.08272959 0.08034262
000240 e3 0a 55 3f b8 5d eb be 4f ab 8a 3e 5a a7 3b 3e
       0.83219737 -0.4596994 0.27083823 0.18325558
000250 04 ee 7c 3e 6b df 3c be 6d 20 0b 3f 8a 67 13 3d
       0.24700171 -0.18444602 0.5434635 0.035987414
000260 1b 9f ca be 1f 13 15 3e 87 81 0f be 80 2d 44 3e
       -0.39574513 0.14558075 -0.14014255 0.19157982
000270 c5 a6 07 be f1 da 16 bf 2f 51 7a 3e 4b a8 42 3e
       -0.13247211 -0.5892783 0.24445032 0.19009511
000280 ae 5e 21 3f a1 17 79 3f e7 4e 4d 3e bd c5 cf be
       0.63035095 0.9730168 0.2004963 -0.4058055
000290 fa c0 5a bd 4f ee 10 3e 97 6a 9a be 29 af 3f 3e
       -0.053406693 0.14153408 -0.30159447 0.18719162
0002a0 4f 61 36 be 52 8e 97 bd 8f c0 df be e7 7b 22 be
       -0.17810558 -0.07400192 -0.43701598 -0.15867577
0002b0 ec 92 71 be 79 25 9a bd 77 f3 52 3e eb cf 40 3f
       -0.23591202 -0.075266786 0.20600687 0.7531726
0002c0 4b 99 cf bd 0a 4f f9 3e 80 d8 c8 3e f8 db da be
       -0.1013666 0.48693115 0.39227676 -0.42745948
0002d0 91 cf 2d 3e fc 82 a8 be 5d ec dc bd 16 fb c8 be
       0.16973712 -0.32912433 -0.1078727 -0.39254063
0002e0 3f a0 b2 3d 10 df 38 bf ed 64 ca bf 09 2c 9b be
       0.08721971 -0.72215366 -1.581205 -0.30307034
0002f0 c3 e3 16 bf 31 b5 12 bf 88 50 48 bf 16 0c a1 bc
       -0.58941287 -0.57307726 -0.7824788 -0.019659083
000300 46 92 75 be b7 cf 93 3e 05 51 2f bf 4b f4 17 3e
       -0.2398158 0.2886941 -0.68483 0.14839284
000310 15 9e 83 be 9d 61 90 bc 7d 72 43 bf 47 fc 39 bf
       -0.25706545 -0.01762467 -0.7634657 -0.7265057
000320 62 eb 18 3d 93 83 a7 be 40 69 00 bf 3b 42 43 bc
       0.037333854 -0.3271757 -0.501606 -0.011917646
000330 35 82 c1 bd 74 b0 a2 be 55 33 d4 3e 26 0d 4e be
       -0.09448663 -0.31775248 0.41445413 -0.20122203
000340 1e 5b 57 be 93 48 55 bf 30 87 07 bf d8 de 7e be
       -0.21030852 -0.83313864 -0.52940655 -0.24889696
000350 fd 95 46 be c0 66 06 be 17 9b f1 bc 4b 7b 26 3f
       -0.19393153 -0.13125134 -0.029492898 0.6503188
000360 49 ba a0 3c ac 60 97 bf 51 db 3e 3f 0e a0 f8 be
       0.019620078 -1.1826377 0.745534 -0.48559612
000370 b0 77 7f bc 66 76 dc 3d d5 0d 09 bf a8 54 87 3f
       -0.015592501 0.1076477 -0.5353673 1.057271
000380 1e 65 6a be 94 01 d1 3e 56 cc 42 3e a1 5a 09 3d
       -0.22890136 0.40821517 0.1902326 0.033533696
000390 11 2f 07 bd 7f 87 12 be 27 4e b1 3e 32 5e 13 3e
       -0.03300387 -0.143095 0.34629938 0.14391401
0003a0 80 fa 43 bf 67 b9 fa bd 9c 91 36 bf cc ac 8e be
       -0.7655411 -0.12242394 -0.7131593 -0.2786621
0003b0 cc fa 2c bf f9 82 0d 3f 0f 78 f6 bc 7f 90 b0 3e
       -0.67570186 0.55277973 -0.030086545 0.34485242
0003c0 95 d3 d6 3e 2e 96 87 3e 07 d9 24 3e 09 b7 02 be
       0.419583 0.26481766 0.16098414 -0.12765135
0003d0 57 89 13 bf 61 3d 2e 3f b7 bb f8 be 96 6a 81 3d
       -0.5763144 0.68062407 -0.48580715 0.06319158
0003e0 a5 33 ff bd 27 fd 59 3e 13 15 9b 3b 22 ba 13 3f
       -0.12461022 0.21287976 0.004732737 0.5770589
0003f0 b3 74 c3 be da 9c 80 3e c2 fb 87 be 20 f8 33 bf
       -0.38174972 0.25119668 -0.26559263 -0.70300484

base.fc1.bias f4 [400]
000000 5e cb 60 be 7d f6 74 be c4 b5 8f 3e 44 df 80 3d
       -0.21952578 -0.23922153 0.28068364 0.062925845
000010 c5 34 3f 3d bd 91 d5 3d 22 97 cc bd 46 b8 5d be
       0.046681184 0.10428188 -0.09989764 -0.21652326
000020 94 ee 3d 3e d3 31 da be c2 a7 98 3d ca 21 d6 be
       0.18548042 -0.42616138 0.07453872 -0.41822654
000030 c0 ff 9a 3e 03 a7 82 3d c6 31 80 3d da 56 c3 be
       0.30273247 0.06379511 0.062594935 -0.381522
000040 33 14 c0 3d 19 53 5d 3d f2 a0 91 3e 6a 7a 2c be
       0.09378853 0.054034326 0.28443104 -0.16843572
000050 11 15 57 be d0 c4 a4 3e 38 9b 10 3f 99 ff 88 3d
       -0.2100413 0.32181406 0.56486845 0.066893764
000060 24 25 5a 3d 5e bb 74 be f0 34 03 ba 9d e6 02 3d
       0.053258076 -0.238996 -0.0005005142 0.03195821
000070 ad 5f a2 be 6e 82 62 be 12 3d 59 bd 1c 46 e7 3e
       -0.3171362 -0.22120067 -0.053036757 0.45170677
000080 19 27 7f 3d 76 f2 2d be 6f ed f4 be e7 d8 45 3d
       0.062293146 -0.16987023 -0.47837397 0.048302557
000090 61 7f e1 be b5 2b 10 3d 67 89 63 3d 57 5b 1e 3d
       -0.44042495 0.035197932 0.05555096 0.038661327
0000a0 14 b8 b7 be 9e a0 bc b9 fa 2b 88 bd b4 6a 94 3d
       -0.35882628 -0.00035977823 -0.06649013 0.072469145
0000b0 77 bb 86 3d fc 3d 17 bf 46 c7 f1 be ad 3f 80 3d
       0.06578725 -0.59078956 -0.47222346 0.06262145
0000c0 c9 05 40 bc 06 09 69 3d e6 0e 1f ba 61 54 3c bd
       -0.011720129 0.05689337 -0.00060675887 -0.045978907
0000d0 81 a4 fb 3e e5 da 93 3d d5 7e 46 3d 95 8e 12 bd
       0.49148944 0.07219485 0.0484608 -0.035780508
0000e0 59 20 3f be 94 d3 53 3e 1f e1 3b be e9 58 36 bd
       -0.18664683 0.2068618 -0.18347596 -0.044518385
0000f0 1e 3a 35 be 3c 0c 64 bd 7b 48 ff bd cf 77 7a 3d
       -0.17697951 -0.05567573 -0.124649964 0.061149415
000100 e6 ce ff bd 87 57 94 3e 04 79 dd 3c ff a7 ef 3d
       -0.124906346 0.28973028 0.027035244 0.117019646
000110 b2 77 9f 3b 0a 2f 86 3d 79 fd 08 3c cd 52 98 3d
       0.0048665637 0.06551941 0.008361214 0.07437668
000120 73 b5 6e 3d e6 02 95 ba a8 fe 81 be 54 1f 33 3e
       0.058278512 -0.0011368662 -0.253896 0.1749242
000130 5c e4 4a 3c 91 2c 45 bf 8a 09 80 3d b6 72 be 3e
       0.012383547 -0.7702113 0.062518194 0.37196892
000140 8e c9 bc bd c5 3a 58 3e ea 66 a6 be bf 89 85 3b
       -0.09218131 0.21116169 -0.32500392 0.0040752585
000150 97 ab 89 3d 29 e9 97 bd f1 3b b7 bb 0d f2 35 3d
       0.06722181 -0.07417519 -0.0055918624 0.04442029
000160 81 dd 05 bf b8 54 f2 be 47 fa 89 be 95 53 eb be
       -0.52291113 -0.4733026 -0.2694876 -0.45962206
000170 5e 50 48 be f6 c7 85 be b6 31 4b be 2c 3b 13 3d
       -0.19561908 -0.2612912 -0.19843182 0.035945103
000180 4f 4a 3b be 10 c1 f1 be b9 1b 0a bc 28 b9 3b 3d
       -0.18290065 -0.47217607 -0.008429461 0.045830876
000190 b9 93 6e 3d 94 98 12 3c b1 eb 9a be b3 f2 45 3e
       0.058246348 0.00894751 -0.30257943 0.19330864
0001a0 de 17 2c 3d 7c 42 64 bd 09 86 8a 3e 6b 56 de bd
       0.04201495 -0.055727467 0.27055386 -0.10856327
0001b0 73 6c 8a bd 69 8e 38 be 84 1a e6 be 23 08 54 be
       -0.06758966 -0.18023075 -0.44942105 -0.20706229
0001c0 88 14 82 3d fe 8b 4b 3e d2 35 cb 3e ed db 93 be
       0.06351572 0.19877622 0.396895 -0.28878728
0001d0 6e ad b8 3d bd ab 4f bf 54 e7 71 3d 36 d4 1d 3f
       0.09017454 -0.81121427 0.059058502 0.61651933
0001e0 27 21 b0 3e e9 d1 0f be 76 64 3a be 7e 36 6d 3d
       0.34400293 -0.14044918 -0.18202385 0.057913296
0001f0 6a 95 d4 bd 5d 0d 8e be f5 02 8c bb bc 42 0a bd
       -0.10380061 -0.2774457 -0.0042728134 -0.03375505
000200 a3 74 60 3e fc 84 40 be 29 4a ee bd 40 c0 c9 3c
       0.21919493 -0.1880073 -0.11635239 0.024627805
000210 49 71 0b be da 30 a1 be 49 64 24 bf ae 0d d1 be
       -0.13617434 -0.31482583 -0.64215523 -0.4083075
000220 63 55 8b 3d 4e 1e 3e 3e bf 87 87 3d af 00 a2 3d
       0.068033956 0.18566248 0.066176884 0.07910287
000230 ac df 7c 3e 71 1a c0 bd 89 64 6d 3d a8 f6 6b 3e
       0.24694699 -0.09380043 0.057957206 0.2304331
000240 90 5c 5e bf dc 4e 97 3c ec 27 8a be 11 ae 48 bd
       -0.8685999 0.01847022 -0.26983583 -0.048994128
000250 18 90 a3 3d a4 1b 99 be d4 20 4f 3d 10 50 8a 3d
       0.07986468 -0.299039 0.050568417 0.06753552
000260 df a6 8c 3c 95 f6 55 3c e2 69 85 bd 40 07 84 3d
       0.017169414 0.013059278 -0.06514336 0.06446695
000270 08 56 d2 be 73 fc fa 3d 09 41 5c 3e cc e3 9e 3d
       -0.41081262 0.12255182 0.21509184 0.077582926
000280 e0 77 fb bc 6a b8 ea ba e2 ad 08 bf 17 93 bc be
       -0.03069681 -0.0017907743 -0.53390324 -0.3683097
000290 56 83 5e be 2d 72 0a bd 42 3b 6b be 5b f8 22 bf
       -0.21729788 -0.033800293 -0.22971824 -0.6366021
0002a0 df bb 62 3d f0 ac 6e be 36 5d 23 bf 7b 9e 2f 3d
       0.05535495 -0.23308158 -0.63814104 0.042875748
0002b0 19 18 09 be 7c 90 82 3d 0e 26 71 3d 34 40 8e 3d
       -0.13388099 0.063752145 0.058874182 0.069458395
0002c0 17 2b 01 bd b6 dc 84 be 91 7f 13 be 1b 5a 26 3e
       -0.031535234 -0.2594964 -0.14404131 0.1624531
0002d0 b4 37 11 3e 73 09 49 be ee 70 7d 3d dc e5 b6 bd
       0.14181405 -0.19632511 0.061875276 -0.08930561
0002e0 c0 1e 53 3d 35 3c e1 3d aa 88 4e 3d b9 36 84 bd
       0.051542997 0.10997812 0.0504233 -0.0645575
0002f0 0f e1 02 be e7 92 9d bd 41 88 98 bd 0e 36 a6 3d
       -0.12781166 -0.07694035 -0.07447863 0.08115779
000300 42 de 4a be fb ca bc 3e e7 29 56 3c 07 33 b4 3d
       -0.19811347 0.36873612 0.013071514 0.08798795
000310 f8 34 86 3d 7f 39 7c 3d b0 d6 55 bd 41 9a 95 be
       0.06553072 0.06157827 -0.052206695 -0.2921925
000320 97 13 12 bd a5 02 75 3e 4e d4 b3 be 48 75 8b 3e
       -0.035663214 0.2392679 -0.35122913 0.27237916
000330 f0 68 ce bd 12 83 e4 be 9c 64 1e 3e 41 51 04 be
       -0.10078609 -0.4463125 0.15468067 -0.12921621
000340 f5 46 93 3c 37 f1 be 3e 90 4d 0a bf 8b 9a c9 be
       0.01797817 0.37293407 -0.540246 -0.3937572
000350 80 7a 9a be 59 f3 1a be 0f bb 28 bf c6 65 7b be
       -0.30171585 -0.15131892 -0.6591043 -0.24550542
000360 73 e3 04 be a7 f4 94 3e f2 70 a6 be 61 a2 35 be
       -0.1297739 0.29092905 -0.32508045 -0.17737724
000370 18 ad 15 bf 15 2b 39 bf b6 fd 7d 3d c3 78 a9 be
       -0.58467245 -0.7233136 0.062009536 -0.33099946
000380 4e c0 df bc be 2c 61 3d ed 19 36 3d d9 ab d7 3d
       -0.027313378 0.05497431 0.04445832 0.10530824
000390 e2 80 7e 3d 33 8c de 3c 31 47 cd bd 9b a3 86 3d
       0.06213463 0.027166462 -0.10023344 0.06574174
0003a0 03 62 81 3d b7 c6 2f be fd 74 e9 be 8b 9d 6d 3d
       0.063175224 -0.17165647 -0.45597067 0.058011573
0003b0 be 66 9d be 3e b6 68 3d b8 78 1b be 0e ec 2c be
       -0.3074245 0.056814425 -0.1518277 -0.16886923
0003c0 4d 93 3b 3e ef bd 22 3f b6 10 8a 3d 2c 34 b3 3d
       0.1831791 0.63571066 0.067414686 0.08750185
0003d0 de ee 4b 3d 9f 93 4a 3d 76 17 99 3e 65 07 1f 3d
       0.04978835 0.04945719 0.29900712 0.03882541
0003e0 40 a9 7b 3d ad 27 c9 be 28 d0 d4 be 15 cf 1b be
       0.061440706 -0.39288083 -0.4156506 -0.15215714
0003f0 90 cd 92 be 66 2a 4d be 89 a3 23 bd ff a5 de be
       -0.28672457 -0.20035705 -0.03995088 -0.4348602

last.weight f4 [16, 400]
000000 c2 db 51 3e 08 65 98 be 8d 89 82 3d 14 99 4f 3c
       0.20493987 -0.2976458 0.06373892 0.012670774
000010 db 14 66 3c 7e 7a 05 3a 62 e1 52 bd 2f a2 07 bf
       0.014043058 0.00050918 -0.051484473 -0.5298185
000020 8d c5 46 be f9 84 23 3d eb d9 29 bc 62 25 2e 3f
       -0.19411297 0.039921734 -0.010366897 0.6802579
000030 0c 54 90 3d b7 c0 b7 3c c8 f8 ad 3c 5c cf 2e be
       0.07047281 0.02243076 0.021236792 -0.17071289
000040 ad 3e 01 be 00 f6 0b bd e4 2a c2 be 85 05 8f bd
       -0.12621565 -0.03417015 -0.37923348 -0.06983475
000050 c5 16 11 3e 00 ee ff bb 67 d4 08 3d e4 11 cf ba
       0.14168842 -0.007810354 0.033405688 -0.0015798179
000060 b5 7f 87 3c e9 9b f1 bc fa f9 e7 bd 5f 5d 17 3e
       0.016540388 -0.029493289 -0.11326976 0.14781712
000070 46 e1 4b 3e a3 2a 49 be 82 c6 30 3d 60 bf af bd
       0.19910154 -0.19645171 0.04315806 -0.08581424
000080 5d 3e d9 3e b2 b4 38 be fe bc 2a 3d 40 15 1c bc
       0.42430392 -0.1803768 0.041684143 -0.009526551
000090 aa cf 4b 3c 60 94 18 be 94 c8 04 bd f1 a2 24 bd
       0.012439648 -0.1490035 -0.03241785 -0.040194456
0000a0 8f b5 04 3e f2 8f 83 3d 2b 2e 75 be 22 1b 5f bd
       0.12959884 0.0642394 -0.23943393 -0.054469235
0000b0 90 7e 0f be 35 ac de be b4 61 b4 bd f2 c5 c0 3d
       -0.14013124 -0.4349076 -0.08807698 0.09412755
0000c0 fc d6 5a b9 9e 1c 2e 3c 43 61 e8 bb a7 1c 05 be
       -0.00020870188 0.01062694 -0.0070916726 -0.12999211
0000d0 ae 2f 15 be e7 16 9d bc ee 34 1d bd 4b 21 f2 3c
       -0.1456897 -0.01917596 -0.038380556 0.029556891
0000e0 00 7c af bd 15 55 15 bd e2 ed ac be a4 40 f0 3d
       -0.08568573 -0.036458094 -0.3377524 0.11731079
0000f0 e8 46 e7 3c b8 8b d4 3d c8 a9 25 be 0b f1 4b 3c
       0.028232053 0.10378212 -0.16178048 0.012447606
000100 e8 c1 a8 bc 12 c3 44 3e 50 70 40 3e 65 64 8f bc
       -0.020600274 0.19215038 0.18792844 -0.017503927
000110 8d 97 64 3d 52 2f cf 3a e1 85 4e 3e 58 23 ec bd
       0.055808593 0.0015806949 0.20168258 -0.11530179
000120 13 c5 83 bc e8 af 48 bd d2 b2 f9 3d da f3 d6 bd
       -0.016085183 -0.048995882 0.121923104 -0.1049573
000130 00 a7 3b bb 3a e9 6c be 03 4e 53 bc 93 b4 b3 3b
       -0.0028633475 -0.23135844 -0.012897017 0.0054841726
000140 90 de 04 bf fd 0f 86 bd e5 9f e6 bd 9a 25 2b 3e
       -0.51902103 -0.06546018 -0.11260966 0.16713563
000150 3e d4 1d 3c bd 86 5f be 69 21 90 3c 72 7e c1 bc
       0.009633122 -0.21828742 0.017594056 -0.023619864
000160 2b c7 04 3e d7 4a bd 3c 15 ca 89 bc 0b 12 62 be
       0.12966602 0.023106975 -0.016819993 -0.22077195
000170 de d0 1b be 1d b4 fc 3d cb 59 2f bd 8c 25 b7 bb
       -0.15216395 0.123390414 -0.042810243 -0.0055891927
000180 6e 51 ea 3b 48 63 5c be 46 d0 1f be f1 7e d3 bd
       0.0071508205 -0.21522248 -0.15606794 -0.103269465
000190 6d 77 4c 3b 6b eb 3d 3d 10 6c 7d 3c fd c9 14 be
       0.0031199113 0.04636709 0.015467659 -0.14530177
0001a0 ab 44 01 3c 7c 6f a1 3d 10 61 37 bc 90 84 f7 3e
       0.007889907 0.07882592 -0.011192575 0.48343325
0001b0 48 05 cf 3e 86 49 81 bd fb 6a 12 bf 21 83 18 be
       0.40433717 -0.063128516 -0.5719449 -0.14893772
0001c0 98 ae c9 ba 7c c3 4b be 90 d1 2b 3d 59 ab e6 bc
       -0.0015387116 -0.1989879 0.0419479 -0.028157877
0001d0 b4 50 49 bc 41 75 84 be a8 ed d2 3c ca 9e f2 bd
       -0.0122873075 -0.25870708 0.025748089 -0.11846693
0001e0 eb 1c e7 bd c0 42 8b be 88 8d df 3d d2 d5 0f bc
       -0.112848125 -0.27199364 0.10915667 -0.008779006
0001f0 9b 4f e5 3d 0c 1d 71 3f ac 8e 20 be d5 03 27 3f
       0.11196824 0.94184947 -0.15679425 0.6524022
000200 c5 89 80 bd 1c 5f c5 be 61 af d5 bd 5f eb 64 be
       -0.062762775 -0.38549125 -0.104338415 -0.22355412
000210 a1 39 36 3e b8 5b a2 be f2 ac 7b 3e 3a c8 33 3e
       0.17795421 -0.317106 0.24577692 0.17556849
000220 fc 2b fe bb 7e 96 70 3d 09 d8 d4 bb 34 48 07 bd
       -0.007756708 0.05873727 -0.00649548 -0.033027843
000230 de 07 87 3d ec 5b ef 3d 8b be df bb 10 fc 92 3d
       0.065932974 0.116874546 -0.0068281344 0.07176983
000240 8b 2f 5b be 6d 46 9f 3d 9b 02 43 bf 1d 79 8a be
       -0.21404855 0.077771045 -0.7617585 -0.27045527
000250 89 4b ca bd 1f 3a b7 bd e5 b1 ae 3b 7f 62 96 3b
       -0.098776884 -0.089466326 0.0053312653 0.0045893784
000260 79 f2 38 3e a5 06 ff bc 48 25 e2 3d dc da f9 bd
       0.18061246 -0.031131098 0.11042267 -0.12199947
000270 b3 09 03 3f 8c da 11 be 70 72 2b 3e c2 bc 20 3b
       0.51186675 -0.14243525 0.16742873 0.002452657
000280 62 74 ad 3d c2 3d 34 3e 08 e9 87 3e 0c 25 f4 3e
       0.08469464 0.17601684 0.26544976 0.47684515
000290 39 f4 93 bd 5e 36 65 3d 60 93 23 3c b3 c9 f0 3d
       -0.07224316 0.05596005 0.009983867 0.11757221
0002a0 77 3a c4 bc d8 2f 12 bc 91 e9 54 be e4 1d b9 3d
       -0.02395366 -0.00892254 -0.20792224 0.09038904
0002b0 ac b6 b6 3d 8a 4e 85 3b 1f 3a 3f be e2 81 23 3c
       0.08921561 0.0040682005 -0.18674515 0.009979697
0002c0 d2 50 64 3e 00 8c 24 3d 72 29 bb be c3 47 6a 3b
       0.22296456 0.040172577 -0.36555058 0.003574834
0002d0 d7 60 f0 3d af 78 66 be 00 f4 26 3b c4 55 24 bd
       0.11737221 -0.22506975 0.0025475025 -0.040120855
0002e0 49 58 8a 3c f5 d1 95 be 25 4c c8 3c 9f e6 09 bd
       0.0168878 -0.29261747 0.024450371 -0.033667203
0002f0 81 a4 bc be d7 38 1c 3e 07 3d b4 bd aa 71 e2 3c
       -0.36844257 0.15256058 -0.088007025 0.02764209
000300 fa 47 00 3d 45 16 ea bc df 75 ca bd 91 9f a3 3d
       0.031318642 -0.028575072 -0.098857634 0.07989419
000310 38 fe 4e bc 85 75 28 3c c1 9e 58 bf 04 45 37 3e
       -0.012633853 0.010281925 -0.8461724 0.17897421
000320 df 2c 4d 3d c1 fe d5 bd 29 57 5b 3d 20 1f 04 be
       0.05009162 -0.10448981 0.05354992 -0.12902498
000330 6c 1d 5c be 4e b9 ae 3d e3 3f 74 3e 0b 8b 98 3e
       -0.21495599 0.08531438 0.23852496 0.2979358
000340 16 e0 61 be 05 d0 c6 be 23 69 5d 3d 91 3e bc 3c
       -0.22058138 -0.3883058 0.054055344 0.022979053
000350 42 d5 f5 3d cd 3b 34 be bf cf 6d bd 6c 1e 26 3e
       0.12003566 -0.17600937 -0.05805945 0.16222543
000360 36 b5 3b 3e c8 b6 09 bc 3d 32 78 3e f6 60 b5 bd
       0.18330845 -0.008405395 0.24237914 -0.088563845
000370 2c 5b dc be 37 12 07 be 12 d1 81 3c 5b 69 84 3e
       -0.4303831 -0.13190542 0.015846763 0.2586163
000380 dd 93 ca 3d 50 a9 65 bc c6 b9 7a bc 0a 85 e2 3d
       0.09891484 -0.014017418 -0.015303081 0.110605314
000390 8d 52 c0 3a c0 07 01 3e 25 0e a3 3e c2 a8 36 3c
       0.001467304 0.12600613 0.3184673 0.011148633
0003a0 4e 94 c1 ba 76 9f 8b 3c 28 50 38 3d 35 1f 2c bc
       -0.001476893 0.01704381 0.044998318 -0.010505487
0003b0 29 e5 cb 3e 17 4e 82 3c cc 33 13 be 4b ac 0e 3e
       0.39823273 0.015906377 -0.14375228 0.13932912
0003c0 d1 09 80 3e 1a 09 2c 3e 9d 79 c6 bb 0d 7b 09 be
       0.2500749 0.16800347 -0.006056978 -0.13425846
0003d0 1a c6 97 3a 67 6c 2b 3c b7 49 db bd de 95 f2 bd
       0.0011579425 0.010462857 -0.10707419 -0.11844991
0003e0 b2 14 85 bc 21 64 12 be 32 a7 a3 3d 12 17 a5 3e
       -0.01624522 -0.14296009 0.07990874 0.32244164
0003f0 a3 6b 14 3c 95 83 a0 be 6e d7 17 3e 2f 25 c8 be
       0.009058866 -0.3135039 0.14828274 -0.3909087

last.bias f4 [16]
000000 52 a6 d0 bd b0 05 80 3e 32 94 7f bf a2 70 66 3f
       -0.10187973 0.2500434 -0.99835503 0.90015614
000010 ab 1c ef be 03 59 7a 3d 5a 99 d6 3d eb 7b 73 bd
       -0.4670156 0.061120044 0.10478468 -0.05944435
000020 41 c1 19 3f 56 2c 17 3e 13 d2 97 bd 3b f1 6e be
       0.6006051 0.14763007 -0.07413115 -0.2333421
000030 85 a3 b7 3e 04 48 46 be 76 5a a5 3b e9 cc c0 3d
       0.35866943 -0.1936341 0.005046184 0.094140835
