log/MUJOCO_ANT_DIR_12_v4/Ant-v3/4/model/model_pf_state_8469.pth (torch, 848933 bytes, 6 tensors)

base.fc0.weight f4 [400, 111]
0	0x3ee7453e	0.45170015
1	0xbdcf7173	-0.101290606
2	0x3f16a1ec	0.58840823
3	0x3fa47b89	1.28502
4	0x3ecbc9d3	0.39802417
5	0x3f989360	1.1919975
6	0xbf2b8939	-0.6700626
7	0xbefb217e	-0.4904899
8	0x3e902645	0.28154197
9	0xbf811cba	-1.0086892
10	0x3f309cb6	0.6898912
11	0xbf4f284c	-0.80920863
12	0xbf6e4b56	-0.93083704
13	0x3e524b1d	0.20536466
14	0xbdad6332	-0.08466186
15	0xbe332908	-0.17496121
16	0xbd90ece4	-0.07076433
17	0x3e3d1044	0.18463236
18	0x3d094c74	0.033520177
19	0xbc612b5c	-0.013743248
20	0xbb008112	-0.0019608182
21	0xbcecb42e	-0.02889451
22	0xbd218b58	-0.03943953
23	0x3cfd49d9	0.030919002
24	0x3ca6df91	0.020370277
25	0xbdd55917	-0.10417383
26	0x3d25391d	0.04033767
27	0xbb0f2f80	-0.002184838
28	0x3d366653	0.044531178
29	0xbc8fc93a	-0.017552007
30	0xbc4d127a	-0.012516612
31	0xbd0564cb	-0.032566827
32	0xbc8a4b80	-0.016881704
33	0xbd4ca72d	-0.04996412
34	0xbcd3e4f0	-0.025866002
35	0x3b6aaf33	0.0035809993
36	0xbb254933	-0.0025220632
37	0x3ca5eb17	0.020253701
38	0xbd3fdc48	-0.046840936
39	0x3c86d38d	0.016458297
40	0x3ba17c73	0.0049281656
41	0xbc731aa7	-0.014837897
42	0xbd360155	-0.044434864
43	0xbcf4a080	-0.029861689
44	0x3d1b6012	0.037933417
45	0xbd220082	-0.039551266
46	0x3bae584d	0.005320585
47	0x3d17a0fb	0.037018757
48	0x3d4b8b8d	0.049693633
49	0xbd21a13d	-0.03946041
50	0xbcb088aa	-0.021549542
51	0xbced8dd7	-0.028998299
52	0x3cdc6c5a	0.026907135
53	0xbd149b5f	-0.036280986
54	0x3ccb1e7a	0.024794806
55	0x3c515667	0.012776948
56	0x3c9d1eda	0.01917975
57	0xbd1aeff3	-0.03782649
58	0xbcb46597	-0.022021098
59	0x3cf79d77	0.030226452
60	0xbd35203a	-0.044220187
61	0x3bce140d	0.0062890113
62	0x3cc9ed9a	0.02464943
63	0xbce22ca0	-0.02760917
64	0x3b1954e7	0.0023396553
65	0xbd35bfd2	-0.044372387
66	0xbbeaf473	-0.007170254
67	0xbcacfa8d	-0.021115566
68	0x3c8efe0a	0.01745512
69	0xbc11372d	-0.008863253
70	0xbd13816d	-0.036012102
71	0x3c1e2400	0.009652138
72	0x3cc85943	0.024456626
73	0xbce8da27	-0.028424336
74	0x3d3bf217	0.04588517
75	0xbd345a1d	-0.04403125
76	0x3b325a00	0.0027214289
77	0xbd46815f	-0.04846322
78	0x3cb6ecd7	0.02232973
79	0xbb44594d	-0.0029960454
80	0x3d046920	0.032326818
81	0x3cf4c200	0.029877663
82	0xbd11e188	-0.035615474
83	0xbd08d36a	-0.033404745
84	0xbcc88d63	-0.024481481
85	0x3c151587	0.009099371
86	0x3c14b9ed	0.009077531
87	0x3c9863c7	0.018602265
88	0xbd419aef	-0.047266897
89	0xbcb140aa	-0.02163728
90	0xbd0f1c15	-0.03493889
91	0xbb2d25cd	-0.0026420236
92	0x3cd23b5a	0.025663067
93	0x3cf84597	0.03030662
94	0xbd279122	-0.040909894
95	0xbca1ec70	-0.019766062
96	0x3ce4a2c7	0.02790965
97	0x3d17e710	0.037085593
98	0xbd0ae88d	-0.033913184
99	0x3af6cb00	0.0018828809
100	0x3d486dba	0.04893277
101	0x3ccaed5a	0.024771381
102	0x3c83b443	0.016077166
103	0x3c9dd983	0.019268757
104	0x3cbd28f3	0.023090815
105	0x3d160512	0.03662593
106	0x3cf52c97	0.029928489
107	0xbbdf9c40	-0.0068240464
108	0x3cc5926d	0.024117673
109	0x3d05c008	0.03265384
110	0xbc43f7fa	-0.011960978
111	0x3f953cbb	1.1659158
112	0xbe8faaa1	-0.28059867
113	0x3fe0f776	1.7575519
114	0x3ec34377	0.3813741
115	0xbf2483c4	-0.6426356
116	0xbe363cb4	-0.17796594
117	0x3ef52821	0.47882178
118	0x3ce3cdc2	0.027808074
119	0x3f29b0e1	0.6628552
120	0xbebabff5	-0.36474577
121	0x3db0f8af	0.08641183
122	0xbe44c861	-0.19217063
123	0xbe9eba54	-0.31001532
124	0xbd89820f	-0.0671426
125	0x3dd5a1cd	0.10431252
126	0x3e8ba104	0.27271283
127	0xbe35ca92	-0.17753056
128	0x3d5cda6a	0.053919233
129	0xbe5dca60	-0.21659231
130	0xbb8fae06	-0.004384759
131	0x3ebb31df	0.36561486
132	0xbdae7784	-0.085188895
133	0x3db462f6	0.08807938
134	0xbc113aca	-0.008864114
135	0xbc698807	-0.014253623
136	0xbc3c86bb	-0.011506732
137	0xbcf1618e	-0.029465463
138	0x3c5d885a	0.013521278
139	0x3c132b4d	0.008982492
140	0xbc47a647	-0.01218564
141	0x3d08f6b0	0.033438385
142	0xbc231d20	-0.009955674
143	0xbd0a0a12	-0.03370101
144	0x3cc79d3d	0.02436697
145	0xbc847470	-0.016168803
146	0xbd1dd8a8	-0.038536698
147	0x3c842ab7	0.01613365
148	0xbd18cffb	-0.03730772
149	0x3cb90003	0.022583013
150	0x3c91290d	0.01771977
151	0xbd1e4cf7	-0.03864762
152	0x3d06116f	0.03273147
153	0x3b415f67	0.0029506327
154	0x3cff2743	0.031146651
155	0x3d182548	0.03714493
156	0xbb60b480	-0.0034287274
157	0xb9c1de67	-0.0003697753
158	0xbc02f9c0	-0.007994115
159	0xbc599b60	-0.013281673
160	0xbb8b8cc0	-0.004258722
161	0xbc139c73	-0.009009468
162	0xbbe5ef4d	-0.0070170523
163	0x3c161f2d	0.009162706
164	0x3caa87bd	0.020816678
165	0xbb3af31a	-0.0028526247
166	0x3d0a6538	0.033787936
167	0x3c2b2967	0.010446883
168	0xbcf04743	-0.029330855
169	0xbcd3e4d7	-0.025865955
170	0xbd42f160	-0.047593474
171	0xbd2158b3	-0.03939123
172	0x3d395c8b	0.04525427
173	0xbc81fb30	-0.015866846
174	0x3ce8389d	0.028347308
175	0x3c2dec07	0.010615355
176	0xbb0f8500	-0.0021899343
177	0xbbcd2940	-0.006261021
178	0x3c86ff07	0.016479028
179	0x3b2bcdcd	0.0026215196
180	0xbc84b54d	-0.016199732
181	0x3c97cfad	0.018531645
182	0x3d3e00ca	0.04638747
183	0xbbf79200	-0.0075552464
184	0xbd3acba2	-0.045604356
185	0x3d3eedc7	0.04661348
186	0x3c86ba0a	0.016446132
187	0x3d2f5aaa	0.042811073
188	0x3cea989a	0.02863722
189	0xbd25b170	-0.04045242
190	0x3c67b55a	0.014142359
191	0x3d1c1607	0.038106944
192	0xbcf501cd	-0.029908085
193	0xbc87b8cd	-0.016567612
194	0xbc28670d	-0.0102784755
195	0xbc4883d3	-0.012238461
196	0x3d2a47fb	0.041572552
197	0xbc4fd4ed	-0.012685043
198	0x3b34e6b3	0.0027603328
199	0xbd37f08b	-0.044907134
200	0xbc5fc89a	-0.013658667
201	0xbbb47e5a	-0.0055082263
202	0x3cc9bad0	0.024625212
203	0x3ceb6843	0.02873624
204	0x3d481768	0.048850447
205	0x3c85cfea	0.016334493
206	0x3d4b7e85	0.049681205
207	0x3ca02873	0.019550538
208	0xbbddb200	-0.006765604
209	0xbd3159dd	-0.04329859
210	0x3d19b808	0.03752902
211	0x3ca9f080	0.020744562
212	0x3d09aacb	0.033610146
213	0xbc9eaeea	-0.019370515
214	0xbcf5cbd0	-0.030004412
215	0x3c1f04c7	0.009705729
216	0x3d4a8567	0.04944363
217	0x3d39bbe0	0.045345187
218	0xbbc54eb3	-0.0060213446
219	0x3d1f7278	0.038927525
220	0x3d281d75	0.041043717
221	0xbc8171a3	-0.015801257
222	0xbd832dda	-0.0640523
223	0xbcae1e23	-0.021254605
224	0xbfbd3483	-1.478165
225	0xbef07dbc	-0.46970928
226	0xbfc201f0	-1.5156841
227	0xbe191041	-0.14947607
228	0x3deb5bd7	0.114921264
229	0x3ee588d6	0.4483096
230	0x3ecda034	0.40161288
231	0x3e012828	0.12612975
232	0xbef432df	-0.47695062
233	0x3ea575d7	0.32316467
234	0xbe913826	-0.2836315
235	0x3ed33359	0.41250113
236	0xbe2c59cd	-0.16831131
237	0xbe5b148b	-0.21394555
238	0xbcfc4ecd	-0.030799294
239	0x3d67c68d	0.056585837
240	0x3d2ae317	0.041720476
241	0xbc7b1e8d	-0.015327108
242	0x3d02e60e	0.03195768
243	0xbc1349c3	-0.008989754
244	0x3d2837c2	0.0410688
245	0x3cd761c9	0.026291745
246	0xbbf63383	-0.007513465
247	0x3c7d8ee0	0.015475959
248	0x3b8d351f	0.004309311
249	0x3d0793a7	0.033099797
250	0xbd009245	-0.031389493
251	0xbd0c96ba	-0.03432343
252	0xbd475f4d	-0.04867487
253	0x3c01627a	0.007897014
254	0x3ccf6e47	0.025321139
255	0xbbbfc0cd	-0.005851841

base.fc0.bias f4 [400]
0	0x3d571e1a	0.05251894
1	0xbf10e0eb	-0.565932
2	0xbe473f23	-0.19457678
3	0xbd0fdff5	-0.03512569
4	0x3ce7ac6b	0.028280457
5	0x3e1eb508	0.15498745
6	0xbe873e15	-0.26414552
7	0x3fa46ed8	1.2846327
8	0x3ecf6fc0	0.40514946
9	0xbf09c427	-0.5381493
10	0xbbee41a6	-0.0072710095
11	0x3e617843	0.22018532
12	0xbf909451	-1.1295263
13	0xbf581371	-0.84404665
14	0x3e0a3f1f	0.13500641
15	0x3e3bcbef	0.18339513
16	0x3f42ace7	0.7604508
17	0xbf0da80e	-0.55334556
18	0xbe5c4a64	-0.21512753
19	0xbf80dd90	-1.0067616
20	0xbefbb8d8	-0.49164462
21	0x3d746cef	0.0596742
22	0xbeb06e5d	-0.344592
23	0x3fb6db5c	1.4285693
24	0x3da6a859	0.081375785
25	0xbef69cc8	-0.4816649
26	0xbf54c2b4	-0.83109593
27	0xbf5b2791	-0.8560725
28	0xbd2f14a6	-0.0427443
29	0xbe6b1da3	-0.22960524
30	0xbf1ac813	-0.6046154
31	0x3e202148	0.15637696
32	0xbe08d782	-0.1336346
33	0xbf2bb6ee	-0.67076004
34	0xbf43f7a5	-0.7654975
35	0x3f8ab835	1.0837466
36	0xbda2b017	-0.07943743
37	0xbd55a174	-0.052155927
38	0xbf545814	-0.82946897
39	0xbe0c2aec	-0.13688248
40	0xbf37d327	-0.7180657
41	0xbf105440	-0.56378555
42	0xbd5d4251	-0.054018322
43	0xbf6aea0c	-0.9176338
44	0x3f45ad96	0.77217996
45	0xbf1bb16b	-0.60817593
46	0xbedcb216	-0.4310462
47	0x3cf2d9e0	0.029644907
48	0x3ec25ebf	0.3796291
49	0xbf4959ad	-0.7865246
50	0x3f8db38c	1.1070418
51	0xbfa08077	-1.2539204
52	0x3e92015a	0.28516656
53	0x3dfa1ebe	0.12212895
54	0x3dfafc47	0.12255149
55	0xbf563668	-0.8367677
56	0xbf1c2fe2	-0.61010563
57	0x3e0cc895	0.13748391
58	0xbe3eb15e	-0.18622348
59	0x3f8da0d5	1.1064707
60	0x3e19edff	0.15032195
61	0xbf4eda3a	-0.8080174
62	0x3cc986e4	0.024600454
63	0xbf22371b	-0.63365334
64	0x3f0cc649	0.5499006
65	0xbf5bb067	-0.85816044
66	0x3e291feb	0.16516082
67	0x3f2c6c12	0.673524
68	0xbf6f1327	-0.933886
69	0xbf0ae8ff	-0.54261774
70	0xbe0fe7a9	-0.14053215
71	0xbf81b24d	-1.0132538
72	0xbf57a1ed	-0.84231454
73	0x3f59f01f	0.8513202
74	0x3e39f2e1	0.18159057
75	0xbf67246e	-0.9028996
76	0xbddaf57c	-0.10691354
77	0xbd83f3d0	-0.06442988
78	0x3ec82e6a	0.3909791
79	0xbea04d53	-0.31308994
80	0x3ea77d83	0.32712945
81	0xbd2af1d5	-0.041734535
82	0x3f208a05	0.627106
83	0xbdccd0fb	-0.10000797
84	0xbf86825e	-1.0508535
85	0xbf6ddd10	-0.9291544
86	0x3edc9297	0.4308059
87	0x3db476f9	0.08811755
88	0x3ea99200	0.33119202
89	0xbe2f8a0c	-0.17142504
90	0x3e7bb50c	0.24580783
91	0x3f2b75e8	0.66976786
92	0x3f480cfa	0.781448
93	0x3f368374	0.7129433
94	0x3fc75cc9	1.5575191
95	0xbe2b4c36	-0.16728291
96	0xbf97d676	-1.1862323
97	0x3e2315b8	0.15926254
98	0xbe96f58c	-0.29484212
99	0xbf3c5ecd	-0.73582155
100	0xbf68aeb0	-0.9089155
101	0xbe8a41e7	-0.27003404
102	0xbed055ae	-0.40690368
103	0xbe88c7d9	-0.26714972
104	0x3e7b45f6	0.24538407
105	0xbe3a7250	-0.1820767
106	0x3e78c280	0.24292946
107	0xbf72f208	-0.9490056
108	0xbd9ee582	-0.07758619
109	0xbf6e1a09	-0.93008476
110	0xbefe2416	-0.49636906
111	0xbf40fa1d	-0.7538164
112	0x3eda3010	0.42614794
113	0xbde84ea3	-0.11343124
114	0xbf886c88	-1.0658121
115	0xbe7ca32f	-0.24671625
116	0x3e228dd8	0.15874422
117	0x3ec8c9af	0.39216372
118	0xbf429cb6	-0.7602037
119	0xbf4dbf2a	-0.8036982
120	0xbf7f2b95	-0.99675876
121	0xbd0e035a	-0.034671165
122	0x3aabe424	0.0013114256
123	0xbf5f4192	-0.8720943
124	0x3e9c1f65	0.30492702
125	0xbf089caf	-0.5336408
126	0xbe7b976a	-0.24569479
127	0xbf8227c7	-1.0168389
128	0xbf2851a0	-0.6574955
129	0xbf5b6105	-0.85694915
130	0xbe57cd68	-0.2107445
131	0xbe90d53a	-0.2828768
132	0x3e392b9d	0.18083043
133	0xbf15dec9	-0.5854307
134	0x3ddd6bdf	0.108115904
135	0x3cc8bef1	0.02450511
136	0xbe18a362	-0.14906076
137	0x3c5093c9	0.012730547
138	0x3eab7f2e	0.33495468
139	0x3f2f894e	0.68568885
140	0xbe8a7d15	-0.27048555
141	0xbf80076a	-1.0002263
142	0xbe6bed18	-0.23039663
143	0xbf532c3c	-0.8248937
144	0x3ebd3f2f	0.36962268
145	0xbe5be2de	-0.21473262
146	0xbf12a700	-0.5728607
147	0xbf5161ad	-0.81789666
148	0x3e6abea3	0.22924285
149	0xbe595dc4	-0.21227175
150	0xbd28b65b	-0.041189533
151	0xbf8f01aa	-1.1172383
152	0xbf40e2c6	-0.7534603
153	0x3f03002b	0.5117213
154	0xbe4ff59f	-0.20308541
155	0x3f2fe3d4	0.68707013
156	0xbe38b2c4	-0.18036944
157	0xbefb161b	-0.49040303
158	0x3d838507	0.06421857
159	0xbecd86f2	-0.40142018
160	0xbf3f00e3	-0.7461073
161	0x3ea809dd	0.32820025
162	0x3df12e8b	0.117764555
163	0x3e2b1116	0.16705737
164	0xbe32ac6b	-0.17448585
165	0xbf17155b	-0.5901696
166	0xbf44bbdb	-0.76849145
167	0xbfb5aae8	-1.4192781
168	0xbf1681aa	-0.587916
169	0xbf6c6bc9	-0.9235197
170	0x3e4a5e3a	0.19762507
171	0xbefd039d	-0.4941682
172	0x3ef0a410	0.4700017
173	0x3c5eb8ab	0.013593833
174	0xbd4e2966	-0.05033245
175	0xbf7c0284	-0.9844134
176	0x3eb72337	0.35769054
177	0x3e406274	0.18787557
178	0xbee232d0	-0.44179392
179	0x3ef4b6c7	0.47795698
180	0xbea55b69	-0.32296303
181	0x3c758d8e	0.014987363
182	0x3da77523	0.08176639
183	0xbf3406ca	-0.7032286
184	0xbf540ec2	-0.8283502
185	0x3f7e1381	0.9924851
186	0xbec39ff0	-0.3820796
187	0xbeba92c0	-0.36440086
188	0x3da8717c	0.082247704
189	0x3f2bf701	0.67173773
190	0xbed37690	-0.41301394
191	0xbda2c097	-0.0794689
192	0xbd9efda2	-0.0776322
193	0xbe5ca0b7	-0.21545683
194	0x3f1be0ef	0.60890096
195	0x3ee6f001	0.45104983
196	0x3dd6d418	0.104896724
197	0xbe875dec	-0.26438844
198	0x3eb39289	0.35072735
199	0x3f519600	0.81869507
200	0xbdd6de63	-0.10491636
201	0xbdd1278a	-0.102126196
202	0xbf0a6770	-0.54064083
203	0x3ea9699d	0.3308839
204	0xbdf58db5	-0.11989919
205	0xbf42687b	-0.75940675
206	0xbee08aca	-0.43855888
207	0x39b35e64	0.00034211867
208	0x3f3375c8	0.70101595
209	0xbf11f83a	-0.5701939
210	0xbf240ce9	-0.640822
211	0xbf1bdb8b	-0.6088187
212	0xbed71155	-0.4200541
213	0xbf0e14a9	-0.55500275
214	0xbefead91	-0.49741796
215	0xbee74561	-0.4517012
216	0xbf549ccf	-0.8305177
217	0x3f008882	0.50208294
218	0xbf8c814e	-1.0976961
219	0xbc5da261	-0.013527484
220	0x3f1babec	0.60809207
221	0xbc2b9686	-0.010472899
222	0x3ecfda85	0.40596405
223	0xbec34a2e	-0.38142532
224	0xbf130ddd	-0.5744303
225	0xbf8e83be	-1.1133955
226	0x3f6a6da8	0.9157357
227	0xbe931097	-0.28723595
228	0xbf77e3b2	-0.9683181
229	0xbed71e72	-0.42015415
230	0xbd8206d4	-0.063489586
231	0x3dc8576a	0.09782298
232	0x3dc615d4	0.09672132
233	0xbe99799e	-0.299756
234	0xbf83ce86	-1.0297401
235	0xbfa57098	-1.2924986
236	0xbc6e30f5	-0.014538039
237	0xbe96603a	-0.2937029
238	0xbe7455cd	-0.23860855
239	0x3e903627	0.28166315
240	0x3e71f92c	0.23630208
241	0xbe9432e3	-0.28945073
242	0xbebdc907	-0.37067434
243	0x3ee37ed3	0.44432697
244	0x3eb91dda	0.36155587
245	0xbf2393ed	-0.6389759
246	0x3fb34443	1.4005207
247	0x3f2c08c6	0.6720089
248	0xbf620cbf	-0.883007
249	0x3de2a811	0.110672124
250	0xbf32d19a	-0.69851077
251	0x3e9b668c	0.30351675
252	0x3e93a503	0.2883683
253	0xbeac5346	-0.33657283
254	0xbf1c7a7d	-0.611244
255	0x3e9c8732	0.30571896

base.fc1.weight f4 [400, 400]
0	0xbeac2afa	-0.3362654
1	0xbe3846b8	-0.17995727
2	0xbe9aa5cd	-0.3020462
3	0xbecd5d5e	-0.40110296
4	0x3c00e7db	0.007867779
5	0xbe328866	-0.17434844
6	0xbe0e75eb	-0.1391217
7	0xbd09d711	-0.03365237
8	0xbce09f46	-0.027419697
9	0xbe4e4213	-0.20142393
10	0x3d815c1f	0.06316399
11	0xbf21dd93	-0.6322872
12	0x3d30c1fd	0.04315375
13	0x3d4ec69d	0.05048238
14	0xbf26faa1	-0.6522618
15	0xbe8b1edd	-0.27171984
16	0x3d211802	0.039329536
17	0xbcb74abd	-0.022374505
18	0xbf764256	-0.9619497
19	0xbf516eea	-0.81809866
20	0xbd7149db	-0.058908325
21	0xbd62956b	-0.055318277
22	0xbeb4ff51	-0.3535104
23	0xbeb036cc	-0.34416807
24	0xbe900409	-0.2812808
25	0xbe86cdc9	-0.26328877
26	0x3e0cabb1	0.1373737
27	0x3e8fed28	0.28110623
28	0x3db8c8b4	0.09022656
29	0xbe5af5d3	-0.21382837
30	0xbe4cdea9	-0.20006813
31	0x3f1faee8	0.6237626
32	0x3ee12f3a	0.43981344
33	0xbe7fda4b	-0.24985616
34	0x3f24e4b9	0.64411503
35	0xbe2d90c1	-0.1694975
36	0x3e8cff7e	0.27538675
37	0x3e55dba8	0.20884573
38	0xbf18b126	-0.5964531
39	0xbeb44fa1	-0.35217002
40	0x3eab9c17	0.33517525
41	0xbe3197a0	-0.17342997
42	0x3ef955dd	0.4869832
43	0x3f0cb081	0.54956824
44	0xbba3dd02	-0.0050007114
45	0xbd74d8f8	-0.05977723
46	0x3ea62cb6	0.32455987
47	0x3ccb6f2b	0.024833282
48	0x3dd04c5d	0.10170815
49	0xbf496a4a	-0.7867781
50	0xbef25eb1	-0.4733787
51	0x3e080428	0.13282835
52	0x3f018459	0.5059257
53	0xbe921c47	-0.285372
54	0xbcd8b12d	-0.026451671
55	0xbe49a0d4	-0.19690257
56	0xbd40fa27	-0.047113564
57	0x3ddba89e	0.107255206
58	0xbf016e82	-0.50559247
59	0xbee4c654	-0.44682562
60	0x3e8400c7	0.25781843
61	0x3f01b8d5	0.50672656
62	0xbec9f788	-0.39446664
63	0xbf8fc73d	-1.1232678
64	0x3ef13da2	0.47117335
65	0x3e533ad5	0.20627911
66	0xbf470c23	-0.77752894
67	0xbf2e9043	-0.68188876
68	0xbc7a9627	-0.015294588
69	0x3f00a653	0.5025379
70	0xbd49d4a2	-0.049275048
71	0xbe0684e2	-0.13136628
72	0xbf0f6862	-0.5601865
73	0xbee23ea8	-0.44188428
74	0x3a3f7964	0.00073041604
75	0x3ea9a9af	0.3313727
76	0xbf482c67	-0.7819275
77	0xbe517ceb	-0.20457809
78	0xbe97d1fc	-0.29652393
79	0xbe16fda5	-0.14745195
80	0xbf1cc742	-0.61241543
81	0xbeaf050a	-0.34183532
82	0xbe3bcc1d	-0.18339582
83	0xbcc0864f	-0.023501543
84	0x3d806f39	0.06271214
85	0xbeb5730b	-0.35439333
86	0xbfa57d28	-1.292882
87	0x3ea89e92	0.3293348
88	0x3edd344d	0.43203965
89	0x3eccd5da	0.40006906
90	0x3e023360	0.1271491
91	0xbe1184c5	-0.14210804
92	0xbeb6caed	-0.35701695
93	0x3d87b133	0.06625595
94	0xbe030b90	-0.1279738
95	0x3cdbc193	0.026825702
96	0xbf893685	-1.0719763
97	0x3e190c65	0.14946134
98	0x3f25e69e	0.6480502
99	0xbe0af17b	-0.1356868
100	0x3e2f4c54	0.1711896
101	0xbf0ca3ca	-0.5493742
102	0xbeb3ba2c	-0.35102975
103	0xbe7da16d	-0.2476861
104	0xbf145168	-0.57936716
105	0xbec556e6	-0.3854286
106	0x3de01c22	0.10942866
107	0x3ee0bdd8	0.4389484
108	0x3eac9f55	0.3371531
109	0x3f08377a	0.5320965
110	0x3f17986c	0.5921695
111	0xbbe7b307	-0.0070709023
112	0xbed579ba	-0.41694432
113	0x3eb798fc	0.35858905
114	0x3ec9f1d2	0.39442307
115	0x3f0ae4a9	0.5425516
116	0xbd1c88d9	-0.038216446
117	0x3e6fe60a	0.23427597
118	0xbeb97177	-0.3621938
119	0xbed22ec0	-0.41051292
120	0x3ef1308f	0.4710736
121	0xbf4f6292	-0.8100978
122	0x3e8a3859	0.26996115
123	0x3ec5f67f	0.38664624
124	0xbe8e9a09	-0.27851894
125	0xbe50d390	-0.20393205
126	0xbe12c8c0	-0.14334393
127	0x3eed4834	0.4634415
128	0xbe98af3e	-0.298212
129	0x3dadb272	0.08481301
130	0xbd3da6c8	-0.046301633
131	0x3ee12b09	0.43978146
132	0xbe9bd300	-0.30434418
133	0x3ee9764a	0.4559806
134	0xbe8da5d2	-0.27665573
135	0x3eb97ade	0.36226553
136	0xbf0b6993	-0.5445797
137	0x3edf8804	0.4365846
138	0xbea7241d	-0.3264474
139	0x3e68abe5	0.22721823
140	0xbd9a7831	-0.07542456
141	0x3f016b68	0.50554514
142	0x3e319ada	0.17344227
143	0xbe30cab8	-0.17264831
144	0x3f240df9	0.6408382
145	0xbea9cab4	-0.33162463
146	0x3ee28c3d	0.44247618
147	0xbd97aeeb	-0.0740641
148	0xbd729ca5	-0.05923142
149	0x3c9d8fcb	0.019233605
150	0x3e95dc24	0.29269516
151	0x3d3771e9	0.044786368
152	0xbecbe2fd	-0.39821616
153	0x3dbe4b4e	0.09291707
154	0xbdba46d8	-0.090955436
155	0x3e5dcc23	0.21659903
156	0xbf100dd8	-0.56271124
157	0xbf02ee46	-0.51144826
158	0x3e44097b	0.19144242
159	0x3e5e9df6	0.21739945
160	0x3f34f0a4	0.7067969
161	0x3f79842b	0.974673
162	0xbe03d8d5	-0.12875684
163	0xbdd05856	-0.10173099
164	0xbe14ecbb	-0.1454343
165	0x3dcf7604	0.101299316
166	0xbf02eba5	-0.51140815
167	0x3c80186f	0.01563665
168	0xbe39c2a5	-0.18140657
169	0x3e2980e0	0.16553068
170	0xbedab95d	-0.42719546
171	0xbedb9b1f	-0.42891786
172	0xbe24b91a	-0.16086236
173	0xbe4d91eb	-0.20075195
174	0x3c434f87	0.011920816
175	0x3f5a1bad	0.8519848
176	0x3e10d1bf	0.14142512
177	0x3ed169e0	0.4090109
178	0x3e88b013	0.26696834
179	0xbf2ec8b3	-0.6827499
180	0x3f187237	0.5954928
181	0xbd52df80	-0.051482677
182	0x3da74bd5	0.08168761
183	0xbe8580b4	-0.26074755
184	0x3e291208	0.16510785
185	0xbf0682eb	-0.52543515
186	0xbf38b06e	-0.7214421
187	0xbe222306	-0.15833673
188	0xbeb27297	-0.3485305
189	0xbf1b52e7	-0.60673374
190	0xbef7a852	-0.48370606
191	0xbe877c75	-0.2646214
192	0x3d7df9b0	0.0620057
193	0x3e046d72	0.12932375
194	0xbf69aa62	-0.9127561
195	0x3e3a28a3	0.18179564
196	0xbd075376	-0.03303858
197	0xbda2d302	-0.07950403
198	0xbf8c2da3	-1.0951427
199	0xbf386820	-0.7203388
200	0x3dea590f	0.11442768
201	0xbe8b7529	-0.27237824
202	0x3d398a51	0.045297924
203	0x3b91598b	0.004435723
204	0x3d6b3326	0.057421826
205	0xbf0841b0	-0.5322523
206	0x3ed73a24	0.42036545
207	0x3de12c44	0.10994771
208	0xbe8a159f	-0.2696962
209	0xbf2db1ef	-0.6784963
210	0xbf094ec6	-0.53635824
211	0xbe8f2a03	-0.2796174
212	0xbeb058a2	-0.3444262
213	0x3ded966c	0.11600956
214	0xbe91b7e7	-0.2846062
215	0x3eb37f13	0.35057887
216	0x3d5f5b0f	0.0545302
217	0xbeb9c16c	-0.36280382
218	0x3f48e70a	0.7847754
219	0xbf5a0c03	-0.8517458
220	0x3ecdfb2b	0.40230688
221	0x3e326792	0.17422321
222	0xbef3ff29	-0.4765561
223	0xbda1113e	-0.07864617
224	0xbe953797	-0.29143974
225	0x3f0784fe	0.52937305
226	0x3ecdb613	0.40177974
227	0xbd356179	-0.04428241
228	0x3e1e70cc	0.15472716
229	0x3d5a9a3a	0.05336974
230	0x3ee5931b	0.44838795
231	0x3e6f96fa	0.23397437
232	0xbf2c0a77	-0.6720347
233	0x3e5377eb	0.20651214
234	0xbe949509	-0.29019955
235	0xbe25b6b2	-0.16182974
236	0xbf3adc79	-0.72992665
237	0x3f232798	0.6373229
238	0xbddd5112	-0.108064786
239	0x3f1d184f	0.61365217
240	0x3ec626e6	0.38701552
241	0x3dc034a4	0.093850404
242	0x3d3de2d9	0.046358917
243	0xbe9d4d00	-0.3072281
244	0xbe610a64	-0.2197662
245	0x3ec300a3	0.38086423
246	0xbeffe490	-0.49979067
247	0x3e39c558	0.18141687
248	0xbe28b04f	-0.16473506
249	0x3e038694	0.12844306
250	0xbd70e8e2	-0.058815844
251	0x3e8bc76d	0.27300587
252	0xbeeab3b3	-0.45840225
253	0xbd5569e5	-0.052102942
254	0xbe1f0a1d	-0.15531202
255	0xbed11b62	-0.40841204

base.fc1.bias f4 [400]
0	0xbe0fe805	-0.14053352
1	0xbe90d46c	-0.28287065
2	0x3e63424a	0.22193256
3	0x3d80df44	0.062925845
4	0x3d3f34c5	0.046681184
5	0x3db1df22	0.08685137
6	0xbdcc9722	-0.09989764
7	0xbe8aa5f7	-0.27079746
8	0x3e3ea3dd	0.18617196
9	0xbed9a059	-0.42505148
10	0x3d98a7c2	0.07453872
11	0xbef1a25c	-0.47194183
12	0x3e9a0849	0.30084446
13	0x3d82a703	0.06379511
14	0x3d8031c6	0.062594935
15	0xbec356da	-0.381522
16	0x3d9cb476	0.07651608
17	0x3d5d5319	0.054034326
18	0x3e8f57c0	0.27996635
19	0xbe2c7a6a	-0.16843572
20	0xbe2720f9	-0.16321172
21	0x3e974b27	0.29549524
22	0x3efd26ce	0.49443668
23	0x3d88ff99	0.066893764
24	0x3d5a2524	0.053258076
25	0xbe824c86	-0.25449008
26	0x3c8d9e57	0.017287416
27	0x3da58914	0.08082786
28	0xbe853c8f	-0.26022765
29	0xbe2a4ff4	-0.16632062
30	0xbd2b25a6	-0.04178395
31	0x3eeb34d7	0.4593875
32	0x3d902487	0.07038217
33	0xbe13f763	-0.1444984
34	0xbecd6a9e	-0.40120405
35	0x3d45d8e7	0.048302557
36	0xbeecfc38	-0.46286178
37	0x3da3368a	0.07969387
38	0x3d638967	0.05555096
39	0x3d0db590	0.03459698
40	0xbe502e52	-0.2033017
41	0x3d2ef85b	0.04271732
42	0xbd882bfa	-0.06649013
43	0x3dc6a2bb	0.09699007
44	0x3d86bb77	0.06578725
45	0xbf223744	-0.6336558
46	0xbee07f47	-0.43847105
47	0x3d238d1e	0.0399295
48	0xbc4005c9	-0.011720129
49	0x3e06b6ba	0.13155642
50	0xba1f0ee6	-0.00060675887
51	0xbd3c5461	-0.045978907
52	0x3ef75af7	0.48311588
53	0x3d93dae5	0.07219485
54	0x3d467ed5	0.0484608
55	0x3c0ebfe6	0.008712744
56	0xbe3f2059	-0.18664683
57	0x3e6276f3	0.22115688
58	0xbe1611e8	-0.14655268
59	0xbd3658e9	-0.044518385
60	0xbe2468eb	-0.16055648
61	0xbd056f18	-0.03257665
62	0xbe23e99d	-0.16007085
63	0x3d7a77cf	0.061149415
64	0xbda80738	-0.08204502
65	0x3e97279f	0.29522416
66	0x3db496b5	0.088178076
67	0x3e2ab9bc	0.16672415
68	0x3b9f77b2	0.0048665637
69	0x3d862f0a	0.06551941
70	0x3c08fd79	0.008361214
71	0x3d893a6e	0.06700598
72	0x3d6eb573	0.058278512
73	0xbc74dcfc	-0.014945265
74	0xbe849819	-0.2589729
75	0x3e3a7bde	0.18211314
76	0x3c4ae45c	0.012383547
77	0xbf308a7d	-0.68961316
78	0x3d051b60	0.03249681
79	0x3eb6aad7	0.35677215
80	0xbe0bd905	-0.13657005
81	0x3e7b866c	0.24562997
82	0xbe8fe4ff	-0.28104398
83	0x3c0304de	0.007996766
84	0x3d89ab97	0.06722181
85	0xbd4fc7b2	-0.050727554
86	0x3db6231b	0.088934146
87	0x3d35f20d	0.04442029
88	0xbf05dd81	-0.52291113
89	0xbedd81d2	-0.43263108
90	0xbe7187e9	-0.23587002
91	0xbeccf516	-0.40030736
92	0xbe1dccdb	-0.15410177
93	0xbe3af179	-0.18256177
94	0xbe5f35bf	-0.21797846
95	0x3d133b2c	0.035945103
96	0xbe608342	-0.21925071
97	0xbeccf04e	-0.40027088
98	0xbd19db20	-0.03756249
99	0x3dbafbde	0.09130071
100	0x3d6e93b9	0.058246348
101	0x3c129894	0.00894751
102	0xbea8af83	-0.32946405
103	0x3e79d3f0	0.24397254
104	0x3d2c17de	0.04201495
105	0xbd75fc13	-0.06005485
106	0x3ea639a9	0.32465866
107	0xbd41cf1a	-0.047316648
108	0xbcee3898	-0.02907972
109	0xbdcda16d	-0.10040555
110	0xbeeec596	-0.4663512
111	0xbe56e86b	-0.20987098
112	0x3d821488	0.06351572
113	0x3e4ed914	0.20199996
114	0x3ecd880e	0.40142864
115	0xbe3f4d33	-0.18681793
116	0x3d17bf32	0.037047572
117	0xbf3413fd	-0.70343
118	0x3d71e754	0.059058502
119	0x3f10b3cd	0.56524354
120	0x3ecbce45	0.3980581
121	0xbde5df45	-0.11224226
122	0xbe1509e9	-0.14554562
123	0x3d6d367e	0.057913296
124	0xbe1f4f52	-0.15557602
125	0xbe847a68	-0.2587464
126	0xbb8c02f5	-0.0042728134
127	0x3d26aae9	0.040690336
128	0x3e8f9c72	0.28049046
129	0xbe30c3ba	-0.17262164
130	0xbdc94c50	-0.098290086
131	0xbcbd6abb	-0.023122182
132	0xbdb9a636	-0.09064905
133	0xbea130da	-0.31482583
134	0xbf148978	-0.5802226
135	0xbebe18e0	-0.37128353
136	0x3d8b5563	0.068033956
137	0x3e7d5e4a	0.24743
138	0x3d8787bf	0.066176884
139	0x3da200af	0.07910287
140	0x3e2469bb	0.16055958
141	0xbd9cc272	-0.07654275
142	0x3d6d6489	0.057957206
143	0x3e329c4e	0.17442438
144	0xbf4c483c	-0.7979772
145	0x3c974edc	0.01847022
146	0xbe8a27ec	-0.26983583
147	0x3ce7c683	0.0282929
148	0x3dcac011	0.09899915
149	0xbe57ca2f	-0.2107322
150	0x3d4f20d4	0.050568417
151	0x3d8a5010	0.06753552
152	0x3e0fae4e	0.14031336
153	0x3ce576d4	0.028010763
154	0xbda9a95c	-0.08284256
155	0x3dae17d6	0.0850064
156	0xbec50129	-0.38477448
157	0x3de8d3c9	0.1136852
158	0x3e751490	0.23933625
159	0x3d9ee3cc	0.077582926
160	0xbcfb77e0	-0.03069681
161	0xbd0bf3bc	-0.03416799
162	0xbee37e88	-0.44432473
163	0xbecd7443	-0.40127763
164	0xbe21357c	-0.15743059
165	0xbce685a1	-0.028139891
166	0xbe7435ec	-0.23848695
167	0xbf1a231e	-0.60209835
168	0x3d62bbdf	0.05535495
169	0xbe6029ad	-0.21890898
170	0xbf26d283	-0.65164965
171	0xbb8219b4	-0.003970349
172	0xbdc8ca13	-0.098041676
173	0x3d82907c	0.063752145
174	0x3d173b92	0.036922045
175	0x3d8e4034	0.069458395
176	0xbc86488d	-0.016392017
177	0xbe660b2e	-0.22465202
178	0xbe157ab9	-0.14597596
179	0x3e387170	0.18012023
180	0x3e1137b4	0.14181405
181	0xbd993690	-0.0748111
182	0x3d7d70ee	0.061875276
183	0xbdb6e5dc	-0.08930561
184	0x3d531ec0	0.051542997
185	0x3db5443c	0.08850905
186	0x3d4e88aa	0.0504233
187	0xbd8436b9	-0.0645575
188	0xbdfb9eb3	-0.12286129
189	0xbdac4540	-0.08411646
190	0xbd356713	-0.044287752
191	0x3de87e21	0.11352182
192	0xbe7512ee	-0.23933002
193	0x3ea8bce6	0.32956618
194	0x3c5629e7	0.013071514
195	0x3c878ebd	0.016547555
196	0x3d8634f8	0.06553072
197	0x3d7c397f	0.06157827
198	0xbc0367fa	-0.008020395
199	0xbe55e183	-0.20886807
200	0xbd121397	-0.035663214
201	0x3e63734f	0.22211955
202	0xbea5bbb9	-0.32369784
203	0x3e8ae487	0.27127478
204	0xbda28664	-0.07935789
205	0xbeb2b162	-0.34900957
206	0x3e119cbd	0.14219947
207	0xbc6a0bd2	-0.014285045
208	0x3d0f6335	0.03500672
209	0x3eb97aa6	0.36226386
210	0xbeeca781	-0.46221545
211	0xbe89e82b	-0.26934943
212	0xbe814ad1	-0.25252393
213	0xbe5c383a	-0.21505824
214	0xbf38057c	-0.7188337
215	0xbe8b64c5	-0.2722532
216	0xbde4b310	-0.11166966
217	0x3ea7a4c2	0.32742888
218	0xbe3ac9d9	-0.18241061
219	0xbe1b730c	-0.15180606
220	0xbf0ea539	-0.5572086
221	0xbf198a3e	-0.59976566
222	0x3e1a2904	0.15054709
223	0xbe673467	-0.22578584
224	0xbd62b710	-0.055350363
225	0x3d612cbe	0.05497431
226	0x3d3619ed	0.04445832
227	0x3deb3b07	0.11485868
228	0x3d7e80e2	0.06213463
229	0x3deb7c18	0.114982784
230	0xbe2123d5	-0.15736325
231	0x3d86a39b	0.06574174
232	0x3d816203	0.063175224
233	0xbd92fbfd	-0.07176969
234	0xbed83e16	-0.42234868
235	0x3d6d9d8b	0.058011573
236	0xbe9afad1	-0.30269483
237	0x3d68b63e	0.056814425
238	0xbdf1acce	-0.11800538
239	0xbe882be7	-0.26595995
240	0x3e564477	0.20924555
241	0x3f111d44	0.5668528
242	0x3d8a10b6	0.067414686
243	0x3db3342c	0.08750185
244	0x3d4beede	0.04978835
245	0x3d4a939f	0.04945719
246	0x3ea0d84d	0.31415024
247	0x3d6ad146	0.057328485
248	0x3d7ba940	0.061440706
249	0xbe98f98d	-0.29877892
250	0xbecb5ea5	-0.39720646
251	0xbe3c3336	-0.1837891
252	0xbe86b0a7	-0.2630665
253	0xbe4d2a66	-0.20035705
254	0xbcdf0af6	-0.027226906
255	0xbed3f526	-0.4139797

last.weight f4 [16, 400]
0	0x3d83ffeb	0.06445297
1	0xbd9ed6a9	-0.07755787
2	0xbd792b2b	-0.060832184
3	0x3c4f9914	0.012670774
4	0x3c6614db	0.014043058
5	0x3d4f0575	0.050542314
6	0xbd52e162	-0.051484473
7	0x3cba817f	0.022766827
8	0x3c3fc4db	0.011704649
9	0xbeb243d0	-0.34817362
10	0xbc29d9eb	-0.010366897
11	0x3f45e1ba	0.77297556
12	0x3da83b1f	0.082144015
13	0x3cb7c0b7	0.02243076
14	0x3cadf8c8	0.021236792
15	0xbe2ecf5c	-0.17071289
16	0xbdb52321	-0.08844591
17	0xbd0bf600	-0.03417015
18	0xbec0f5b3	-0.37687454
19	0xbd8f0585	-0.06983475
20	0xbd84446c	-0.06458363
21	0xbd3177e2	-0.04332722
22	0x3d385825	0.045005936
23	0xbacf11e4	-0.0015798179
24	0x3c877fb5	0.016540388
25	0x3e188cec	0.14897507
26	0x3d8c63cf	0.068549745
27	0x3e139104	0.14410788
28	0xbc9f46dd	-0.01944297
29	0xbdfa9f63	-0.12237432
30	0x3d83d392	0.06436838
31	0xbdb41225	-0.08792523
32	0x3d7e6d6f	0.062116083
33	0xbe4cec65	-0.20012052
34	0x3dc4531e	0.09586166
35	0xbc1c1540	-0.009526551
36	0x3e0c4dac	0.13701504
37	0xbe0bb354	-0.13642627
38	0xbd04c894	-0.03241785
39	0xbd486483	-0.04892398
40	0x3d6ec4a2	0.058292992
41	0x3defade7	0.11703091
42	0xbe752e2b	-0.23943393
43	0xbddf9e87	-0.109189086
44	0xbe0f7e90	-0.14013124
45	0xbec5b5b6	-0.38615197
46	0xbeb053a5	-0.34438816
47	0x3dec5f68	0.11541635
48	0xb95ad6fc	-0.00020870188
49	0xbd1ba342	-0.03799749
50	0xbbe86143	-0.0070916726
51	0xbe051ca7	-0.12999211
52	0xbe382edf	-0.1798663
53	0xbc9d16e7	-0.01917596
54	0xbd1d34ee	-0.038380556
55	0x3dddac78	0.108239114
56	0xbdaf7c00	-0.08568573
57	0xbdbdcdf7	-0.092678
58	0xbe87f1c8	-0.26551652
59	0x3df040a4	0.11731079
60	0xbdbff791	-0.093733914
61	0x3e51cc7e	0.20488164
62	0xbed85a31	-0.4225631
63	0x3c4bf10b	0.012447606
64	0xbd26f0f2	-0.040757127
65	0x3e160982	0.14652064
66	0x3e0db6fe	0.13839337
67	0xbc1871aa	-0.009304443
68	0x3d64978d	0.055808593
69	0x3acf2f52	0.0015806949
70	0x3e4e85e1	0.20168258
71	0x3cda80e1	0.026672782
72	0xbc83c513	-0.016085183
73	0xbd989a6e	-0.0745133
74	0xbe269600	-0.16268158
75	0xbe0552d9	-0.13019885
76	0xbb3ba700	-0.0028633475
77	0xbd6a2f84	-0.05717422
78	0x3e585401	0.21125795
79	0xbd724fff	-0.05915832
80	0xbecd8064	-0.40137017
81	0xbd3d8115	-0.04626568
82	0x3d8c5932	0.0685295
83	0x3e16d4cc	0.14729613
84	0x3c1dd43e	0.009633122
85	0xbe5e3c19	-0.21702613
86	0xbd10ed00	-0.03538227
87	0xbcc17e72	-0.023619864
88	0x3e04c72b	0.12966602
89	0x3d24c00b	0.04022221
90	0xbe4b44f9	-0.1985053
91	0xbe9c7c69	-0.30563667
92	0xbe3f4ef1	-0.18682458
93	0x3e1c0831	0.152375
94	0xbdadf437	-0.08493846
95	0xbbb7258c	-0.0055891927
96	0xbb847506	-0.0040422706
97	0x3d9da9d4	0.07698408
98	0xbdf5c42c	-0.120003074
99	0x3d9302e7	0.07178288
100	0x3b4c776d	0.0031199113
101	0x3d3deb6b	0.04636709
102	0xbc3dbc81	-0.011580587
103	0xbda85ea0	-0.08221173
104	0x3c0144ab	0.007889907
105	0x3dccb3ba	0.099952176
106	0x3c2c2ac7	0.010508246
107	0x3eadc67b	0.3394049
108	0x3e8d54a7	0.27603647
109	0xbd99101e	-0.07473777
110	0xbf02b344	-0.5105479
111	0x3bfc47e9	0.007699002
112	0xbac9ae98	-0.0015387116
113	0xbe3c8079	-0.18408383
114	0x3d6c3e11	0.05767638
115	0x3d25e37d	0.040500153
116	0x3e502b81	0.20329095
117	0xbd2a77d0	-0.04161817
118	0x3cd2eda8	0.025748089
119	0xbdb1297d	-0.086504914
120	0xbdeaf2a4	-0.11472061
121	0xbe340f9e	-0.17584082
122	0xbba8d330	-0.0051521286
123	0xbc0fd5d2	-0.008779006
124	0x3d9dbf90	0.07702553
125	0x3f0c6bb1	0.54851824
126	0xbe208eac	-0.15679425
127	0x3f1e7f8f	0.6191339
128	0xbe354beb	-0.17704742
129	0xbe8b65b0	-0.2722602
130	0x3bbf2ff1	0.0058345725
131	0xbe569b8e	-0.20957777
132	0x3e700896	0.23440775
133	0xbea25bb8	-0.317106
134	0xbdaa3d0a	-0.083124235
135	0x3d900ce9	0.070337124
136	0xbbfe2bfc	-0.007756708
137	0xbdb1952f	-0.08671033
138	0xbbd4d809	-0.00649548
139	0xbd074834	-0.033027843
140	0x3d654a1d	0.055978883
141	0x3e0b61f5	0.13611586
142	0xbbdfbe8b	-0.0068281344
143	0x3e023883	0.1271687
144	0xbe06a25e	-0.13147876
145	0x3d9f466d	0.077771045
146	0xbf43029b	-0.7617585
147	0xbe8ca2ed	-0.27468053
148	0xbde952cc	-0.113927454
149	0x3d2d5e11	0.042326037
150	0x3baeb1e5	0.0053312653
151	0x3b96627f	0.0045893784
152	0x3d27230a	0.0408049
153	0x3bbf0748	0.0058297254
154	0x3e77949d	0.24177785
155	0xbdb81190	-0.08987725
156	0x3eaad733	0.3336731
157	0xbdff73f5	-0.12473289
158	0x3e327060	0.1742568
159	0x3b20bcc2	0.002452657
160	0x3dad7462	0.08469464
161	0x3df40aa0	0.11916089
162	0x3e88ec8a	0.26742965
163	0x3daf0b13	0.08547034
164	0xbe19a855	-0.1500562
165	0xbc298627	-0.010346926
166	0x3da6fa33	0.081531905
167	0x3cee4e1f	0.029089985
168	0xbcc43a77	-0.02395366
169	0xbd296f3a	-0.04136584
170	0xbeb1ad7d	-0.34702674
171	0x3e0712c9	0.1319076
172	0x3dd75ee2	0.10516144
173	0x3b854e8a	0.0040682005
174	0xbdee2d90	-0.11629784
175	0x3c2381e2	0.009979697
176	0x3e749277	0.23883997
177	0xbe414103	-0.18872456
178	0xbe007291	-0.12543704
179	0xbd6ef5f0	-0.058340013
180	0x3df060d7	0.11737221
181	0xbdc66ebb	-0.09689089
182	0x3b26f400	0.0025475025
183	0xbd2455c4	-0.040120855
184	0x3c8a5849	0.0168878
185	0xbe353f27	-0.17699872
186	0x3cc84c25	0.024450371
187	0xbd09e69f	-0.033667203
188	0xbe2f520e	-0.17121145
189	0x3e123d73	0.14281254
190	0xbe0d4472	-0.13795641
191	0x3d389ba7	0.045070317
192	0x3e18e5ec	0.14931458
193	0x3cbfe79b	0.023425868
194	0xbdca75df	-0.098857634
195	0x3be12ba8	0.0068716593
196	0xbc4efe38	-0.012633853
197	0x3c287585	0.010281925
198	0xbf89d8cd	-1.0769287
199	0x3e5909e2	0.21195176
200	0x3d4d2cdf	0.05009162
201	0x3c2a0a46	0.010378426
202	0x3dd1b504	0.10239604
203	0xbdc5809d	-0.09643672
204	0xbe23eaf5	-0.16007598
205	0x3d2c429f	0.042055722
206	0x3e86605b	0.26245388
207	0x3e123df9	0.14281453
208	0xbece69bf	-0.40315053
209	0xbe823bb0	-0.25436163
210	0x3e277375	0.16352637
211	0x3e427753	0.18990831
212	0x3e135e67	0.1439148
213	0x3e42225c	0.1895842
214	0xbe56f21b	-0.20990793
215	0x3e70b08f	0.23504852
216	0xbd82e509	-0.06391341
217	0xbcfea8a6	-0.031086277
218	0x3da4da1d	0.08049414
219	0x3e01bc44	0.12669474
220	0xbf0c52a3	-0.54813594
221	0x3e023472	0.12715319
222	0x3d37f04d	0.044906903
223	0x3de661bc	0.1124911
224	0x3d830f17	0.063993625
225	0xbc65a950	-0.014017418
226	0xbc7ab9c6	-0.015303081
227	0x3cdf41d6	0.027253073
228	0x3ac0528d	0.001467304
229	0xbdcc0584	-0.099619895
230	0x3df4ebdf	0.11959051
231	0x3c36a8c2	0.011148633
232	0xbac1944e	-0.001476893
233	0x3de809ef	0.1133002
234	0x3dc35741	0.09538127
235	0xbc2c1f35	-0.010505487
236	0x3eca834e	0.39553303
237	0x3c824e17	0.015906377
238	0xbe9784ff	-0.29593655
239	0x3e37c96b	0.17947929
240	0x3e785b58	0.24253595
241	0x3e65d082	0.2244282
242	0xbbc6799d	-0.006056978
243	0xbe097b0d	-0.13425846
244	0x3a97c61a	0.0011579425
245	0x3c2b6c67	0.010462857
246	0xbe4ab23e	-0.19794556
247	0xbea828d7	-0.32843658
248	0xbc8514b2	-0.01624522
249	0x3e028a2d	0.12748022
250	0x3c887584	0.016657598
251	0x3e358401	0.17726137
252	0x3c35263b	0.011056478
253	0xbea08395	-0.3135039
254	0x3e05d80e	0.130707
255	0xbf1c3c34	-0.6102936

last.bias f4 [16]
0	0xbd82f3fc	-0.063941926
1	0x3e6e558a	0.23274818
2	0xbf6f33ab	-0.93438214
3	0x3f41891d	0.75599843
4	0xbee039d5	-0.43794122
5	0x3de6b5c9	0.112651415
6	0x3d4ea9a5	0.050454754
7	0xbd069bbd	-0.032863367
8	0x3f0126d7	0.5044989
9	0x3e19abfb	0.15007012
10	0xbdbf6467	-0.09345322
11	0xbe837b00	-0.2567978
12	0x3eb1977a	0.3468588
13	0xbe001f91	-0.12512042
14	0x3d3c03fb	0.045902234
15	0x3d1ddf1d	0.038542856
