log/MUJOCO_ANT_DIR_12_v4/Ant-v3/4/model/model_pf_task_finish.pth (torch, 27411 bytes, 4 tensors)

base.fc0.weight f4 [400, 12]
00000000: e341 98bb 5358 96bc 0a86 94bc d8f4 24bd
00000010: 21fe 03bd 9f6b 35bc b4f4 3cbd 4eb5 64bd
00000020: fda1 92bd 8c7e 17bd 50b7 eabc d69f 2dbd
00000030: 71da b1bc 01a8 76bd 03d1 0b3c 0199 80bd
00000040: 2540 83bd c78a b8bc d05e f0bc ff86 e0bc
00000050: ff48 c3bc 3ea0 eabc dcf8 adbc f21c 00bd
00000060: b8b0 803c b651 9dbb 81d0 99bd 7520 a1bd
00000070: 6bbd a4bd 7434 9dbd ddac 95bd fb6f ebbc
00000080: d6da 713c 17a9 9fbd e22a 80bd 174f 923c
00000090: ac82 52bc 7edd 22bc 78cf 67bd 81ba 18bd
000000a0: 1597 07bd a235 14bd 3f95 303b c895 31bd
000000b0: 8e34 49bd 21cd 06bd 0660 1dbd c3b5 d63c
000000c0: 2c4f 97be 6a0f 1a3f e9b8 5abe f337 df3e
000000d0: d1f4 8cbe 8258 47be bca5 94be 5e7f 94be
000000e0: ef64 95be ead9 cc3e 4094 243e 3e88 8bbe
000000f0: 99d3 1dbd 975d 0fbc 7ee0 fdbc 78dd ccbc
00000100: 19fe 6bbd e29a 41bc 0886 13bc d5cd c0bb
00000110: 3353 54bd 6508 87bd 1adc 7dbd edc0 48bd
00000120: 46c6 bebc e791 27bd 4d49 22bd 5a47 a93a
00000130: c9df 2cbd d5e7 29bd 2304 97bd d965 18bd
00000140: 825f ae3a 278a 81bd 128c cb3c 5cb2 23bd
00000150: 76a3 19bd fdd3 86bc f6ca 6dbd f6d6 96bd
00000160: bb56 38bd ded6 9c3c 3803 57bd bb6b 46bd
00000170: d919 46bd 3ec2 45bd c44d 81bd 005c afbc
00000180: e9b4 46bd 6e93 e6bc 151e df3c 9537 bbbc
00000190: 53a4 6fbd 11c2 83bc d8ab 90bd a8a0 e6ba
000001a0: f37a 30bd 5455 26bd 0863 26bd 6827 15bd
000001b0: dac7 3abd e1b2 f73b 8e5f 41bd 7500 3abc
000001c0: 80f8 1dbd d601 13bd 2f60 70bd f729 7cbd
000001d0: 1840 98bd 8e2d 21bd a857 7cbd 35fe 99bd
000001e0: 93f5 73bd adc4 cebc 3831 08bd df69 70bc
000001f0: 7f4d dbbc 6cef d93b c676 2dbd ee00 ffbc
00000200: b573 5abd 3008 783b 0529 d23b a77e cfbc
00000210: 14e5 09bd f9f7 86bd 9a5f 623c 15c2 c0bc
00000220: 8efb 4cbd 1547 cfbc db6b 97bd cb76 09bd
00000230: 09c0 b8bc 9d13 d9bc e3fd e6bc d8e5 f2bc
00000240: 038b 5bbd 6838 1ebd 8d93 cfbc e092 81bd
00000250: 2b78 29bd 8c75 01bc b8c5 babc a9e9 9e3c
00000260: fde3 dabc c33d 72bd 1e5b fbbb 7717 8dbd
00000270: b5d4 3f3b df97 32bd 4b73 973c 3f4b 74bd
00000280: 8e49 6bbd f981 18bd 80c4 83bd 6458 6fbd
00000290: ce31 f83b bf8c 7dbd d20e 38bd 5bac c53c
000002a0: fe2b 1dbd 4759 48bd 6dec ab3c c461 1dbd
000002b0: dff5 9abd 16a0 bcba e899 3dbd 4473 c1bc
000002c0: 9bbc 15bd b7e1 d9bb 9aa4 8abd 4800 28bd
000002d0: 6523 86bd 4027 b0bc 6503 35bd fa76 81bd
000002e0: 6690 16bd 7bc9 51bd 2910 bdbc bb50 3bbc
000002f0: 3bff 90bc c314 f4bc 1d94 27bd 0f55 0bbd
00000300: cb06 283e 4a81 9ebe f754 0d3f 931e aabe
00000310: ea23 343f c33f 0e3f 307e a5be bd2d a3be
00000320: 7eee a8be f12d aabe 57d8 65be 8aab 27be
00000330: 63ce ecbc 5ef9 5fbd 3f56 50bc ab65 9d3c
00000340: 50b2 74bd 16d0 62bd 4bc4 98bd f0fd d6bc
00000350: 3e83 e3bc 13c0 fabb d207 91bd 883c f8bc
00000360: a944 7ebd 2e9e 7dbd fd58 053c 6459 46bd
00000370: 52c9 80bd ea7e f63c b1aa 8abd 1dcf 80bd
00000380: 41f1 81bd 0764 8fbc 015b 70bd 35b3 08bd
00000390: 4ada 21bd 03d9 aabc 35bd 87bd 9988 5fbd
000003a0: bc12 37bd 7712 44bd ef77 c63c 316b 57bd
000003b0: 6ce7 37bc c097 1fbd cb20 dabb b564 d73c
000003c0: 99d8 a93c 2de6 22bd 0811 33bd 254d 7dbd
000003d0: 3d94 33bd d7ec 21bd 8a4a 78bd 926d 85bd
000003e0: 7f07 05bc 5564 bebc 646b 41bd 2c02 ccbc
000003f0: 6ffe acbd 385d 8abd 70c6 b33c 87e0 16be
-0.004646526 -0.018352663 -0.018130321 -0.040272564 -0.032224778 -0.011073022 -0.046131805 -0.055836968
-0.07159803 -0.03698592 -0.028651863 -0.04238876 -0.021710606 -0.060218815 0.008533719 -0.06279183
-0.06408719 -0.022527112 -0.029342085 -0.027408121 -0.023838518 -0.028640863 -0.02123683 -0.031277604
0.015709266 -0.0048010005 -0.07510472 -0.07867519 -0.08043941 -0.0767602 -0.07308362 -0.02873992
0.014761647 -0.07795923 -0.06258179 0.017859979 -0.012848537 -0.009940503 -0.056594342 -0.03728724
-0.033103067 -0.03618396 0.0026944426 -0.043355733 -0.049122386 -0.03291047 -0.038421653 0.026209718
-0.2955259 0.6017977 -0.213596 0.43597373 -0.2753053 -0.19467357 -0.29032695 -0.29003423
-0.2917857 0.40010005 0.16072178 -0.27252382 -0.038531873 -0.008750341 -0.030990835 -0.025007948
-0.057615373 -0.011816712 -0.0090041235 -0.005883912 -0.051837157 -0.06593398 -0.061977483 -0.049012113
-0.023287904 -0.040910628 -0.039620686 0.0012914941 -0.042205606 -0.041480858 -0.07373836 -0.037206504
0.001330361 -0.063251786 0.024847064 -0.03996502 -0.037509404 -0.016458506 -0.058054887 -0.07365219
-0.045004588 0.019145425 -0.052493304 -0.048442584 -0.048364494 -0.048280947 -0.06313661 -0.021406174
-0.048512373 -0.028146472 0.027236024 -0.022853652 -0.05850632 -0.016083749 -0.070640266 -0.0017595487
-0.043086004 -0.04060872 -0.040621787 -0.036414534 -0.04560075 0.007559166 -0.04721027 -0.011352648
-0.038567066 -0.035890423 -0.058685478 -0.06156346 -0.074341 -0.039350085 -0.061607033 -0.07519189
-0.05956037 -0.025240267 -0.033250064 -0.014673679 -0.026770351 0.0066508558 -0.0423496 -0.031128373
-0.053333003 0.0037846677 0.0064135813 -0.025328947 -0.03366573 -0.06590266 0.0138167385 -0.023530046
-0.05004459 -0.02530245 -0.07393619 -0.033560555 -0.022552507 -0.02649861 -0.028197234 -0.029650614
-0.05359937 -0.038628012 -0.025338912 -0.06326842 -0.041374367 -0.0079015605 -0.022799358 0.019398527
-0.026720041 -0.05914093 -0.007670774 -0.06889241 0.002927107 -0.043601867 0.018487593 -0.059642073
-0.057443194 -0.037233327 -0.06433964 -0.058433905 0.0075742966 -0.061901804 -0.04493601 0.024130037
-0.038372032 -0.048913267 0.02098676 -0.038423315 -0.075664274 -0.0014390971 -0.046289355 -0.023614533
-0.03655682 -0.0066492218 -0.067696765 -0.041015893 -0.0654972 -0.02150309 -0.04419269 -0.06321521
-0.036758803 -0.051217537 -0.023078995 -0.011432822 -0.017699828 -0.029795056 -0.040912736 -0.034016665
0.16408841 -0.30958015 0.5520777 -0.3322645 0.703673 0.5556604 -0.32322836 -0.31870833
-0.32994455 -0.33238176 -0.22445808 -0.1637403 -0.028907007 -0.054681174 -0.012715875 0.019213518
-0.059740365 -0.055374227 -0.07459315 -0.026244134 -0.027772542 -0.0076522916 -0.0708157 -0.030302301
-0.0620772 -0.06191843 0.008138892 -0.048425093 -0.06288399 0.030089814 -0.06770838 -0.06289504
-0.06344844 -0.017503751 -0.058680538 -0.03337403 -0.039514817 -0.020855432 -0.06627885 -0.05457363
-0.0446956 -0.047869172 0.02422711 -0.05259246 -0.011224609 -0.03896308 -0.0066567413 0.026293138
0.020733165 -0.039770294 -0.043717414 -0.06184115 -0.043842543 -0.03953251 -0.06061796 -0.065150395
-0.008119463 -0.023241201 -0.047221556 -0.02490338 -0.08446967 -0.06756061 0.021945208 -0.14734088

base.fc0.bias f4 [400]
00000000: 8ea7 7a3b 910b 2bbc 251f b1bc 642b f4bc
00000010: 5e9f 823d 263a 9639 a4b0 f8bc 1f59 9dbc
00000020: 3f37 efbc 168d 06bc 4501 f7bb 68a5 69bc
00000030: c438 a3bc dc22 dfbc e0a2 bbbc 9135 033c
00000040: f9a7 33bd d92c a3bc 7740 fdbc 7a85 d9bc
00000050: 40ba c0bc b4c0 c3bc 5f0b eebc e71e 55bd
00000060: 4e99 6abc 02af 643e ffc3 12bd fc98 d0bc
00000070: 0c4c 3cbd ccd7 b3ba 13e8 b7bb a167 653c
00000080: d1ae 80bc 2282 cbbb 599a 803e 6630 a53d
00000090: c686 09bd 71c3 97bc c19d f0bc 9f5e a63b
000000a0: b8fc 8bbd bc84 b2bc 6a3f c1bd d9fa adbd
000000b0: a1ec 32ba 6431 66bd dae1 2abc 3703 1abd
000000c0: 6f4b 443c 465e b4bc a524 c2bc 5e12 83bc
000000d0: 900c 9b3e 524e 2ebd 1232 4fbc e240 22bd
000000e0: 36f4 a9bc ed44 3dbc 8e1a 30bd 69f5 d1bb
000000f0: ff19 a9bc 2bda 6cbc 57d2 66bd c300 0abd
00000100: 0c73 92bc e241 ebbc c4dc fabc f2b5 f6bc
00000110: ce94 c4bc e687 9cbc 4059 ccbc 391f 05bd
00000120: 1747 71bc 3c6b a9bc 2014 8e3b 89d8 36bc
00000130: 34b2 33be 4f90 eebc 10e3 0ebc 19e8 cebc
00000140: 15d3 61be fbd0 51bc 0cfc a3bc 8d97 9bbc
00000150: 893d 7bbc d253 8cbc a43f bebc 8fa9 82bc
00000160: 1cd5 9abc bbff a4bc af5f bcbc a142 68bb
00000170: ab71 20bc 0177 e2bc c35a b0bc 4b67 abbb
00000180: 1a32 2bbd 1e50 91bc eefe f9bc 2345 debb
00000190: e207 a0bd c929 9dbc a837 513a 99f0 34bd
000001a0: ece4 56bc 1d32 ecbd 2d85 96bc 583d 3cbd
000001b0: 4e0b 793b d5fa cdbc f1dd f6bb 101f 18bd
000001c0: f9eb 06bd 6b78 bebc 9f6c 1dbd 1bd3 07bd
000001d0: 55ea c2bc e7f3 83bc 11cf 78bc d3b8 4dbc
000001e0: ba66 25bd 78e1 a1bd 3933 b0bc 6925 7c3c
000001f0: 65a6 05bc bd91 b9bd cde1 2bbc d2f5 ed39
00000200: 7ab7 dbbc 49ec 5bbd f3ec c7bc 1b52 7dbc
00000210: c407 0ebd c884 063e 1e57 53bd b5ac 6d3c
00000220: 7515 553e 089a f7bc 1b72 08bd a4b2 b2bb
00000230: 3c71 6cbc 9909 c4bb fb80 4cbc 7a38 da3c
00000240: a466 2cbb da37 f9bc 6db3 953a a848 3c3c
00000250: 2867 4ebd e713 63bb 6122 86bc 33d9 263d
00000260: e430 403e 8c6d b4bc 5ffa 59bd 76a3 25bd
00000270: 04f8 243c 82cf a0bb 0078 ecbc 5ed1 dcbb
00000280: 59e5 d73a 90cc f7bc f90b afbc 111b 95bc
00000290: 9120 26bd 70e4 733c 5f5c 083b 4917 18bd
000002a0: 65fb 44bd 7723 b0bc f398 2cbd 0880 01bd
000002b0: 9590 f3bc 5fc1 d9bc 99c9 1ebc 8787 2b3c
000002c0: 21bd 91bc cf99 d4bc c422 f5bc d87d 1ebc
000002d0: 1f26 7fbc 1268 cbbc 8c7c 15bd 38dd 6fbc
000002e0: cd79 b1bc 245e 69bd 72af 64bd 1687 a1bc
000002f0: f6d2 c1bc 726d c93b 60bb 4abd 0681 28bc
00000300: 4d78 dfbb 09f5 4cbd 8497 093b c4ee 3fbd
00000310: 89b7 21bd 434f 24bd 052b 833d bb9a d4bc
00000320: 0821 4ebc 635a 27bd 5f3a 3eba e817 8a3e
00000330: 429b 82bc 0f57 55bd b6c6 5fbd 7eb8 783e
00000340: 555f d3bc cdc2 24bd 7982 5abd f0f4 1ebd
00000350: 572a 4fbc 0e9a 26bd caf2 8bbc e86d e0bc
00000360: db76 24bd 5d22 d4bc 71c3 8abd 810f 2dbc
00000370: ee21 36bd 6fe1 3dbc 31c6 03bd a633 e3bc
00000380: 9e34 9abc d5ca a3bd 43ce 81bc b696 0dbd
00000390: 746b 633c 8965 65bc 5cf3 253c 80b2 dabc
000003a0: 95bc 56bc 9ff1 c8bb 9f90 35bc 1fb2 05bc
000003b0: fd88 0cbd 5827 c33d a476 a2bc ad64 39bc
000003c0: 88e3 19bd ead7 84bc 1194 0d3c 7f66 ecbc
000003d0: c9cc ecbc 2726 dabc 8d7f d5bc 2a82 0abd
000003e0: 74b1 93bd e5fa 21bc 55b0 31bc bf6c cbbc
000003f0: ed67 04bb de26 20bd 9c4d e2bc 459b a2bc
0.0038246843 -0.010439769 -0.021621296 -0.029805847 0.06378053 0.00028653553 -0.030357666 -0.019207535
-0.029201148 -0.008212348 -0.007537993 -0.014260627 -0.019924529 -0.027238302 -0.022904813 0.008008377
-0.043861363 -0.019918846 -0.030914528 -0.026552904 -0.02352631 -0.023895599 -0.029058157 -0.052031424
-0.014318777 0.22332385 -0.035831448 -0.025463574 -0.04597096 -0.0013720929 -0.005612382 0.014001758
-0.015708359 -0.0062105814 0.25117758 0.08065872 -0.033575796 -0.01852581 -0.029372098 0.0050771977
-0.06835312 -0.021791808 -0.094359234 -0.08495111 -0.00068254216 -0.056199446 -0.010429824 -0.037600722
0.011980875 -0.02201761 -0.023699114 -0.01599997 0.30283022 -0.04255516 -0.012646215 -0.03961266
-0.020746332 -0.011552078 -0.042994075 -0.006407429 -0.020642279 -0.014456312 -0.05635294 -0.033692133
-0.017877124 -0.028717939 -0.030622847 -0.030116055 -0.023996737 -0.01910777 -0.024944901 -0.03250048
-0.014726422 -0.020681016 0.004335895 -0.011160024 -0.17548448 -0.029121546 -0.008721128 -0.025257157
-0.22053178 -0.0128061725 -0.020017646 -0.018993163 -0.015334495 -0.017129812 -0.023223706 -0.015949992
-0.018900447 -0.020141473 -0.022994844 -0.0035440105 -0.009792726 -0.027644636 -0.021527654 -0.0052308193
-0.041795827 -0.017738398 -0.030517068 -0.006783144 -0.078140035 -0.019184964 0.0007981011 -0.044174764
-0.013116103 -0.11532996 -0.01837405 -0.04595694 0.0038001123 -0.02514402 -0.0075337817 -0.037139
-0.032939885 -0.02325078 -0.038433667 -0.03316031 -0.023793379 -0.016107513 -0.015186087 -0.012556273
-0.04038117 -0.07904333 -0.0215088 0.015389779 -0.008157347 -0.090610005 -0.010490847 0.00045387313
-0.026820887 -0.053692136 -0.024404978 -0.01546147 -0.034675375 0.1313659 -0.051596753 0.014506509
0.20808966 -0.030224815 -0.033311944 -0.0054534245 -0.014431294 -0.0059825894 -0.012481923 0.026638258
-0.0026306296 -0.03042214 0.0011421271 0.011491932 -0.050391346 -0.0034649314 -0.016373815 0.04073448
0.1876865 -0.022024892 -0.053217288 -0.04043909 0.010068897 -0.0049075494 -0.028865814 -0.0067388257
0.0016471549 -0.03024891 -0.021368014 -0.018201383 -0.0405584 0.014886007 0.002080701 -0.03713158
-0.04809131 -0.021501286 -0.04213805 -0.03161624 -0.029732028 -0.026581464 -0.009691619 0.010469324
-0.017790379 -0.025952248 -0.029923804 -0.009673558 -0.015573054 -0.024829898 -0.03649573 -0.014640145
-0.021664524 -0.056974545 -0.05583138 -0.019717734 -0.023660164 0.00614708 -0.0494951 -0.010284668
-0.006819761 -0.05003837 0.0020994851 -0.046858564 -0.039481673 -0.040114652 0.0640469 -0.025952687
-0.012581117 -0.040857684 -0.0007256623 0.26971364 -0.015943173 -0.05208498 -0.054632865 0.24289128
-0.025802294 -0.04022484 -0.053347085 -0.03880781 -0.012644372 -0.04067426 -0.017083544 -0.027396157
-0.040152412 -0.025895292 -0.06775559 -0.010562778 -0.04446595 -0.011589392 -0.032171432 -0.027734589
-0.018823918 -0.079976715 -0.015845424 -0.034567557 0.013880599 -0.014001259 0.010128822 -0.026696444
-0.013106485 -0.006132319 -0.011081844 -0.008160143 -0.03431033 0.095289886 -0.019831963 -0.011315507
-0.037570506 -0.016216237 0.008641259 -0.028857468 -0.028906243 -0.02662952 -0.026061798 -0.03381554
-0.07211581 -0.009886478 -0.0108452635 -0.024832128 -0.0020203546 -0.039099567 -0.027624898 -0.019849429

last.weight f4 [3, 400]
00000000: 9329 77bb dfee f43b b1f1 3f3b 94de 8cbb
00000010: 03ac 073e fdeb 0d3b 06e2 ab3b 7597 e3bb
00000020: e23b e03c 9f0d 043c 4feb bdbb fd70 bc3c
00000030: e51b 623b cdec db3b d9f0 3b3c be9c c13a
00000040: 5a8c c13d b5ee 8d38 ca6c 3c3c d3bd 523b
00000050: cac4 1d3c bd15 26bd 2ea6 793c 564b 8ebc
00000060: 69f2 6e3c 9aa1 3bbd b759 343c f091 13bc
00000070: 5a52 e73c 8dc4 263b c9d1 c0bb 8989 f33c
00000080: cbd4 423c 96b6 823c 1db8 07be 8885 083e
00000090: 2add 2a3c 5dbc fabb 938e 47bb cdff 993a
000000a0: 7fd6 2ebd e391 b83b b140 1ebd 05ca 7e3d
000000b0: bc92 213b b52d afbc 2920 933c 76af 89b9
000000c0: 9f45 7d3e bc6c 873c 6ab2 cdbc e702 f43b
000000d0: 1251 123f 47c0 88bc e1bd dc3a 3101 a3bb
000000e0: 4c61 31bb 70a4 fbbb 1b4a 9dbc 3d29 f63b
000000f0: d8fa 87bb 2a70 493b cee5 03bd 68ac 83bb
00000100: 8f83 e9bb c56e a93b 6a47 0d3c 91dd 973b
00000110: 7e28 eebb 7012 d1bc 7f19 60bc ad62 a8bc
00000120: 4b47 c2bb d4ab ed3b 5d3f cbba c8c2 3f3c
00000130: 9e89 57be 26ee d33c 87f4 84bc dc0b 353b
00000140: a641 34bd df5e b43c 1135 273b 484d d63b
00000150: eb16 533b 687e adbb 82c9 be3b 501e bc3a
00000160: 9ce7 c53b c1b6 42bc 0b0a 5f3d 81ca 6aba
00000170: e67e d23c a249 383c 48d4 9f3c 382f b73a
00000180: 931b 82bc fbdc 813b 7179 063d f509 31bb
00000190: e84f 37bd 5c1a 02bc 2b8b 6fbb 0cd0 7a3c
000001a0: 6965 413c 2892 a7bd 4629 943c 5935 de3c
000001b0: af7b 6139 b780 a4bc 5c44 5c3c 9ab5 c7ba
000001c0: 7b35 023b 5ffc a6bb 9e2b 123c 1216 333b
000001d0: 49dd fdbc 59e0 86bc 3ee6 143b bf59 413c
000001e0: 151f e73b 8d6f 5f3d f57a 063d d274 00bf
000001f0: ce58 e9bb 4039 c8bd e9d8 3a3c ebbe da3a
00000200: 8b1b b73a 78c9 87bc f8dc 4d3c 0ee6 48bc
00000210: c739 4e3c 3bcd 2fbe d686 a93c 470b 5c3c
00000220: 6150 cd3d fb60 703b 03d6 4d3c c480 133b
00000230: a9b8 863b 6d7e 2a3b 48a7 a8bb 84be 943e
00000240: 883f ae3a 225a 9fbc 73ef c53a d7e4 383b
00000250: 48f2 ce3b 39db 1abc e227 f6b9 ba6f 483d
00000260: 9820 8ebe 9e91 663c 7903 75bd f3e5 09bc
00000270: dc0f 88ba fb9a 673c 7524 49bc 1602 2cbe
00000280: 23b6 7dbb 59ac a9bd 946d 153c 71f2 b13c
00000290: 5e51 8ebc b8a6 863c c333 7e3b 491a d7ba
000002a0: 3eb7 ed3c 43ca 893c b993 fb3a f006 813d
000002b0: 4e7b b13a 86ef 233e 8cf0 4abb a7a3 eeba
000002c0: 7272 6c3b d6e0 273b 381e dfbc d12c 513c
000002d0: 0c41 91bc 6332 fdbc b471 b43a ab66 483b
000002e0: 9deb 87bb 9c23 1e3d 8136 df3c 345e d53b
000002f0: aa02 33bc bdb4 453c 9639 fb3c a396 353b
00000300: e5c8 9f39 d29e 1cbd f89b e0ba 4173 dabc
00000310: 27bc 61bc 572c 2f3c 310c 8abe 1583 60ba
00000320: ffc7 4b3c 7058 6cbe 044f 2339 3a40 7ebe
00000330: d925 a63b f05e 03bc 2c24 8a3b 4c10 cd3e
00000340: 1857 8abb 3690 0e3c b4bd bfbc af4e b3bc
00000350: 488b 193c 2ba7 0cbc 2e77 f3bb 6c25 eebb
00000360: a0e2 093c 2d82 ec3c 7106 e2bc c9fd fb3b
00000370: 870f bebb 9470 53bb 5047 99bb ce54 223c
00000380: 70d4 9b3b b2a9 003e 1e68 1e3c 98e1 393d
00000390: 410f af3a dc9d 9d3c 8bd6 c63c 62ae eabb
000003a0: 229d f9bc e9e8 af3c b8c8 4abb 259e 4ebb
000003b0: 3cbc 7b3c 249e 793e 3fa5 2e3a e2b4 bd3c
000003c0: 4e85 65be 6f51 1b3d ecc6 7339 966f b5bc
000003d0: eede b8bb cd40 5e3b 16df 903b 4b81 65ba
000003e0: 6701 0abd ca4e f0ba 9520 0b3b 637f 373c
000003f0: 0189 c4ba dc22 5c3d 800f 9a3c e448 81bb
-0.003771399 0.0074747647 0.0029288346 -0.0042989943 0.13249211 0.0021655553 0.00524545 -0.0069455453
0.027372304 0.008059888 -0.0057958732 0.023003096 0.003450149 0.0067115785 0.011470997 0.0014771444
0.09450598 6.7678666e-05 0.011500547 0.00321566 0.009629438 -0.040548075 0.015237374 -0.017369907
0.014584162 -0.045808412 0.011007718 -0.009006962 0.02823751 0.0025446743 -0.0058843833 0.029728668
0.011891554 0.015956204 -0.13253827 0.13332188 0.010428706 -0.007651849 -0.003044997 0.0011749208
-0.04268503 0.0056326254 -0.038635913 0.06220438 0.002465411 -0.0213841 0.017959671 -0.00026261405
0.2473359 0.01653134 -0.025109489 0.007446635 0.57154953 -0.016693247 0.0016841256 -0.0049745073
-0.002706605 -0.0076795146 -0.019200375 0.00751224 -0.004149776 0.003073702 -0.03220158 -0.004018355
-0.0071262787 0.0051706755 0.0086229835 0.004634567 -0.0072680106 -0.025521487 -0.013677954 -0.020554865
-0.005928909 0.0072531495 -0.0015506555 0.011704154 -0.2104859 0.025870394 -0.016229881 0.0027625477
-0.04400792 0.022017894 0.0025513808 0.0065399744 0.0032209705 -0.00529461 0.0058223614 0.0014352296
0.006039573 -0.011884392 0.054452937 -0.0008956567 0.025695276 0.011248024 0.019510403 0.0013975864
-0.015882289 0.0039631105 0.03283066 -0.0027013991 -0.04475394 -0.007940855 -0.0036551456 0.015308391
0.011803963 -0.08182174 0.018086087 0.027125048 0.00021503748 -0.020080907 0.0134440325 -0.0015236617
0.0019868303 -0.005096003 0.008921532 0.0027326387 -0.030989306 -0.0164644 0.0022720243 0.011801182
0.007053266 0.054549742 0.032832105 -0.50178254 -0.007121182 -0.097765446 0.0114042545 0.0016688978
0.001397 -0.01657556 0.01256489 -0.012261881 0.012587017 -0.17168133 0.020694178 0.013430423
0.10025097 0.0036678899 0.012563231 0.002250717 0.0041113687 0.0026015297 -0.0051468946 0.29051602
0.001329408 -0.019452158 0.0015101269 0.002821257 0.0063155033 -0.009451681 -0.0004695049 0.048934676
-0.27759242 0.014072804 -0.059817765 -0.008416641 -0.0010380703 0.014136071 -0.012276758 -0.1679767
-0.0038713298 -0.08284826 0.009120364 0.02172205 -0.017372783 0.01643692 0.0038788177 -0.0016411032
0.02901804 0.016820079 0.0019193805 0.06300151 0.0013540776 0.1600934 -0.003096613 -0.0018206731
0.0036078957 0.002561619 -0.02723609 0.012767033 -0.017731212 -0.030907815 0.0013766796 0.0030578773
-0.0041479603 0.03860818 0.02724767 0.006511474 -0.010925928 0.012067017 0.030667108 0.0027708195
0.0003047652 -0.0382374 -0.0017136326 -0.026666285 -0.013777769 0.010691724 -0.26962426 -0.00085644546
0.0124378195 -0.23080611 0.00015574327 -0.24829188 0.0050704298 -0.00801824 0.004215738 0.40051496
-0.004221808 0.008701375 -0.023405887 -0.021888105 0.009371586 -0.008584778 -0.007429979 -0.0072676446
0.008415848 0.028870666 -0.027590962 0.0076901657 -0.005800191 -0.0032263147 -0.0046776906 0.009907914
0.004755549 0.12564734 0.009668378 0.04538116 0.0013355986 0.019240312 0.024272224 -0.0071619013
-0.030470435 0.021473365 -0.0030942392 -0.0031527367 0.015364703 0.24376732 0.0006662197 0.02315754
-0.22414133 0.037919458 0.0002324839 -0.022147935 -0.0056418097 0.0033913136 0.004421125 -0.0008754923
-0.033692744 -0.0018334028 0.0021229137 0.011199805 -0.0014994444 0.053744182 0.01880622 -0.003945457

last.bias f4 [3]
00000000: 8943 18bd 23f6 583e 894e 35be
-0.03717378 0.21187644 -0.1770574
