log/MUJOCO_ANT_DIR_12_withnorm_v4/Ant-v3/1/model/model_pf_task_best.pth (torch, 27411 bytes, 4 tensors)

base.fc0.weight f4 [400, 12]
000000 0d 0f e5 bd e5 27 88 3e a0 ea 34 be 33 7a 97 be
       -0.11184511 0.26592937 -0.17667627 -0.29585418
000010 97 05 52 3d ee 57 9a be 15 e3 85 be 9a c7 72 be
       0.051274862 -0.3014521 -0.26149812 -0.23708954
000020 ca 07 29 3f fc 4b 97 be 5f aa 80 40 41 5c cb 3b
       0.6602751 -0.2955016 4.0207973 0.006206066
000030 d3 d5 87 be 09 e1 4e bd bb f6 5a be 1b 90 86 be
       -0.26530322 -0.05050758 -0.21383183 -0.2628182
000040 8e 27 d5 3e b6 b0 cf 3d 46 64 03 be ff 11 83 3e
       0.4163174 0.10141127 -0.1283122 0.25599667
000050 af 75 86 3f 7a 50 85 be 53 56 1d 3d 42 21 1f be
       1.0504664 -0.2603796 0.038412403 -0.1554003
000060 98 8b 9a bd 14 dc a4 bd d2 5a 96 3d 71 7b ac bd
       -0.07546157 -0.08049789 0.07341541 -0.08421982
000070 57 9d be 3d 94 b7 2b bd 54 87 a3 bd a4 59 62 bd
       0.09307354 -0.04192312 -0.07984796 -0.05526127
000080 6b c7 7c bc 87 0f a0 bd 6a 1e 9e bd 31 f7 9c 3b
       -0.015428404 -0.078154616 -0.07720645 0.0047902097
000090 90 90 89 bc ae 13 b3 bd 82 2b 08 bd 60 2d 79 3e
       -0.016792566 -0.08743988 -0.033244617 0.24333715
0000a0 2c c1 6b be b6 92 23 3e 3e 95 00 3e a6 45 57 3d
       -0.23022908 0.15973935 0.12556931 0.052556656
0000b0 b3 0f 70 be ee 9d 2a 40 e8 c6 6d be e4 63 68 be
       -0.23443489 2.6658893 -0.23220408 -0.22694355
0000c0 b3 69 33 be ff 94 39 be 57 cf 9b 3d de d1 ea bd
       -0.1752079 -0.18123244 0.07607906 -0.1146581
0000d0 f3 98 50 3f c7 75 15 bb 3e 0a 3a be 7a 1a a9 3d
       0.8148338 -0.0022805796 -0.1816797 0.08257003
0000e0 f0 85 0f 3f 12 ab 41 be 82 34 3c be d8 0e 40 be
       0.5606375 -0.18912914 -0.18379405 -0.18755662
0000f0 bf 96 63 bd 87 4a 6e bd 2c 8f bd ba 6d a2 25 bd
       -0.055563685 -0.058176544 -0.0014462224 -0.040438104
000100 ee da 53 bd 21 fc 7b bb 2d 2b 93 bd 2a 9a bd bc
       -0.05172246 -0.003844984 -0.071859695 -0.0231448
000110 03 39 09 3c 85 82 59 bd 44 67 54 bd 29 23 64 bd
       0.008375409 -0.05310299 -0.051856294 -0.055697594
000120 02 21 62 be 4d dd 56 3e 97 11 01 be f1 2e 5e be
       -0.22082904 0.20982857 -0.12604366 -0.21697594
000130 ad 30 d3 bc d3 d1 5d be 4c f0 5e be 48 cc 4c bb
       -0.025780046 -0.21662073 -0.21771353 -0.003124969
000140 41 bd 00 3f 5e d2 5f be c5 a7 c0 3e 21 0d cf bd
       0.5028878 -0.21857592 0.37627998 -0.10109926
000150 e6 f9 02 be 1f f8 d0 3d 81 8d 03 be f8 64 03 be
       -0.12790641 0.10203575 -0.12846948 -0.12831485
000160 1c 91 d0 3d ba 71 05 be 90 ef 02 be 71 6f 04 3d
       0.101839274 -0.13031664 -0.12786698 0.03233284
000170 12 b3 cb 3e 3d 55 05 be 1c f6 87 3e 8a f6 c5 bd
       0.39785057 -0.13020797 0.26554954 -0.09666164
000180 ec 7e 68 be 3a 79 60 be 1f 12 69 3f d5 10 fc 3e
       -0.22704667 -0.21921244 0.91043276 0.49231592
000190 d5 5a d4 3e b4 8d 1f 3e db b8 40 bc 81 92 38 bd
       0.4147555 0.15581399 -0.011762823 -0.045061592
0001a0 f4 a5 65 be 94 71 62 be 87 f2 67 be 1b d5 65 be
       -0.22426587 -0.22113639 -0.2265111 -0.22444575
0001b0 dd 85 b5 be 55 52 b6 be 80 51 ac 3e 15 5b 6b 3d
       -0.35453692 -0.3560969 0.3365593 0.05745991
0001c0 af aa 7c 3e 55 94 8d 40 3a 4d 37 3f 22 3a 11 3f
       0.24674486 4.424357 0.71602213 0.5672933
0001d0 0e 94 b6 be 8a 73 f8 3d f3 89 b9 be 9b 62 b8 be
       -0.35659832 0.12131412 -0.3623806 -0.3601273
0001e0 1e 8c 68 be d4 38 66 be 74 fd 73 3f 1f 09 38 40
       -0.227097 -0.22482616 0.95308614 2.8755567
0001f0 ed e2 5f bd 65 17 96 bd 35 41 2b be 7f e0 4f be
       -0.054659773 -0.07328681 -0.16724093 -0.20300482
000200 28 9b 46 be 2f c4 92 3e ce 25 50 be 0e 1a b8 bd
       -0.19395125 0.286653 -0.20326921 -0.089893445
000210 a0 82 9a 3f 5c e2 12 3f ab 6a 57 be 20 47 68 be
       1.2071114 0.57376647 -0.21036784 -0.22683382
000220 7f 39 6d be b3 9a 3b be 3d 57 f7 bd 4c 37 d7 bd
       -0.23166464 -0.18320732 -0.12077186 -0.10508594
000230 89 55 67 be 9d f0 0d 3f 4a ef 67 be c0 32 44 be
       -0.22591223 0.5544527 -0.22649875 -0.19159985
000240 4f ce 90 be c6 90 15 bb 85 aa b3 3d 43 cf 3f be
       -0.282824 -0.0022821887 0.087727584 -0.18731408
000250 25 c1 25 3e a4 ec 8e be 42 c0 8d be 8b 4e 8e be
       0.1618696 -0.27914917 -0.27685744 -0.277943
000260 4f 85 e6 3e 21 10 90 be 04 a9 20 3f 02 19 92 3e
       0.4502358 -0.28137305 0.627579 0.28534704
000270 4f 17 6d bd c5 7b 0d be 3d 1a 26 3e 2e 4d b7 3e
       -0.057883557 -0.13816746 0.16220947 0.3580107
000280 3e 16 b4 3d 8d cb 8e be c1 ab 85 be 2a 53 8d be
       0.08793305 -0.27889672 -0.261076 -0.27602512
000290 e9 28 b7 bd 3f 2d fb 3c 49 e9 b7 3c 2e 83 90 40
       -0.0894335 0.030661223 0.022450106 4.516013
0002a0 f1 6d 84 be d3 f8 86 be 1f 96 52 40 a0 01 74 3f
       -0.2586513 -0.26361713 3.2904127 0.9531498
0002b0 51 6b bf 3e 73 00 37 3e fa b8 d1 bd 81 32 3f be
       0.37386563 0.17871265 -0.102403596 -0.1867161
0002c0 18 b1 83 be e7 70 70 bb 61 c0 6e be f7 a1 83 be
       -0.2572105 -0.0036688389 -0.23315574 -0.25709507
0002d0 6b e9 6f be 07 81 15 3e cd 99 92 be 11 50 92 be
       -0.23428886 0.14600001 -0.28632966 -0.2857671
0002e0 11 ce 7b bd 46 5e 10 3e ba d4 c7 3e 28 6f 36 3f
       -0.061475817 0.14098462 0.39029485 0.7126336
0002f0 de fd cd 3d 75 0b 94 be 10 23 4f be 19 63 91 be
       0.10058187 -0.2891499 -0.20228219 -0.28395918
000300 8d a0 87 3f 84 5e 25 3f f6 4a 61 be a5 5c 60 be
       1.0595871 0.64597344 -0.22001252 -0.21910341
000310 b1 e3 5d be ee 7f b3 bd f4 28 56 bc a9 76 4d 3c
       -0.21668889 -0.08764635 -0.013071287 0.012540498
000320 e4 3b 38 be 12 f7 ec 3e c7 62 59 be 4c dc 16 be
       -0.17991596 0.4628225 -0.21229087 -0.14732474
000330 d0 41 5e 3c 2f 54 80 3d 29 ea 24 be 6d 7a 21 be
       0.013565496 0.06266057 -0.1610495 -0.15769358
000340 1a 8c 25 be b0 23 41 3e 0e 00 79 3e b1 fb 8b 3e
       -0.16166726 0.1886127 0.24316427 0.27340463
000350 8b 9b 1e be 9d b5 68 3e 54 0a 1f be d5 03 20 be
       -0.15489022 0.2272553 -0.15531284 -0.15626462
000360 41 44 22 be 33 4a 54 3e 3e 5d 24 be c7 d7 1e be
       -0.1584635 0.2073143 -0.16051194 -0.15512
000370 00 a6 1e bc a8 c5 15 be 9d a2 f3 bd 60 f6 d5 bd
       -0.009683132 -0.14626181 -0.118962504 -0.10447383
000380 5f 4d fd 3e 0d 21 1f be bd d3 11 3f 98 ae d4 bd
       0.49473092 -0.15539952 0.5696371 -0.103848636
000390 2b c5 85 3f e2 72 2e 3f 9e 98 8c be c1 d2 8a be
       1.0450796 0.6814405 -0.27460188 -0.27113917
0003a0 70 58 8c be 69 62 18 bd ea 00 13 ba db 2c 61 be
       -0.27411222 -0.037203226 -0.0005607741 -0.21989767
0003b0 49 d0 7e be 1c 1b df 3e c7 06 22 be 24 97 56 be
       -0.24884142 0.4357537 -0.15822898 -0.20956093
0003c0 76 5e a6 bd fa d7 48 bd f2 a9 5d bd 18 e5 9f bd
       -0.08123486 -0.049034096 -0.05411715 -0.07807368
0003d0 77 23 e9 3d 00 f1 45 3d af 42 a0 bd f4 7b d6 3d
       0.113837175 0.04832554 -0.07825219 0.10472861
0003e0 96 e7 d5 3d 86 c9 a5 bd 46 7c a6 bd c0 36 9a bd
       0.10444562 -0.08095078 -0.08129172 -0.07529974
0003f0 8e 91 fe bd 91 b0 02 be 9a 7d 9d 3f 3b 33 a2 3e
       -0.12430106 -0.12762667 1.2303956 0.3167971

base.fc0.bias f4 [400]
000000 a9 96 95 3e 68 20 7d 3e b4 0a c1 bd 34 65 64 3e
       0.29216507 0.24719393 -0.094258696 0.22304231
000010 4c 40 2f 3e ba 2d 1d bc 83 2e 57 3e 08 77 f6 3d
       0.17114371 -0.009593422 0.21013837 0.12034422
000020 84 1f 5c 3e dc 86 b3 3e c1 7f 5f 3e 58 2b 60 3e
       0.21496397 0.35063827 0.21826078 0.21891534
000030 ba 84 8a 3e 43 64 89 3e 73 25 7f 3e fb fc 87 3e
       0.27054387 0.26834306 0.2491663 0.26560196
000040 b5 aa 54 3e 23 d7 0f 3e 78 0f 15 3e f3 50 89 3e
       0.20768245 0.14046912 0.14556682 0.26819572
000050 92 db e9 bd 4d 3e ea 3d 77 b5 26 3e 82 3f 85 3e
       -0.11418833 0.11437664 0.16280161 0.26025015
000060 66 e2 02 3e 24 4b 27 bd b7 ed 42 3e 01 52 6a 3e
       0.12781677 -0.040843144 0.19035994 0.22882845
000070 94 35 d7 bd 66 42 27 3e 18 56 4b 3e 6b 6a 0e bd
       -0.10508266 0.16333923 0.19857061 -0.034769457
000080 ca 16 41 3e 90 e9 45 3e 78 51 f2 3d 18 6e 7c 3e
       0.1885635 0.19327378 0.11831945 0.24651372
000090 b6 b1 aa 3e ea 5d e6 bc b9 7c ad 3e 1c 7f 33 bd
       0.33338708 -0.028120954 0.33884218 -0.043822393
0000a0 32 1f 99 3d eb 74 a7 3e 4f 32 84 3e 06 9e 80 3e
       0.07476653 0.3270639 0.25819632 0.25120562
0000b0 47 89 31 3e 57 62 6c 3e b3 9c 84 3e b0 d9 80 3e
       0.17337523 0.23084389 0.25900802 0.25166082
0000c0 b7 3f e6 3d f0 2e 8f 3e 67 5f 9c 3e 36 cc 87 3e
       0.112426214 0.27965498 0.30541536 0.26522988
0000d0 19 42 8f 3e 29 32 79 3e 17 23 05 3e c3 a5 80 3e
       0.27980116 0.24335541 0.13001667 0.25126466
0000e0 68 d2 6c 3e c2 78 96 bd 62 d3 8e 3e 09 ae df 3d
       0.23127139 -0.073472515 0.27895647 0.109218664
0000f0 42 88 94 3e 9b f2 b3 3e 42 cf 54 3e 5a 49 a6 3e
       0.29010206 0.3514603 0.20782188 0.32477838
000100 40 c4 43 3e f5 09 4a 3e b6 ef 38 3e 61 0c 95 3e
       0.19117832 0.19730361 0.18060192 0.29111007
000110 b3 8c 55 3e 94 30 f7 3d de 85 6c 3e f4 07 e2 3d
       0.20854454 0.120698124 0.23097941 0.11036673
000120 cc ab a3 3e 3b 49 d1 3e 77 48 54 3e 37 38 75 3e
       0.31967008 0.40876183 0.20730768 0.23947226
000130 3d 3f 97 3e f4 d3 7b 3e 9b 1b 84 3e 3a 92 d7 bc
       0.29540434 0.24592572 0.2580231 -0.026314843
000140 de 74 71 3e 71 ee 4c 3e 90 2f 18 3e 13 49 7a 3e
       0.23579738 0.20012833 0.14861894 0.24441938
000150 f4 93 2e 3e ed 58 ac bd b5 30 bb 3e bf 79 e5 3d
       0.17048627 -0.08415399 0.36560598 0.11204862
000160 9f 0e 71 bc 53 3b 72 3e ce c2 a2 3e 52 37 2c 3e
       -0.014712959 0.23655443 0.3178925 0.16817978
000170 cb 44 57 3e f1 75 85 3e a7 60 e0 3d 73 11 c8 bd
       0.21022336 0.26066545 0.10955935 -0.09768953
000180 b5 27 8f bd 02 13 d8 3e 76 6f 9b 3e 9c 65 9f 3e
       -0.069899954 0.42202002 0.30358475 0.3113221
000190 08 be ce 3d 2a 87 22 3e 65 7c ba 3e e4 df 06 3e
       0.10094839 0.15871873 0.3642303 0.13171345
0001a0 96 78 33 3e 68 8c 39 3d 89 9d 44 3e 63 f6 64 bd
       0.17526469 0.045299917 0.1920072 -0.055899035
0001b0 62 45 84 3e a6 66 0e 3e 6a 6b 72 bd 4d 0d 81 3e
       0.25834185 0.13906345 -0.05918447 0.2520546
0001c0 34 5c 4b 3e 77 81 2f 3e 88 5a 98 3e ca 58 b1 3e
       0.19859391 0.1713923 0.2975657 0.34638053
0001d0 05 6a 0d 3e 71 f5 1f 3e d8 cc 31 3e a0 0a 50 3e
       0.13809974 0.15620972 0.17363298 0.20316553
0001e0 34 e1 00 3e 17 19 7b 3e 59 f3 9c 3e 0c b5 bb 3e
       0.12585908 0.2452129 0.3065441 0.36661565
0001f0 26 b8 2b bd c0 cc 69 3e a9 a8 9d 3e 88 8a 89 3e
       -0.041923665 0.22832012 0.3079274 0.26863503
000200 13 e8 47 3e a0 3f 56 3e 37 98 28 3e c8 43 7a 3e
       0.19522123 0.20922709 0.16464315 0.24439919
000210 ee 89 4b 3e c4 35 8e 3e e0 1c dd 3d 37 1a 6e 3e
       0.19876835 0.27775395 0.10796523 0.23252188
000220 cb 13 9e 3e c4 ba a3 3e e1 d8 8e 3e 24 5a b8 bd
       0.30874476 0.31978428 0.2789984 -0.09001568
000230 99 72 b7 3e 05 8a 96 3e ee e9 a4 3e 5b fe 9a 3e
       0.3582962 0.29402176 0.32209724 0.30272183
000240 fd 02 74 3e 77 c9 fe 3d a3 48 5b 3e 60 8c 93 bd
       0.23829265 0.1244077 0.21414427 -0.07204509
000250 92 54 90 3e 26 8e b7 3e 8b c6 4d 3e 5f f5 97 3e
       0.28189522 0.35850638 0.2009527 0.2967939
000260 10 ac 57 3e c9 e8 67 3e 4d fc 28 3e b4 9e 93 3e
       0.2106173 0.22647394 0.16502495 0.28832018
000270 2c 21 64 3e d1 52 58 3e dd b2 9e 3e cc c8 84 3e
       0.22278279 0.21125342 0.30995837 0.25934446
000280 11 3f 63 3e 82 66 52 bd 8e c7 56 3e 29 df 83 3e
       0.22192027 -0.05136729 0.20974562 0.25756195
000290 0a 93 82 3e 47 ca 4d 3e 90 81 7e 3e 16 79 8c 3e
       0.25502807 0.20096694 0.24854112 0.2743613
0002a0 e5 12 6f 3e 30 e6 38 3e 56 06 3f 3e d9 f4 19 3e
       0.23347051 0.1805656 0.1865476 0.15034808
0002b0 5b 1e 92 3e d3 1f 3f 3e 3a 31 3d 3e d6 4d 62 3e
       0.28538784 0.18664484 0.1847581 0.22100005
0002c0 58 cb 88 3e b2 dd 24 3e 82 eb c6 3e 70 38 07 3e
       0.2671764 0.16100195 0.38851553 0.13205123
0002d0 09 9d 9a 3e ba 8c 98 3e ca 5d 2b bd a4 63 b9 3e
       0.30197933 0.29794866 -0.04183749 0.36208832
0002e0 20 a0 7e 3e 15 18 4f 3e b5 e3 74 3e ba 63 45 3e
       0.2486577 0.2022403 0.23914988 0.19276324
0002f0 21 3b 85 3e 98 2c 95 3e 60 d1 37 3e 1a 03 53 3e
       0.26021674 0.29135585 0.17950964 0.20606652
000300 da b2 94 3e 14 db 82 3e 02 47 56 3e c7 11 41 3e
       0.29042703 0.25557768 0.20925525 0.18854438
000310 05 e4 92 bd e9 48 8d 3e 71 e9 ab 3e bb 93 84 3e
       -0.071723975 0.2759469 0.3357654 0.2589396
000320 f6 a3 f1 bd 11 e8 a3 bd 45 ae 74 bd 8d 96 7a 3e
       -0.11798851 -0.080032475 -0.05973651 0.24471493
000330 63 1a 90 3e e9 b2 71 bd 5d d8 07 3e 14 98 c7 3e
       0.2814513 -0.059008513 0.1326613 0.38983214
000340 a5 8f 8a 3d ba cf 20 3d 08 fa 90 3e 3a f4 1a 3e
       0.06765679 0.039260603 0.2831576 0.15132228
000350 7b 8c a5 3e ac fa 10 3e f3 95 04 bd 37 ec 2c 3e
       0.3233374 0.14158124 -0.032369565 0.16886984
000360 fd 66 6a 3e c9 e5 3c 3e 5e 20 6e bd b8 de 33 3e
       0.2289085 0.18447031 -0.058136337 0.17565429
000370 32 67 49 3e a3 6a 3a 3e c2 b6 9d 3e af e4 38 3e
       0.19668272 0.18204741 0.30803496 0.18055986
000380 2f 46 81 3e 83 5c 82 3e ba 65 2a 3e 2f e7 bd 3e
       0.25248858 0.25461206 0.16640368 0.37090442
000390 b8 7c 17 bd 66 6a c3 3e d5 14 c9 3e 62 54 31 bd
       -0.036984175 0.38167113 0.39273706 -0.043293364
0003a0 f8 5e 15 bd 20 4c 6a 3e 8d 3a 95 3e 83 df 92 3e
       -0.036467522 0.22880602 0.29146233 0.2868615
0003b0 15 8a 6a 3e d8 6f 7e 3e 5b 9e 82 3e 91 5b b4 3e
       0.22904237 0.24847353 0.2551144 0.3522611
0003c0 a2 41 5a 3e 5f 7f 47 3e 07 9b 4f 3e 69 50 3b 3d
       0.213141 0.19482182 0.20273982 0.045730982
0003d0 d9 82 86 3e dc 2f a3 3e a5 22 89 3e 8c dc 52 3e
       0.26271704 0.3187245 0.26784244 0.20591944
0003e0 97 bf 49 3e ce 0d 9b 3e 17 02 8b 3e 10 e1 67 3e
       0.19701992 0.3028397 0.27150032 0.22644448
0003f0 83 fe 84 3e 92 72 94 3e 13 9a 48 3e 84 98 58 3e
       0.25975427 0.2899366 0.19590025 0.2115193

last.weight f4 [3, 400]
000000 95 bd 7a 3e 7d eb 04 3f 41 e8 47 3d be ff 07 bf
       0.24486382 0.51921827 0.04880548 -0.53124607
000010 2b bf f9 3e 95 37 59 3d 8e 56 52 3e 1d 76 6d 3e
       0.48778662 0.053031523 0.2054083 0.23189588
000020 52 bd f9 3d 0b 79 3c 3e e6 36 3b be d1 34 08 bf
       0.12194313 0.18405549 -0.18282661 -0.5320559
000030 c0 78 3e 3e 19 2a 2f be 44 f2 8a 3c 67 93 70 3e
       0.1860075 -0.17105903 0.016961224 0.2349373
000040 fb 45 c7 be 97 31 14 be e4 8b 60 3e f0 ca d7 be
       -0.38920578 -0.14472042 0.21928364 -0.42147017
000050 49 f4 bc 3c 7b 8a 81 bc c4 6d cb be 20 3e 43 bc
       0.023065703 -0.015813103 -0.39732182 -0.011916667
000060 ff 7f 9c be db f6 21 bd 60 8c fe 3e d0 82 4b 3e
       -0.30566403 -0.03954206 0.49716473 0.1987412
000070 70 b9 3c bd 7a a9 71 be d0 42 2b 3f 1b 76 2a 3d
       -0.046075284 -0.23599806 0.6689882 0.04161654
000080 c1 ac 97 be 91 79 95 3d a9 0b b9 3e 5e 13 4d be
       -0.29623988 0.072985776 0.36141708 -0.20026919
000090 c9 1d 6b 3e d9 40 a3 bc dd df 66 be 56 fe 2f 3d
       0.22960581 -0.019928383 -0.22546335 0.042967163
0000a0 24 e9 5b 3e 2b ff 82 be 60 f8 e4 38 d3 ef 66 3e
       0.21475655 -0.25585303 0.00010918151 0.22552423
0000b0 fb b3 42 be 1d 47 a9 3d 41 9f 1e bd 74 12 d7 bd
       -0.1901397 0.08265517 -0.038726095 -0.105015665
0000c0 26 68 42 3e 1a 6b 44 be 1d 82 84 3e 91 da 4d bd
       0.18985042 -0.19181481 0.2588052 -0.05025727
0000d0 63 02 08 3f ef a8 52 be 28 2f 91 3e 58 65 e8 3e
       0.5312864 -0.20572256 0.2835629 0.4538982
0000e0 02 e4 fd bd dc 12 4f bd 25 9b e9 bd 4f dd d1 3e
       -0.12397005 -0.050555095 -0.114065446 0.40989158
0000f0 9b 2d 37 3e be 0e 82 3e 3d ef 05 3e d3 2c 5a 3f
       0.17888491 0.25401872 0.13079543 0.85224646
000100 9d ca c3 bc ed f4 80 3d 87 c4 cd be 12 5b 39 be
       -0.023900324 0.06296716 -0.40189 -0.18101147
000110 c5 51 3e 3d 3b 8a 4d 3e 52 9c 68 be e7 0b a5 be
       0.0464647 0.20072262 -0.22715881 -0.32235643
000120 8f a7 ea 3c 88 c0 85 bc 57 ca 27 3e 80 24 c6 3c
       0.028644351 -0.016327158 0.1638578 0.024187326
000130 02 61 09 be 15 b8 1e be ea bc 2d 3e b5 a7 96 3c
       -0.13415912 -0.15499909 0.16966596 0.018390516
000140 81 8f a4 3e cc bf f8 be 6f 94 fd 3d 52 ac 55 be
       0.32140735 -0.4858383 0.12381827 -0.20866516
000150 56 11 1d 3e 4e 56 95 bc 18 4c 6a 3e 88 09 76 bd
       0.15338644 -0.01822963 0.2288059 -0.060067683
000160 8b 0d 2d 3c 87 df 85 be 15 df 6a be 8c a3 bd 3e
       0.010562311 -0.261471 -0.22936662 0.3703884
000170 53 8d 05 bf 49 62 22 be 19 03 ca 3e a3 05 47 3c
       -0.5216877 -0.15857805 0.39455488 0.01214734
000180 f6 6a d4 3b 63 31 46 3d 10 71 f8 bd c0 8f 95 3e
       0.0064824773 0.048386943 -0.1213094 0.29211235
000190 83 54 09 3c 7e 87 6e be fb 19 45 bd a3 73 80 3e
       0.008381966 -0.23293874 -0.04812048 0.25088224
0001a0 39 3d a6 bd 63 37 55 3e 6f 40 5c be 8c 0c 93 3c
       -0.08117146 0.2082191 -0.21508954 0.017950319
0001b0 c3 2d 5c be 9c c0 ba 3e 0e 8a 80 3b 0f e9 b5 be
       -0.21501832 0.36475074 0.0039227074 -0.35529372
0001c0 af e1 ed be 05 cb d2 be 05 e1 83 be 4d 36 f0 bd
       -0.46461245 -0.41170517 -0.25757614 -0.11729107
0001d0 02 d7 d1 3e c6 10 dd 3d d0 86 b0 be c9 17 7e 3e
       0.4098435 0.10794215 -0.34477854 0.24813761
0001e0 ff 93 c4 bc e0 32 be be ce 44 0b be 30 e1 63 3e
       -0.023996351 -0.3714819 -0.13600466 0.22253871
0001f0 f9 b7 9a bc 88 33 8d 3e c7 e9 c6 3d 9a 72 ca bd
       -0.018886553 0.27578378 0.09712558 -0.0988514
000200 57 70 bc 3e 93 0f 8f 3c a7 6d 41 3e 32 1e 7c bc
       0.36804458 0.017463481 0.18889485 -0.0153880585
000210 43 54 dc be 8f 6f c7 be 1c 55 4b 3e 07 a9 6a 3e
       -0.43033037 -0.389523 0.19856685 0.22916041
000220 af 75 ac bd 05 12 50 3e 1f 77 f2 bd bd 68 a2 3d
       -0.08420884 0.20319374 -0.11839127 0.079301335
000230 6a c8 82 3e 1f ea 54 3f 72 3b 68 3f 6d d0 ad be
       0.2554353 0.8316974 0.90715706 -0.3394808
000240 fd 99 a5 3d aa 1a a3 3e 72 f5 f5 3e 2d 42 2c 3c
       0.080860116 0.3185628 0.48038822 0.010513824
000250 a0 54 38 3f e8 e8 79 be 57 29 ac 3d 20 be ef 3d
       0.7200413 -0.24405253 0.084063224 0.11706185
000260 43 e9 e6 be 87 8a 85 be 51 fa 09 3f d2 cf 3a be
       -0.4509984 -0.2608225 0.5389758 -0.1824334
000270 38 81 ed be 18 1b de be b0 67 85 bd 0b 7c 8f be
       -0.4638765 -0.43380046 -0.065139174 -0.28024325
000280 a8 3c 53 be 74 8f c6 3d 87 7e d9 be eb b8 7e b9
       -0.20628607 0.0969533 -0.42479345 -0.00024292215
000290 ea d1 9e 3d 91 d0 4b be d8 60 d5 3d 02 2c 18 be
       0.07754882 -0.1990378 0.10418862 -0.14860538
0002a0 21 2b 10 be 92 8e 55 be 7b a0 ee 3e 20 ba 66 3d
       -0.14078952 -0.20855168 0.46606812 0.056329846
0002b0 2e 66 fb be d7 b6 e7 3e bb f5 e7 bc 57 18 77 3e
       -0.49101394 0.45256683 -0.028315416 0.24130379
0002c0 70 72 e4 be d2 9a 26 bd 6e 53 af be b9 e7 8f 3e
       -0.4461856 -0.040674992 -0.3424334 0.28106478
0002d0 07 d6 a4 3e 26 b4 49 3e c7 80 0f bd bd f1 6b 3f
       0.3219454 0.19697627 -0.03503492 0.9216574
0002e0 80 f9 a3 3d 24 8c d7 be 19 56 2b be 60 1a c4 be
       0.08006573 -0.42099106 -0.16732062 -0.38301373
0002f0 18 bb 07 3f a8 ca 8c 3e 0f 87 b4 be 0f d3 0a 3f
       0.5301986 0.27498364 -0.35259292 0.542283
000300 8a 24 8e 3e 3d d2 04 be 30 81 e9 be e3 0f 8c 3e
       0.27762252 -0.12970825 -0.45606375 0.2735587
000310 37 56 72 3c 36 14 45 be ff 6e a4 be 87 1f 3a 3f
       0.014791063 -0.19245991 -0.32115933 0.72704357
000320 1b da c0 bd 15 7e d7 3c d4 4e 08 3b 19 89 12 3e
       -0.094166 0.026305238 0.0020798938 0.14310111
000330 25 8a 48 be f6 8a 58 3d 2c 8b db be a9 84 d7 be
       -0.19583948 0.0528669 -0.42879617 -0.420934
000340 69 ea 58 be 67 83 55 be c4 3e d1 be d8 c3 a7 3e
       -0.2118317 -0.20850907 -0.408682 0.32766604
000350 82 83 8c 3e de e1 53 3e 39 e2 8e bd 14 f9 15 3d
       0.27444082 0.2069163 -0.06976742 0.036614493
000360 98 db 9f 3e b1 8e 1a 3e e0 fd b2 bc 64 d5 94 3e
       0.31222224 0.15093495 -0.021849573 0.29069054
000370 95 1a bb be 6f cd 2d be 09 2f 21 3d 7a de 34 3e
       -0.36543718 -0.16972898 0.039351497 0.17662993
000380 54 1c 15 3e 19 11 20 be 5b 26 e8 be f5 09 00 3e
       0.14561588 -0.15631522 -0.45341763 0.12503798
000390 e6 92 e7 bc f9 53 46 be e8 05 be 3d e2 83 2e 3d
       -0.028268289 -0.1936797 0.0927847 0.042606242
0003a0 6e dc a3 3b 3d 42 b6 be 85 48 4f 3e bc 8f 1e 3f
       0.0050006425 -0.3559741 0.20242508 0.6193807
0003b0 df d9 e3 be b3 b3 33 be 6a 87 1e bd b8 b3 2e be
       -0.4450216 -0.17549019 -0.03870336 -0.17060745
0003c0 60 3a 08 3e 4f 70 f1 3d 83 8f c1 be 3c ca 1f be
       0.13303518 0.11788999 -0.37804803 -0.1560449
0003d0 31 b0 2c 3e 61 65 77 be 31 a3 fc bd e8 60 06 3e
       0.16864087 -0.24159767 -0.12335814 0.13122904
0003e0 c7 13 cb be f0 ab 73 3e ae eb b8 3e 86 71 ca be
       -0.39663526 0.23796058 0.3611731 -0.39539737
0003f0 95 c4 b6 3d 88 c5 c0 bd 9e 5f 24 be 5a 58 50 be
       0.08924214 -0.09412676 -0.160521 -0.20346203

last.bias f4 [3]
000000 30 ce c8 bd ef 8f 9d be 3c 47 ef bc
       -0.09804952 -0.30773875 -0.029208772
