log/MUJOCO_ANT_DIR_12_v4/Ant-v3/6/model/model_pf_state_7862.pth (torch, 848933 bytes, 6 tensors)

base.fc0.weight f4 [400, 111]
0	0xbeb52382	-0.35378653
1	0xbfb6f1c5	-1.4292532
2	0x3f683024	0.90698457
3	0xbf2e3274	-0.68045735
4	0xbe99f4c7	-0.30069563
5	0xbf10e835	-0.5660432
6	0xbed31efd	-0.4123458
7	0x3e0756f0	0.13216758
8	0x3e55547d	0.20833011
9	0x3a749690	0.0009330297
10	0x3e8c8d21	0.27451423
11	0xbd3807e8	-0.044929415
12	0x3dea4ece	0.11440812
13	0x3e33e477	0.17567621
14	0x3f25107a	0.64478266
15	0x3e989f87	0.2980921
16	0x3e211a16	0.15732607
17	0x3e2637f0	0.16232276
18	0xbe2a686f	-0.16641401
19	0x3b1875e8	0.0023263637
20	0x3ce2c772	0.027682994
21	0x3be8c162	0.007103131
22	0x3d2f684c	0.042824075
23	0xbc88ed0c	-0.016714595
24	0x3da47cfe	0.08031653
25	0x3d88a4a8	0.06672031
26	0x3db7d40b	0.08975991
27	0x3c835b6a	0.0160348
28	0x3b1e20e7	0.0024128498
29	0x3cd2cd7a	0.025732744
30	0x3d41433a	0.047183253
31	0xbcb604ed	-0.022219146
32	0xbb5f8000	-0.0034103394
33	0xbd254ded	-0.04035752
34	0x3b821a00	0.0039703846
35	0x3d0ad8c3	0.033898126
36	0xbc6c6fc7	-0.014430947
37	0xbca7f8f3	-0.02050445
38	0xbb5e9b1a	-0.003396696
39	0xbcc1d47a	-0.023660887
40	0x3c35bb67	0.0110920435
41	0xbd1df017	-0.038559046
42	0xbb970c27	-0.004609603
43	0xb9d9ac00	-0.00041517615
44	0x3c343ccd	0.011000824
45	0x3ae022cd	0.0017100215
46	0x3c2d15d3	0.010564285
47	0xbc3d8c73	-0.01156913
48	0xbcc2b01a	-0.023765612
49	0xbd0abe20	-0.033872724
50	0xbd33242a	-0.04373566
51	0xbc4c9acd	-0.012488079
52	0xbc8c621a	-0.017136622
53	0xbcc02147	-0.023453368
54	0x3d102648	0.035192758
55	0xbc906c6a	-0.01762982
56	0x3bc298a7	0.0059386077
57	0x3b8d29e7	0.0043079737
58	0xbd2e3f6b	-0.04254095
59	0xbcda2a2a	-0.026631434
60	0x3d213a7d	0.03936242
61	0xbc2cd5fa	-0.010549063
62	0xbc072640	-0.008248866
63	0xbc635bda	-0.01387688
64	0xbc15b6ba	-0.009137804
65	0xbc171eba	-0.009223634
66	0xbd4928cf	-0.049111184
67	0xbd106fc5	-0.03526284
68	0x3cc2fe97	0.023803039
69	0xbc9b0dad	-0.01892742
70	0x3d209f0f	0.03921419
71	0xbca47447	-0.020074977
72	0x3cd2f7e0	0.025752962
73	0xbc605cc7	-0.013693995
74	0xbd4352f7	-0.047686543
75	0xbce054c0	-0.027384162
76	0x3caba600	0.020953178
77	0x3c7736ad	0.015088719
78	0x3ade5d00	0.0016964972
79	0xbbcfad8d	-0.0063378275
80	0xbd2a5e25	-0.04159369
81	0xbd42240b	-0.047397655
82	0xbcff4dda	-0.031165052
83	0x3a7b2e67	0.00095818046
84	0x3d1bdb5d	0.038050998
85	0x3d18f8dd	0.03734671
86	0x3c394bb3	0.011309552
87	0xbc03791a	-0.008024478
88	0xbd4c4573	-0.04987092
89	0xba76aecd	-0.00094102026
90	0xbca4adb7	-0.020102365
91	0xbd4becef	-0.049786504
92	0xbc2fc267	-0.0107275015
93	0x3be9785a	0.0071249427
94	0xbcffe940	-0.031239152
95	0x3c6b428d	0.014359129
96	0xbbbd75cd	-0.005781865
97	0xbb751c33	-0.0037400841
98	0x3ced3a73	0.028958535
99	0x3d0cd1fd	0.034379948
100	0xbd4ba068	-0.049713522
101	0x3cef5950	0.029217392
102	0x3adf3033	0.0017027914
103	0x3c980b60	0.018560112
104	0x3c1d3e8d	0.009597433
105	0xba0f6b33	-0.0005470991
106	0xbd3d1032	-0.046158023
107	0x3d39dddf	0.04537761
108	0x3bd40eda	0.006471497
109	0x3cb109ed	0.021611178
110	0xbd3d4213	-0.04620559
111	0xbe9a11a9	-0.300916
112	0xbe1c9d54	-0.15294391
113	0xbe03fe9b	-0.12890093
114	0x3ff58d58	1.918376
115	0x3f191f61	0.59813505
116	0x3e02cca3	0.12773375
117	0xbe764fc0	-0.2405386
118	0xbdd3e042	-0.10345508
119	0x3eff42c7	0.49855635
120	0x3eda55e8	0.42643666
121	0x3e0d0646	0.13771924
122	0xbe0692a5	-0.13141878
123	0xbe7f6268	-0.24939883
124	0xbdaeabac	-0.085288376
125	0x3c8b54a9	0.017008143
126	0x3ef3275b	0.47490963
127	0x3e53cd9a	0.206839
128	0xbd0fc6a0	-0.035101533
129	0x3f1da36f	0.61577505
130	0x3da72cdf	0.08162855
131	0x3c13cf6a	0.009021619
132	0x3e0193f8	0.12654102
133	0x3c63ac6d	0.01389609
134	0x3dc27c4c	0.09496364
135	0xbbf76329	-0.0075496626
136	0x3d8be82a	0.06831391
137	0x3cbe4b60	0.023229301
138	0x3d2b66a2	0.041845925
139	0xbcc3f207	-0.023919119
140	0x3c609207	0.013706691
141	0xbcce6817	-0.025196118
142	0xbcc532ad	-0.024072016
143	0xbd3698fb	-0.044579487
144	0xbd48fd4f	-0.0490697
145	0xbbfb8c80	-0.007676661
146	0x3c1ac10d	0.009445441
147	0xbd0d7a3d	-0.034540404
148	0x3c86e17d	0.016464943
149	0x3d4943b8	0.049136847
150	0x3c007fba	0.007842952
151	0xbd0dd083	-0.03462268
152	0x3ce5b37d	0.028039688
153	0x3cd01893	0.025402343
154	0xbc5dd7c0	-0.013540208
155	0x3bba6980	0.005688846
156	0x3c98bb83	0.0186441
157	0xbba0a89a	-0.0049029114
158	0xbcf4aec0	-0.029868484
159	0xbcfa2cfd	-0.03053903
160	0x3b2d271a	0.0026421011
161	0x3d364f3d	0.04450916
162	0x3acc4700	0.0015585124
163	0xbc20be47	-0.009810991
164	0x3c91342d	0.017725075
165	0xbc3a4aa0	-0.011370331
166	0x3cc982a7	0.024598433
167	0xbd3eadb5	-0.04655238
168	0x3d331aff	0.043726917
169	0x3d3930d2	0.045212574
170	0x3c6e11f3	0.014530647
171	0xbc8dbbcd	-0.017301464
172	0x3c7da380	0.015480876
173	0x3d176ba7	0.0369679
174	0xbccc595d	-0.024944955
175	0x3d0257d7	0.03182205
176	0xbd118f9a	-0.03553734
177	0xbc94e610	-0.018176109
178	0xbbc2b780	-0.005942285
179	0x3d1121df	0.035432693
180	0x3d0b7b3f	0.034053084
181	0xbd2a5432	-0.0415842
182	0x3cdd1c67	0.026991082
183	0xbc8fad60	-0.017538726
184	0x3bcce727	0.0062531414
185	0x3d214e85	0.039381523
186	0xbd421833	-0.04738636
187	0x3ca69c0a	0.020338077
188	0xbd250d4a	-0.040295877
189	0xbd41a0ed	-0.04727261
190	0x3d2739d7	0.040826645
191	0xbcd9be93	-0.02658013
192	0xbcf58587	-0.029970897
193	0x3c724a9a	0.014788294
194	0xbc714833	-0.014726686
195	0x3d1ac1b2	0.03778238
196	0xbd2c2d63	-0.04203547
197	0xbd3a6da7	-0.04551473
198	0x3d29fee3	0.041502845
199	0x3d3bc697	0.045843687
200	0x3d369503	0.044575702
201	0x3abb1d00	0.001427561
202	0xbb49da33	-0.0030800223
203	0xbcc6ebe3	-0.024282401
204	0xbc08032d	-0.008301538
205	0x3ce95d2d	0.028486812
206	0xbd02cd87	-0.031934287
207	0x3c9ab1e3	0.018883651
208	0xbbe32de7	-0.006932962
209	0xbbf9e380	-0.007625997
210	0xbc07c480	-0.008286595
211	0x3d3a6bc2	0.045512922
212	0x3cbf515a	0.023354221
213	0xbc7bbbcd	-0.015364599
214	0xbd0a77e7	-0.033805754
215	0x3d1b72d8	0.03795132
216	0x3b9dc473	0.0048146783
217	0x3d2dcbaa	0.042430557
218	0x3d39d1bb	0.04536603
219	0xbba60fc0	-0.0050677955
220	0x3d42914a	0.04750184
221	0xbcd0157a	-0.025400866
222	0xbf2db171	-0.6784888
223	0xbf40a9bc	-0.75258994
224	0xbfaead12	-1.3646567
225	0xbf2a8fda	-0.6662575
226	0x3f8d0505	1.1017157
227	0xbeff8221	-0.49903968
228	0xbedf7cdd	-0.4364995
229	0xbe21f3f1	-0.15815713
230	0x3e806d51	0.25083402
231	0xbeced22f	-0.40394732
232	0x3e4a7cf5	0.1977423
233	0x3f1a293c	0.6021917
234	0xbf694c48	-0.9113202
235	0x3e59e53e	0.21278855
236	0xbe86f6c7	-0.2636015
237	0x3ee6a437	0.4504716
238	0x3efb5357	0.4908702
239	0xbd2cbd46	-0.042172693
240	0x3e6e547a	0.23274413
241	0xbc15cfa7	-0.009143746
242	0x3a1ede85	0.00060603797
243	0x3bf52772	0.007481509
244	0x3e1bbb62	0.152082
245	0x3daa87af	0.08326661
246	0xbe1be82c	-0.15225285
247	0x3d7da4f3	0.061924886
248	0xbcf53d67	-0.029936505
249	0x3aaa6267	0.0012999297
250	0xbd4a7ebd	-0.049437273
251	0xbd18895b	-0.037240367
252	0xbc2e1b7a	-0.010626668
253	0x3c9b0457	0.018922968
254	0x3c455da0	0.012046248
255	0xbd2fde88	-0.04293683

base.fc0.bias f4 [400]
0	0xbedc12af	-0.42983004
1	0xbdba645d	-0.09101174
2	0xbeff1b3b	-0.49825463
3	0x3f0207d8	0.5079322
4	0xbf4044b5	-0.7510484
5	0x3f260da0	0.6486454
6	0xbf4372a1	-0.76346785
7	0xbf74694c	-0.9547317
8	0x3e1a9df3	0.15099315
9	0xbeff8135	-0.49903265
10	0xbf3487ea	-0.7051989
11	0x3eba0bd6	0.36337155
12	0x3f1b479f	0.6065616
13	0x3ecf8275	0.40529218
14	0x3e3b8e42	0.18315986
15	0x3ecf720b	0.40516695
16	0xbf59a91e	-0.8502368
17	0xbf448e4b	-0.7677962
18	0xbebb853f	-0.36625096
19	0x3f0b40d4	0.54395795
20	0xbf71b31b	-0.9441392
21	0x3f6e5d1f	0.9311084
22	0x3be6c9ec	0.007043114
23	0xbeeeefc4	-0.46667302
24	0xbe72a724	-0.23696572
25	0xbf8f8bec	-1.1214576
26	0xbf16cb15	-0.5890363
27	0xbeb3ce21	-0.351182
28	0xbeba4d94	-0.36387312
29	0xbe8c6e20	-0.2742777
30	0x3dc50a91	0.09621156
31	0xbea3f04c	-0.3201927
32	0xbefd3c84	-0.49460232
33	0x3e109e8f	0.14122985
34	0xbee35de4	-0.4440757
35	0xbf59c3e9	-0.8506456
36	0xbf16533b	-0.5872075
37	0xbf710a0e	-0.9415597
38	0x3e65eaca	0.22452846
39	0xbd51237f	-0.051059242
40	0x3ec14a5a	0.37752038
41	0xbeae47d8	-0.34039187
42	0xbf3c38eb	-0.7352435
43	0xbee11ffa	-0.4396971
44	0x3dbff6dc	0.093732566
45	0x3e1d05c9	0.15334238
46	0xbe71fb25	-0.2363096
47	0xbecfc019	-0.40576246
48	0x3f18477c	0.59484076
49	0x3f32266a	0.69589865
50	0x3ea096b5	0.3136498
51	0x3d97daa7	0.074147515
52	0xbea31796	-0.31853932
53	0xbe984a38	-0.29744124
54	0xbf36b5cf	-0.7137117
55	0x3ebc8370	0.3681903
56	0xbe40d96a	-0.18832937
57	0xbe5fcf96	-0.21856532
58	0x3eb906c4	0.36137974
59	0xbf613dde	-0.87985027
60	0xbe85d3a2	-0.26138026
61	0xbf57fc03	-0.84368914
62	0xbed1ef31	-0.410028
63	0x3e57be4b	0.21068685
64	0xbd47ff5a	-0.048827507
65	0xbf140079	-0.5781322
66	0xbe2598b5	-0.16171534
67	0xbf17a8c8	-0.59241915
68	0x3e0dde82	0.13854411
69	0x3e1e2335	0.15443118
70	0xbef7a487	-0.48367712
71	0xbe6b47cb	-0.22976606
72	0x3eb46f13	0.35240993
73	0xbf5714aa	-0.84015906
74	0xbe49c380	-0.19703484
75	0x3e276dd0	0.16350484
76	0x3e39d393	0.18147115
77	0x3e0ace8a	0.13555351
78	0xbe3901c6	-0.18067083
79	0xbec8e68f	-0.39238402
80	0xbf38962b	-0.7210414
81	0xbe0abafb	-0.1354789
82	0x3f772504	0.96540856
83	0xbf0ea10a	-0.55714476
84	0xbf37155d	-0.7151697
85	0xbc010d46	-0.0078767
86	0xbeefe45d	-0.46853915
87	0x3e4804a3	0.19533019
88	0xbe62b460	-0.2213912
89	0xbf374a6b	-0.7159793
90	0x3e017492	0.12642124
91	0xbeff8172	-0.49903446
92	0xbf1928cc	-0.59827876
93	0x3f858495	1.0431086
94	0xbe8d5b2e	-0.27608627
95	0xbee70071	-0.45117524
96	0xbe4f4ad1	-0.20243384
97	0x3db2a58e	0.08722983
98	0xbf5f3c73	-0.87201613
99	0xbf08736c	-0.5330112
100	0x3b7dfeba	0.0038756565
101	0x3eb841f2	0.35987812
102	0x3eb5c2f1	0.3550029
103	0xbe35227f	-0.1768894
104	0xbdae01cb	-0.08496436
105	0xbde2fc4e	-0.110832796
106	0x3dbd1d7e	0.09234141
107	0xbeb9a84f	-0.36261222
108	0xbf25692a	-0.6461359
109	0xbe823e92	-0.25438362
110	0xbee7dacf	-0.45284125
111	0xbec729a2	-0.3889895
112	0xbf0e5b8f	-0.5560846
113	0x3da567ec	0.08076462
114	0xbe2f3314	-0.17109329
115	0x3edcd74b	0.43133005
116	0xbdfe1ac1	-0.12407447
117	0x3f823d97	1.0175046
118	0x3f031164	0.5119841
119	0xbf120a9e	-0.5704745
120	0xbdc55c40	-0.09636736
121	0xbf2daaef	-0.6783895
122	0xbef07fb8	-0.46972442
123	0x3f0e09d3	0.5548374
124	0xbf0dd678	-0.5540538
125	0xbf4edfd3	-0.8081028
126	0x3e627420	0.2211461
127	0xbf2a6fb3	-0.6657669
128	0xbf29a0ac	-0.6626079
129	0xbf3a3534	-0.7273743
130	0x3f04ec89	0.51923424
131	0xbf691eb7	-0.9106249
132	0xbf110467	-0.5664734
133	0xbe74fd76	-0.23924813
134	0xbd8bd8f1	-0.06828488
135	0x3f138f7d	0.5764082
136	0xbf398319	-0.72465664
137	0xbdac0168	-0.08398706
138	0xbebb0992	-0.3653074
139	0xbf239484	-0.6389849
140	0xbdcb2068	-0.099182904
141	0xbeefd435	-0.4684159
142	0x3e8c7004	0.2742921
143	0x3e8dfb58	0.27730823
144	0x3e146dd5	0.14495023
145	0xbe9d702f	-0.30749652
146	0xbe6d67c3	-0.23184113
147	0xbef3085d	-0.47467318
148	0x3e9d38bf	0.30707356
149	0xbe4dd091	-0.20099093
150	0xbf43797b	-0.7635724
151	0xbe8fe05c	-0.2810086
152	0xbdfcabe5	-0.12337474
153	0xbeb55589	-0.3541682
154	0x3d127b1f	0.03576195
155	0x3db261ec	0.08710083
156	0x3ce21ea8	0.027602509
157	0xbeb100a2	-0.34570795
158	0xbcffae6e	-0.031211104
159	0xbbb9e5fd	-0.0056731687
160	0xbe2b4817	-0.16726719
161	0xbef04e7c	-0.4693488
162	0xbf2942d6	-0.6611761
163	0xbf3da37b	-0.74077576
164	0x3f227815	0.6346448
165	0xbe21908a	-0.15777794
166	0x3edcf542	0.43155867
167	0xbefe6533	-0.49686584
168	0x3f05597e	0.5208968
169	0xbe3e3f7c	-0.18578905
170	0xbec575f1	-0.38566545
171	0xbc49662a	-0.012292424
172	0xbdf957d1	-0.12174953
173	0xbec207c3	-0.37896547
174	0x3f337aa0	0.70108986
175	0xbf87324b	-1.0562223
176	0x3ea7f5d2	0.32804734
177	0xbdcd029f	-0.100102656
178	0xbf76b7a1	-0.96373945
179	0xbf354d8a	-0.7082144
180	0xbe17b3f5	-0.14814742
181	0x3ec8e6b0	0.392385
182	0xbe6d72ee	-0.23188373
183	0xbeeb9986	-0.46015567
184	0xbf5fc12d	-0.8740414
185	0x3e10bbf4	0.14134198
186	0xbf4082b6	-0.7519945
187	0x3f5451ea	0.8293749
188	0xbe8fbb66	-0.2807266
189	0xbf192bd9	-0.5983253
190	0x3f0a3741	0.5399056
191	0xbf66f28f	-0.90213865
192	0xbef88264	-0.4853698
193	0x3f1b985e	0.6077937
194	0x3e4cf89f	0.20016716
195	0xbf1e61be	-0.6186789
196	0xbee10307	-0.43947622
197	0xbef2f4a8	-0.47452283
198	0xbec61b38	-0.3869264
199	0xbf2b8383	-0.66997546
200	0x3e27c729	0.16384567
201	0xbf09bdb9	-0.5380512
202	0x3f794f06	0.97386205
203	0x3e327f37	0.17431341
204	0xbab3da28	-0.0013721632
205	0xbe09e3a1	-0.1346574
206	0x3eea28ed	0.4573435
207	0xbf062799	-0.5240417
208	0xbe41b66d	-0.18917246
209	0xbf6818b2	-0.9066268
210	0xbf3add7f	-0.72994226
211	0xbeda8c91	-0.4268537
212	0xbee7420c	-0.45167577
213	0xbd664172	-0.056214757
214	0x3ef6c2f8	0.48195624
215	0xbe7c3fce	-0.24633715
216	0x3eea51d5	0.45765558
217	0xbf857b57	-1.0428265
218	0x3eb7e4a4	0.35916626
219	0xbdf3162c	-0.11869463
220	0xbf646c38	-0.8922763
221	0xbed46561	-0.41483596
222	0xbf991e33	-1.1962341
223	0xbe199425	-0.14997919
224	0xbe87242d	-0.26394787
225	0xbdf2aa92	-0.1184894
226	0x3e477eb2	0.19481924
227	0xbf221698	-0.63315725
228	0xbf6b47ee	-0.9190663
229	0x3e0d6d0d	0.13811131
230	0xbd978fe0	-0.07400489
231	0xbf554b1f	-0.8331775
232	0xbf02d46a	-0.5110537
233	0xbc7e4114	-0.0155184455
234	0x3cbb9266	0.022896957
235	0x3f421b35	0.75822765
236	0xbf2ce35e	-0.67534435
237	0xbe84fec4	-0.2597562
238	0xbf7df761	-0.99205595
239	0xbee419be	-0.4455089
240	0xbf7b5b0d	-0.9818581
241	0xbeab5f5e	-0.33471197
242	0x3dc8d4a3	0.09806182
243	0x3f52d606	0.82357824
244	0xbf192760	-0.59825706
245	0xbf00a332	-0.50249016
246	0xbf502e28	-0.8132043
247	0xbf0e110e	-0.55494773
248	0xbf5429d0	-0.828763
249	0x3e4a251e	0.19740722
250	0xbf02d8bc	-0.5111196
251	0xbf520ce5	-0.82050925
252	0x3e243387	0.16035281
253	0xbf23d4fb	-0.6399686
254	0x3d9f49b4	0.0777773
255	0xbeee8250	-0.46583796

base.fc1.weight f4 [400, 400]
0	0x3e4c3d30	0.19945216
1	0xbe28aa59	-0.16471232
2	0x3b72b4ab	0.0037033956
3	0xbd83e7e8	-0.06440717
4	0x3d17c35b	0.03705154
5	0x3cbb4f82	0.02286506
6	0xbb8183c3	-0.003952475
7	0xbf4bd1ca	-0.7961699
8	0xbdeab473	-0.11460199
9	0x3d920e67	0.07131653
10	0x3dbcc815	0.0921785
11	0x3e15887e	0.14602849
12	0x3bccf9bd	0.006255357
13	0xbd73a47d	-0.05948304
14	0xbdcdba4e	-0.100453004
15	0x3d44c602	0.048040397
16	0x3ca13999	0.019680785
17	0xbde2ba44	-0.110706836
18	0x3e635d89	0.2220365
19	0x3e056899	0.13028182
20	0xbf08b192	-0.5339595
21	0x3ebf05f7	0.37309238
22	0x3cc950c9	0.024574654
23	0x3eb534ed	0.35391942
24	0xbc3764b5	-0.011193444
25	0xbe8d3756	-0.2758128
26	0xbe3e2d89	-0.18572058
27	0xbc3f473e	-0.0116747
28	0xbe80213a	-0.2502535
29	0x3dbfd668	0.093670666
30	0xbd44da3f	-0.0480597
31	0xbea63f3d	-0.32470122
32	0xbeb507a7	-0.353574
33	0x3dff4059	0.12463445
34	0x3d7f1167	0.062272456
35	0x3e848762	0.2588454
36	0xbde35298	-0.11099738
37	0xbecb555f	-0.3971357
38	0xbe479c54	-0.19493228
39	0xbe150730	-0.14553523
40	0x3d23a84b	0.03995542
41	0xbe379200	-0.17926788
42	0x3e4bda2f	0.19907449
43	0xbe00412b	-0.1252486
44	0x3c9134bf	0.017725347
45	0xbe4fc1fc	-0.20288843
46	0xbf059ca7	-0.5219216
47	0x3e31082d	0.17288275
48	0x3edbf227	0.42958185
49	0xbe3217dd	-0.17391916
50	0x3d23f12a	0.040024914
51	0x3ea401ec	0.32032716
52	0xbec511a5	-0.38490024
53	0x3ea1b636	0.31584328
54	0xbd8ade18	-0.06780642
55	0xbe84911a	-0.25891954
56	0xbd94ee5a	-0.072720245
57	0x3dc26690	0.094922185
58	0xbe652dcf	-0.22380756
59	0xbd2ed079	-0.042679284
60	0xbcbfef34	-0.02342949
61	0xbe7d04d0	-0.24708867
62	0x3ee5d285	0.44887176
63	0xbc3a6402	-0.011376383
64	0xbe36fc86	-0.17869768
65	0xbbf77619	-0.00755192
66	0x3d5262e5	0.051363844
67	0xbe358547	-0.17726623
68	0xbe87cb75	-0.26522413
69	0x3ecdc29f	0.40187547
70	0xbdf37fac	-0.11889586
71	0x3e457212	0.19281796
72	0x3e0cd503	0.13753133
73	0x3e05406f	0.1301286
74	0xbd7f750e	-0.06236749
75	0x3ca004b5	0.019533494
76	0x3e622807	0.22085582
77	0x3b16499d	0.002293206
78	0x3f0eb9e2	0.55752385
79	0xbe58a895	-0.21158059
80	0xbdb9e2bd	-0.0907645
81	0x3ce14742	0.027499799
82	0xbda7c544	-0.08191922
83	0x3d781e90	0.06057602
84	0x3df2821e	0.11841224
85	0x3e96dc48	0.29464936
86	0xbcd1b87f	-0.02560067
87	0xbe1fb510	-0.15596414
88	0x3cf6e57c	0.030138724
89	0xbe8341f4	-0.25636256
90	0xbeb40701	-0.35161594
91	0x3ea120ef	0.3147044
92	0xbe0109dc	-0.12601417
93	0x3dcc5148	0.09976441
94	0x3babcad9	0.005242687
95	0x3e1c5633	0.15267257
96	0xbe17d44a	-0.14827076
97	0xbd908ecc	-0.07058486
98	0x3d5d19b9	0.05397961
99	0xbe091bbe	-0.13389489
100	0x3e3d6baf	0.1849811
101	0x3c036015	0.008018513
102	0x3d96b8c3	0.07359459
103	0xbded8bcd	-0.115989305
104	0x3da9307f	0.08261203
105	0xbdc72ccb	-0.097253405
106	0x3e988bd8	0.29794192
107	0x3e2e33a6	0.1701189
108	0xbc45b734	-0.012067605
109	0xbc67518e	-0.014118565
110	0x3e18dc0c	0.14927691
111	0x3d03f31c	0.03221427
112	0x3d3b3103	0.045701038
113	0x3a8a025b	0.0010529266
114	0x3e2d8047	0.16943465
115	0xbdcd410d	-0.10022173
116	0x3ebcb767	0.36858675
117	0x3e77155c	0.24129242
118	0x3e760a76	0.24027428
119	0xbea2f824	-0.3182994
120	0xbe1feb6e	-0.15617153
121	0xbeab69f5	-0.33479276
122	0x3daae74e	0.08344899
123	0xbcb572b1	-0.022149416
124	0xbc2f1703	-0.010686639
125	0xbd157cdd	-0.036496032
126	0xbe264c17	-0.16239963
127	0x3ef8b170	0.48572874
128	0x3d000edf	0.031264182
129	0x3e4e7fc4	0.20165926
130	0xbeb23a16	-0.3480994
131	0x3d37f6b2	0.044913
132	0xbca8da75	-0.02061198
133	0xbdb913cd	-0.0903698
134	0xbe5e5f0d	-0.21715946
135	0x3dc60499	0.09668846
136	0xbdd085ee	-0.10181795
137	0xbacad940	-0.0015476122
138	0xbde3e2cb	-0.11127242
139	0xbe3017b9	-0.1719655
140	0x3dd7a138	0.10528797
141	0x3d3941e5	0.045228858
142	0x3e12da05	0.1434098
143	0xbe69fd41	-0.22850515
144	0xbca9f4c0	-0.020746589
145	0x3e426b99	0.18986358
146	0xbde45576	-0.11149113
147	0x3cc3a234	0.023881055
148	0x3dbf8b81	0.0935278
149	0xbd189580	-0.03725195
150	0x3daf7b74	0.08568469
151	0xbc2385ac	-0.0099806
152	0xbdd710b5	-0.105012335
153	0x3ec24384	0.37942135
154	0xbd1564fc	-0.03647326
155	0x3dc5b888	0.09654337
156	0x3e613b57	0.21995293
157	0xbc8362a8	-0.016038254
158	0x3dad9b1b	0.0847685
159	0xbd67bcbd	-0.05657648
160	0x3e5fb1e9	0.21845211
161	0xbdab7ade	-0.083730444
162	0xbf0d59e9	-0.55215317
163	0xbecdb929	-0.40180328
164	0x3e16572b	0.1468169
165	0xbe09d4c4	-0.1346007
166	0x3dee6ee0	0.116422415
167	0x3c2f33be	0.010693489
168	0xbc449133	-0.011997509
169	0x3d0721f9	0.032991383
170	0x3dd24092	0.10266222
171	0x3de89c9d	0.113579966
172	0x3e2caff7	0.16864
173	0x3d5b1a38	0.0534918
174	0x3da7a1f0	0.08185184
175	0xbedabb1c	-0.42720878
176	0x3e19419a	0.14966431
177	0x3e6501d0	0.22363973
178	0xbe38e109	-0.18054594
179	0xbe9974a9	-0.29971817
180	0xbca21848	-0.019786969
181	0x3de40428	0.11133605
182	0xbe25f76d	-0.16207667
183	0x3e3e921c	0.18610424
184	0xbddfefff	-0.109344475
185	0xbd95c22b	-0.07312425
186	0x3d0d518a	0.03450159
187	0x3d8dc816	0.06922929
188	0x3d9f45f1	0.07777012
189	0xbe5b39e9	-0.2140881
190	0xbd5e9612	-0.054342337
191	0xbda5f612	-0.08103575
192	0x3c65aa5a	0.014017666
193	0x3f5a8032	0.8535186
194	0xbd9edae3	-0.07756593
195	0x3e4bd22b	0.19904391
196	0xbca329c8	-0.019917384
197	0x3d8603e5	0.065437116
198	0xbe7d0208	-0.24707806
199	0x3e6b6b52	0.22990158
200	0x3e7944c3	0.24342637
201	0x3d84edf9	0.06490702
202	0xbe781c64	-0.2422958
203	0xbd9155b4	-0.07096425
204	0xbdc3f4df	-0.0956819
205	0x3e88f3eb	0.26748595
206	0x3dd898cc	0.10576019
207	0x3d2e1ccd	0.042507935
208	0xbdc0b31c	-0.094091624
209	0x3b064aa5	0.002049127
210	0x3d0af7ee	0.03392785
211	0x3ea0c845	0.31402794
212	0xbca4e946	-0.020130765
213	0xbdc8f33d	-0.09812019
214	0x3eca1730	0.39470816
215	0x3e39927d	0.18122287
216	0xbe099eb4	-0.13439447
217	0x3dc18b10	0.09450352
218	0xbdcf2b8b	-0.10115727
219	0xbf0f2286	-0.55912054
220	0x3df8e5e8	0.12153226
221	0x3e5bd150	0.21466565
222	0x3d986fa9	0.074431725
223	0x3ec77cb6	0.38962334
224	0x3e9f4065	0.31103817
225	0xbe250118	-0.16113698
226	0x3db4ab5f	0.08821749
227	0x3c82d783	0.015971905
228	0xbd557576	-0.052113973
229	0x3d9c772e	0.07639919
230	0x3dee350e	0.11631213
231	0x3d697f60	0.05700624
232	0x3c96d590	0.018412381
233	0x3dacf06a	0.08444293
234	0x3da11d94	0.0786697
235	0x3c35e78e	0.01110257
236	0x3e096fc4	0.13421541
237	0xbdf26107	-0.11834913
238	0x3c6f08d6	0.014589509
239	0x3cc704c1	0.024294259
240	0xbe7b0c52	-0.24516419
241	0x3e31f8e7	0.17380105
242	0xbe1fd8eb	-0.15610091
243	0xbdea7c1e	-0.11449455
244	0x3d050f5c	0.03248535
245	0xbd4b0662	-0.049566634
246	0x3ec0d404	0.37661755
247	0x3dde6b7b	0.10860344
248	0xbe7c2359	-0.24622859
249	0xbe29714a	-0.16547123
250	0x3b8cc1dd	0.0042955712
251	0x3da0b077	0.07846158
252	0x3de7d57f	0.11320018
253	0x3e3fe2a4	0.187388
254	0xbc959151	-0.018257769
255	0xbe76b306	-0.2409173

base.fc1.bias f4 [400]
0	0x3ebfb9f6	0.37446564
1	0x3dc883a6	0.09790735
2	0x3d70c543	0.058781873
3	0xbe4fe892	-0.20303562
4	0xbe2d30ac	-0.16913098
5	0xbe41d4c6	-0.18928823
6	0x3d926d3e	0.071497425
7	0xbd09473a	-0.033515193
8	0x3d422ffe	0.04740905
9	0xbb5533f6	-0.0032532192
10	0x3d3b7bf0	0.045772493
11	0xbb6ca3bf	-0.0036108342
12	0x3e79dbc0	0.24400234
13	0x3da478fa	0.08030887
14	0x3da8b942	0.0823846
15	0xbe3503eb	-0.17677276
16	0xbede75b5	-0.43449178
17	0xbe790e12	-0.24321774
18	0xbe882c70	-0.26596403
19	0xbd99161b	-0.074749194
20	0x3cfd2156	0.030899685
21	0xbda8bb43	-0.08238842
22	0xbda66d80	-0.08126354
23	0x3d9e4f1b	0.07729932
24	0x3dbd635d	0.09247468
25	0x3d238482	0.03992129
26	0x3e8bd250	0.27308893
27	0xbef29fe6	-0.47387618
28	0xbea01ed6	-0.31273526
29	0x3d2ea571	0.042638246
30	0xbb375d37	-0.0027979144
31	0xbe267a12	-0.16257504
32	0xbd77a664	-0.060461417
33	0x3e17274c	0.14761084
34	0xbe66d330	-0.22541499
35	0xbec532d2	-0.38515335
36	0xbdb8c666	-0.090222165
37	0xbe6c0b77	-0.23051248
38	0x3d605c5f	0.054775592
39	0xbdd5c383	-0.104376815
40	0x3d22d9ca	0.03975848
41	0x3d37a4a0	0.044834733
42	0x3e26026b	0.1621186
43	0xbea847de	-0.3286733
44	0xbcfcaecf	-0.030845074
45	0x3d73f7d7	0.05956253
46	0xbe44e57c	-0.19228166
47	0x3d4d0064	0.0500492
48	0x3e68a1b8	0.22717941
49	0xbe1fe871	-0.15616013
50	0x3d06e47e	0.03293275
51	0xbc0f73d8	-0.008755647
52	0xbd816ab8	-0.06319183
53	0xbe81a195	-0.2531859
54	0x3d8852a7	0.0665639
55	0x3e9b06f8	0.30278754
56	0x3e4fcdd3	0.2029336
57	0x3d46e96b	0.04856245
58	0xbeeca37e	-0.46218485
59	0xbec8aace	-0.39192814
60	0x3d651c3a	0.055935122
61	0x3d1a85e7	0.037725355
62	0x3eb29be5	0.34884563
63	0x3d8658db	0.065599166
64	0x3ccb4846	0.024814736
65	0x3e0c10b8	0.13678253
66	0x3d6ae67b	0.05734871
67	0xbe8b94bb	-0.2726191
68	0x3db92840	0.0904088
69	0xbe2be30e	-0.16785833
70	0xbe04ef21	-0.12981845
71	0x3d06f010	0.032943785
72	0x3e72a846	0.23697004
73	0xbd0cdef9	-0.03439233
74	0x3db0d0ab	0.0863355
75	0xbe8610f6	-0.26184815
76	0xbe51cf4a	-0.20489231
77	0xbef9adfb	-0.4876555
78	0xbe02d498	-0.1277641
79	0x3d60959c	0.05483018
80	0xbeba9078	-0.36438346
81	0x3d53c1d8	0.051698536
82	0x3cf79769	0.030223565
83	0xbe8c881c	-0.27447593
84	0x3e4eb1e0	0.20185041
85	0x3da78078	0.081788
86	0xbf02654f	-0.50935835
87	0xbecf96ae	-0.40544647
88	0x3ed0e058	0.4079616
89	0xbd8b1306	-0.06790738
90	0x3db882e6	0.09009342
91	0x3d901ffb	0.0703735
92	0xbd9cfd30	-0.07665479
93	0xbf0148b5	-0.5050157
94	0xbe3d52ac	-0.18488568
95	0xbe803575	-0.25040784
96	0x3d7c2c22	0.061565526
97	0xbe279c17	-0.16368137
98	0xbdc78477	-0.097420625
99	0xbd3a678c	-0.045508906
100	0x3c9bd754	0.019023575
101	0xbe850f6c	-0.25988328
102	0x3d6450b5	0.05574103
103	0xbe01fbe5	-0.12693746
104	0x3d8d48b7	0.06898635
105	0xbef9d79b	-0.48797306
106	0xbd735f3c	-0.059416994
107	0xbcbda5f0	-0.023150414
108	0x3e0b9312	0.13630322
109	0xbe95ba6d	-0.29243794
110	0xbe0a7dd0	-0.13524556
111	0xbe809e3e	-0.2512073
112	0x3d8a218d	0.067446806
113	0xbf006ec0	-0.5016899
114	0xbef8eb1f	-0.48616883
115	0x3ee053f3	0.43814048
116	0x3cc11ef2	0.023574326
117	0x3ce1f721	0.02758366
118	0x3e1442c1	0.1447859
119	0x3d0fedc0	0.035138845
120	0x3d8ef1bc	0.06979701
121	0x3b55a1bb	0.003259762
122	0x3ea8724e	0.32899708
123	0xbc0746ed	-0.008256656
124	0x3d9d98fc	0.07695195
125	0x3d77d597	0.06050643
126	0xbe4c501c	-0.19952434
127	0x3cdaaa98	0.026692674
128	0xbe768a1c	-0.24076122
129	0xbe9fc03e	-0.31201357
130	0xbc8f75b9	-0.01751219
131	0x3da7f8f3	0.0820178
132	0x3d855dc0	0.06512022
133	0xbe6e157c	-0.23250383
134	0x3e255d99	0.16148986
135	0x3cbdbc8e	0.023161199
136	0x3d946f50	0.07247794
137	0x3d4c51bb	0.04988263
138	0xbc67322e	-0.014111085
139	0xbdb97288	-0.09055048
140	0xbe86a680	-0.26298904
141	0x3d7a7ba1	0.061153058
142	0x3d6cd347	0.057818677
143	0x3dda33df	0.10654425
144	0x3d71fa2e	0.05907648
145	0x3e1f0735	0.15530093
146	0x3ebb2385	0.36550537
147	0xbdcd26d2	-0.1001717
148	0xbd6d68a4	-0.05796112
149	0x3da32305	0.07965664
150	0x3d61a1ad	0.055085827
151	0xbe492af4	-0.19645292
152	0x3db89e24	0.09014538
153	0x3d5cb0b4	0.053879455
154	0x3c837ccb	0.016050717
155	0x3e5039bf	0.20334528
156	0x3d8789d3	0.06618085
157	0x3e3c94da	0.18416157
158	0xbe8047f4	-0.25054896
159	0xbe3457f7	-0.17611681
160	0x3e90ba88	0.28267312
161	0x3d461cd8	0.04836735
162	0xbe199dda	-0.15001622
163	0xbec1a143	-0.37818345
164	0x3d53e21d	0.05172931
165	0xbe54f394	-0.20796043
166	0x3e0a5a02	0.13510898
167	0xbf0e6640	-0.5562477
168	0xbd85f3df	-0.06540655
169	0xbe81d8c8	-0.25360703
170	0x3c81ef3a	0.015861142
171	0xbe2ac373	-0.1667612
172	0x3d6474ef	0.05577558
173	0xba41a026	-0.00073862297
174	0x3d7ea3c9	0.062167916
175	0xbec78afd	-0.38973227
176	0x3d8d77a6	0.06907587
177	0xbda7101c	-0.081573695
178	0x3de94958	0.11390942
179	0xbee9d70c	-0.4567188
180	0x3d5563c6	0.052097104
181	0x3d7b3834	0.061332896
182	0xbf0e7749	-0.55650765
183	0x3cf7e640	0.030261159
184	0x3d7ea355	0.062167484
185	0x3d309b02	0.043116577
186	0xbe85678e	-0.26055568
187	0xbf061f84	-0.5239184
188	0xbe1a2254	-0.15052158
189	0x3d3b9155	0.045792896
190	0x3c79d96e	0.015249593
191	0x3e413630	0.18868327
192	0xbd56f931	-0.05248374
193	0xbe179b6d	-0.14805384
194	0x3e9c3600	0.3050995
195	0x3d734ed3	0.059401345
196	0x3d56c76b	0.052436274
197	0xbee49fc5	-0.44653144
198	0x3d476a19	0.048685167
199	0xbe792659	-0.24331035
200	0xbd771305	-0.060320873
201	0xbe1dae48	-0.15398514
202	0x3e233f34	0.15942079
203	0xbd32243b	-0.043491583
204	0x3d55e09e	0.052216165
205	0xbd9bc26c	-0.076054424
206	0xbeaecccc	-0.34140623
207	0xbef69b9a	-0.4816559
208	0x3d9f4129	0.077761
209	0x3d656d33	0.056012344
210	0xbe2ecabd	-0.17069526
211	0x3d7e1018	0.062027067
212	0x3d8070fa	0.062715486
213	0xbd8061fd	-0.0626869
214	0x3d853121	0.06503511
215	0x3e286409	0.1644441
216	0xbeadba31	-0.33931115
217	0xbec5ec39	-0.38656786
218	0xbd9245db	-0.0714223
219	0x3c796c7a	0.015223617
220	0xbeca5481	-0.39517596
221	0x3c1462b6	0.009056738
222	0x3d4e3528	0.050343663
223	0x3e080005	0.13281257
224	0xbe9d8086	-0.30762118
225	0x3df6cedd	0.12051175
226	0x3da1a659	0.078930564
227	0x3e48810d	0.19580479
228	0xbd5568c0	-0.05210185
229	0xbd90be01	-0.0706749
230	0xbe85c625	-0.26127735
231	0xbc4f2006	-0.012641912
232	0x3d71ebef	0.059062894
233	0x3e191ddd	0.14952798
234	0xbeb153b0	-0.3463416
235	0xbd85ff09	-0.06542785
236	0x3e6cbf25	0.23119791
237	0xbe8c7f63	-0.27440938
238	0xbd98bfa9	-0.07458431
239	0x3d759d8a	0.059964694
240	0x3d15accd	0.03654175
241	0x3d67ac43	0.056560766
242	0x3d5b8253	0.053591084
243	0x3d7b8d3c	0.06141399
244	0xbe492283	-0.19642071
245	0x3e330039	0.17480554
246	0x3d60373d	0.05474018
247	0x3d909b7f	0.070609085
248	0x3d80606d	0.06268392
249	0xbdc8047f	-0.097664826
250	0xbea5eac7	-0.32405683
251	0x3d99c7e1	0.07508827
252	0x3d0ebc64	0.034847632
253	0x3dddc09b	0.10827752
254	0xbe304b79	-0.1721629
255	0xbf1ba313	-0.60795707

last.weight f4 [16, 400]
0	0xbd2733fe	-0.040821068
1	0x3e0be32f	0.13660882
2	0xbb201abe	-0.0024430002
3	0x3e9f2ad0	0.3108735
4	0x3d23ee8d	0.04002242
5	0xbdd42505	-0.103586234
6	0x3c99e6ad	0.018786753
7	0x3f072155	0.52785236
8	0xbcd57445	-0.026056418
9	0xbdd5339d	-0.10410235
10	0x3d8da7c1	0.06916762
11	0xbe109f11	-0.14123179
12	0xbd79225d	-0.060823787
13	0xbe3a16ae	-0.18172714
14	0x3b1f35b6	0.0024293489
15	0xbed27c9d	-0.41110697
16	0x3e4b00eb	0.19824569
17	0x3c9127f7	0.017719252
18	0xbcc27521	-0.023737492
19	0x3ebbd989	0.36689404
20	0xbc40c570	-0.011765823
21	0x3d14ee6a	0.036360182
22	0x3e70c307	0.23511897
23	0x3aca7096	0.001544493
24	0x3cf08330	0.02935943
25	0xbd06951b	-0.03285704
26	0x3dfe5a63	0.12419584
27	0x3e508884	0.20364577
28	0xbe035740	-0.12826252
29	0xbcd47895	-0.025936404
30	0x3eb13a07	0.34614584
31	0x3e4d2f40	0.20037556
32	0x3e83ab54	0.2571665
33	0x3d3d420c	0.046205565
34	0xbeb1e567	-0.34745333
35	0x3e3c4b87	0.18388186
36	0x3e5a11ed	0.212959
37	0xbeb7c6a0	-0.35893726
38	0xbc3a72fe	-0.011379955
39	0x3cfe3828	0.031032637
40	0x3c4cbea5	0.012496625
41	0x3d2c5378	0.04207179
42	0x3e51cc75	0.2048815
43	0x3dfe7d96	0.12426297
44	0xbe7991b8	-0.24371994
45	0x3dad68c6	0.084672496
46	0xbd973c27	-0.0738452
47	0xbb01c7a9	-0.0019802845
48	0x3cc2e375	0.0237901
49	0xbe48b6e5	-0.19601019
50	0x3ed58d3f	0.41709325
51	0xbdc33046	-0.09530692
52	0xbdd238ed	-0.10264764
53	0x3cc31a27	0.023816181
54	0x3c1b3b69	0.009474614
55	0xbdd2ac91	-0.10286821
56	0x3e0d3e7d	0.13793369
57	0xbb075a4e	-0.002065319
58	0x3ed41c4c	0.4142784
59	0xbe922bf1	-0.2854915
60	0xbb51ee3b	-0.0032032866
61	0xbd22b807	-0.039726283
62	0x3d9d04fd	0.07666967
63	0x3c52f792	0.012876408
64	0x3db23b2c	0.087026924
65	0xbd6e77ee	-0.058219843
66	0x3c52a192	0.012855904
67	0x3df02b48	0.11727005
68	0xbe63cc53	-0.22245912
69	0xbd3d493a	-0.046212412
70	0x3f08bdae	0.5341443
71	0xbe26a175	-0.16272528
72	0x3e25c5ed	0.16188784
73	0x3d1eac0f	0.038738307
74	0x3e2f7e17	0.17137943
75	0x3da9dd4e	0.08294164
76	0xbe024c6c	-0.12724465
77	0xbd17a3a9	-0.037021313
78	0x3da592b6	0.080846235
79	0x3da99602	0.08280565
80	0x3da4c870	0.08046043
81	0x3d96bc3b	0.07360121
82	0xbda91bc4	-0.08257249
83	0x3e43b471	0.19111802
84	0xbd4c69ec	-0.049905702
85	0x3de38346	0.11109023
86	0xbe861447	-0.26187345
87	0x3e5c3ccb	0.21507566
88	0xbd87bc2d	-0.066276886
89	0xbf036567	-0.513266
90	0xbe2de0c6	-0.16980276
91	0x3cee4e86	0.029090177
92	0x3daeb605	0.08530811
93	0xbd56559e	-0.052327745
94	0xbf013f5a	-0.5048729
95	0x3e1924d0	0.14955449
96	0x3c5c8074	0.01345836
97	0xbe80c06f	-0.25146815
98	0x3da1ee00	0.07906723
99	0x3e47415a	0.19458523
100	0x3d43f352	0.04783947
101	0x3e4df45e	0.2011275
102	0xbcbe0985	-0.023197899
103	0xbde07d5e	-0.10961412
104	0x3b0579df	0.002036683
105	0xbdd1c47f	-0.10242557
106	0x3dffa232	0.12482108
107	0xbdb362a4	-0.087590486
108	0x3c237757	0.009977183
109	0xbe8a3cc7	-0.26999494
110	0x3d46da91	0.048548285
111	0x3d9839c6	0.074328944
112	0x3c28cbbf	0.010302483
113	0xbe4376af	-0.19088243
114	0x3eba60f0	0.36402082
115	0x3d87a761	0.06623722
116	0xbe413ce5	-0.18870886
117	0xbdfaef17	-0.12252634
118	0xbdce8278	-0.10083479
119	0x3cde1e92	0.027114186
120	0x3be02603	0.006840469
121	0x3eba6ea4	0.36412537
122	0x3beb9680	0.007189572
123	0xbd891897	-0.06694143
124	0xba465bf7	-0.00075668044
125	0xbae5eb19	-0.0017541378
126	0xbd74cd8f	-0.05976635
127	0xbdea526b	-0.11441501
128	0xbdaa38ae	-0.08311592
129	0xbe03ce7b	-0.12871735
130	0x3d6746cf	0.056464013
131	0xbcdd0484	-0.026979692
132	0xbbadb96b	-0.0053016446
133	0xbe1f1e61	-0.15538932
134	0x3d742d8c	0.05961375
135	0x3ecb1265	0.3966247
136	0x3c437f1f	0.0119321635
137	0x3c27a868	0.010233022
138	0xbe0d07f9	-0.13772573
139	0x3e92afb7	0.28649685
140	0x3efef1c7	0.49793836
141	0xba135029	-0.000561955
142	0xbb2f1506	-0.0026715412
143	0xbe8b95f3	-0.2726284
144	0xbbadb949	-0.0053016287
145	0x3c0a11f0	0.008427128
146	0xbe3c9df7	-0.18419634
147	0xbda4a5e5	-0.08039454
148	0xbd7c7086	-0.06163075
149	0x3f29ce48	0.66330385
150	0x3d45a0f2	0.048249193
151	0x3e02dc10	0.1277926
152	0xbddb7465	-0.1071556
153	0x3bc42a62	0.0059864977
154	0x3e1505e1	0.14553024
155	0x3cac2a4c	0.021016262
156	0x3b490349	0.0030672124
157	0x3d579194	0.05262907
158	0x3c0eadb4	0.008708406
159	0xbdafa322	-0.08576037
160	0x3e5c4b0b	0.21513002
161	0xbcd99ffe	-0.026565548
162	0xbdb1cf8e	-0.08682166
163	0xbe139a61	-0.1441436
164	0xbdc90ecc	-0.098172754
165	0x3d71353c	0.05888866
166	0xbcfa7fee	-0.03057858
167	0xbdab5833	-0.08366432
168	0x3ce32dd1	0.027731808
169	0x3e017f82	0.12646297
170	0xbd90b433	-0.0706562
171	0xbe08d55f	-0.13362645
172	0x3c2157b5	0.009847571
173	0x3cc8875f	0.024478612
174	0x3c3a33df	0.011364906
175	0x3e75b8ca	0.23996273
176	0xbca498ea	-0.020092446
177	0x3b1b50fc	0.0023699393
178	0xbd21e656	-0.039526306
179	0xbe78639e	-0.24256751
180	0x3e1ca84d	0.15298577
181	0xbd352413	-0.044223856
182	0xbddf9914	-0.10917869
183	0xbd85104e	-0.064972505
184	0x3c7985ff	0.015229701
185	0xbd184f60	-0.037185073
186	0x3ee6bd49	0.45066288
187	0xbd3574e7	-0.04430094
188	0x3c8300ae	0.015991535
189	0xbbd8a9b5	-0.0066120275
190	0xbd327bb9	-0.043575022
191	0x3d5ed2b4	0.05440016
192	0xbd7d9b23	-0.061915528
193	0x3d18a452	0.037266083
194	0xbde0d29d	-0.10977671
195	0xbc769058	-0.015049063
196	0xbbb743d8	-0.0055928044
197	0xbdfbfa76	-0.12303631
198	0xbc4629f7	-0.012094966
199	0xbd8842b2	-0.06653346
200	0x3d0a4a6d	0.033762384
201	0xbdd6b1b4	-0.10483113
202	0xbd2ffaa1	-0.042963628
203	0x3dd89602	0.10575487
204	0xbe0cd070	-0.13751388
205	0xbd034921	-0.032052163
206	0x3e81ee1e	0.25376981
207	0x3d94332d	0.072363235
208	0xbdfa316d	-0.122164585
209	0xbcc155a9	-0.023600416
210	0xbd4f326a	-0.050585188
211	0xbad5c577	-0.001630946
212	0x3bcf7f42	0.006332309
213	0x3e4520a7	0.19250737
214	0xbe4dd539	-0.20100869
215	0x3d950958	0.07277173
216	0x3ebd0496	0.3691756
217	0xbdaf410f	-0.08557331
218	0x3e017e5a	0.12645856
219	0x3d241bf0	0.040065706
220	0x3de85d05	0.11345867
221	0x3da36480	0.07978153
222	0x386ad69e	5.5989825e-05
223	0x3c4329e0	0.011911839
224	0x3dc43082	0.09579565
225	0x3c34f752	0.011045294
226	0xbdaee74a	-0.08540209
227	0xbe04b573	-0.12959842
228	0xbe87a7be	-0.26495165
229	0xbe83c8cb	-0.2573913
230	0x3d544e3c	0.051832423
231	0xbd8628d3	-0.06550755
232	0xbe01a3c0	-0.12660122
233	0x3ddefd0b	0.10888108
234	0xbec1d98b	-0.37861285
235	0x3a64fff8	0.0008735652
236	0xbd0ebc68	-0.034847647
237	0x3db1e309	0.08685882
238	0x3dd08d11	0.10183156
239	0xbca18e69	-0.019721227
240	0x3db74122	0.0894797
241	0xbe25da49	-0.1619655
242	0x3e0340e6	0.12817726
243	0x3c94624c	0.018113278
244	0x3d43dd2c	0.047818348
245	0x3da3e76a	0.08003123
246	0xbdc9a96b	-0.09846767
247	0xbe8f40ed	-0.27979222
248	0x3b44ae37	0.0030011067
249	0x3cdfe253	0.0273296
250	0x3e96375e	0.29339117
251	0xbc1c15df	-0.009526699
252	0xbd092a40	-0.03348756
253	0x3d4e086a	0.050300993
254	0x3d20b991	0.03923947
255	0x3e9156b0	0.2838645

last.bias f4 [16]
0	0x3e48d577	0.1961268
1	0x3f03c790	0.51476383
2	0xbec17872	-0.37787205
3	0xbe2acc36	-0.16679463
4	0xbe926660	-0.2859373
5	0x3e8850fc	0.26624286
6	0xbdc93080	-0.09823704
7	0xbd9d6123	-0.07684543
8	0xbe21b86c	-0.15793008
9	0x3e933373	0.2875019
10	0xbee65a71	-0.44990876
11	0x3ca97c85	0.020689258
12	0xbd2d91a0	-0.042375207
13	0xbda2c4d5	-0.07947699
14	0x3e4b780a	0.1987001
15	0x3ea4b7e3	0.32171544
