log/MUJOCO_ANT_DIR_12_v4/Ant-v3/6/model/model_qf_task_7862.pth (torch, 27411 bytes, 4 tensors)

base.fc0.weight f4 [400, 12]
0	0xbcf63047	-0.030052317
1	0x3cb29f97	0.021804614
2	0xbccd592a	-0.02506693
3	0xbc9bd48a	-0.019022245
4	0xbcaf5190	-0.021401197
5	0xbcd3dfc0	-0.025863528
6	0x3cb2a39a	0.021806527
7	0x3bffa540	0.0078016818
8	0x3c888063	0.016662782
9	0xbcda01f3	-0.026612258
10	0xbcc6dada	-0.024274278
11	0x3d44955d	0.047994006
12	0x3bc5f533	0.006041193
13	0xbc35490d	-0.01106478
14	0x3d4a1133	0.04933281
15	0x3cf3e210	0.029770881
16	0xbc903c47	-0.017606867
17	0x3d43add2	0.04777319
18	0x3b6d15e7	0.0036176385
19	0x3bf4c9a7	0.007470328
20	0x3c362cf3	0.011119115
21	0x3d0dab08	0.034586936
22	0xbd04b192	-0.032395907
23	0x3cee84d0	0.029116064
24	0x3cc96687	0.024585022
25	0x3bb59280	0.005541146
26	0x3be6f027	0.0070476714
27	0xbcc40523	-0.02392823
28	0xbd129fd0	-0.03579694
29	0x3cbe3b63	0.023221677
30	0x3c63d6e7	0.013906217
31	0x3c65095a	0.01397928
32	0x3c33b607	0.010968692
33	0x3b80525a	0.003916067
34	0xbd169bd5	-0.036769707
35	0xbd1cd2f2	-0.03828711
36	0xbd0acc97	-0.03388652
37	0xbcff1103	-0.031136042
38	0x3b19b280	0.0023452342
39	0x3bf7aecd	0.0075586797
40	0x3d4bc0c2	0.049744375
41	0xbc9d0363	-0.019166654
42	0x3d304afd	0.043040264
43	0xbd11ab18	-0.03556356
44	0x3cd9e133	0.026596641
45	0x3d1d3795	0.038383085
46	0xbbbb730d	-0.005720502
47	0xbbcd6e27	-0.0062692347
48	0x3d349f6b	0.044097345
49	0x3c740713	0.014894265
50	0xbd3dfc13	-0.046382975
51	0xbce72a23	-0.028218335
52	0xbca26460	-0.019823253
53	0xbc2afce7	-0.010436273
54	0xbb4078b3	-0.0029368817
55	0x3c5634da	0.013074124
56	0xbcc97a13	-0.024594342
57	0x3d022c57	0.031780567
58	0xbb8e9e00	-0.004352331
59	0x3c805d6d	0.015669549
60	0x3bc92a67	0.006139088
61	0xbb8c8800	-0.0042886734
62	0x3d1005ad	0.035161663
63	0x3bd5450d	0.0065084756
64	0xbce14613	-0.027499234
65	0x3d0387ba	0.03211186
66	0x3d011e3a	0.031522967
67	0xbcb7f737	-0.022456748
68	0xbd25ecdd	-0.040509094
69	0xbb20534d	-0.0024463714
70	0xbd0cd5c3	-0.034383547
71	0xbcb66b47	-0.02226795
72	0xbc51af00	-0.012798071
73	0x3d035e78	0.032072514
74	0x3d422d1d	0.047406305
75	0x3d40030d	0.04687791
76	0xbd0dd5a5	-0.034627575
77	0xbbf7120d	-0.0075399936
78	0x3d283f38	0.041075915
79	0x3d171593	0.03688581
80	0xbd28ed2d	-0.041241813
81	0x3d266f0a	0.04063324
82	0xbd12cb90	-0.035838664
83	0x3c69b8c7	0.014265246
84	0xbb0f96e7	-0.0021910013
85	0x3d4a0540	0.049321413
86	0xbd213fe7	-0.039367583
87	0x3b337e00	0.0027388334
88	0xbc9db8e7	-0.019253207
89	0xbc83e5dd	-0.016100818
90	0xbca8ca07	-0.020604147
91	0x3cfa00da	0.030517984
92	0x3cc18a87	0.023625625
93	0x3d300523	0.04297365
94	0x3d152a3a	0.036417224
95	0xbd313198	-0.043260187
96	0xbd460507	-0.04834464
97	0xbd48f040	-0.049057245
98	0x3c3b551a	0.011433864
99	0xba471133	-0.00075938104
100	0x3caf8c77	0.021429284
101	0xbcd3018d	-0.025757575
102	0x3d0a5daa	0.03378073
103	0x3cc3edfd	0.023917193
104	0xbd073cdf	-0.033017036
105	0xba3aab9a	-0.00071209075
106	0x3c8eaad0	0.017415434
107	0x3d1dc3bf	0.038516756
108	0xbc35dbc7	-0.011099762
109	0x3c229e8d	0.009925497
110	0xbcea2afd	-0.028584952
111	0xbd086cc3	-0.03330685
112	0xbc6aa8ad	-0.014322442
113	0x3b94d65a	0.0045421543
114	0xbd1f988f	-0.03896385
115	0xbca3af20	-0.019980967
116	0xbd398e5a	-0.045301773
117	0xba0360cd	-0.0005011678
118	0x3d3d4fb2	0.04621858
119	0x3c2f66c0	0.01070565
120	0x3d422e02	0.047407158
121	0xbd400f45	-0.046889562
122	0x3cc48130	0.023987383
123	0xbc42d76d	-0.011892182
124	0xbcc946a3	-0.024569815
125	0x3d03ca5b	0.032175403
126	0x3d2386f5	0.039923627
127	0xbd1e6b65	-0.03867664
128	0x3cbf28b0	0.023334831
129	0x3c6a2cc7	0.014292902
130	0x3b9dbef3	0.0048140227
131	0x3ccc4683	0.024935966
132	0x3cdbdc93	0.026838576
133	0x3ce7dc90	0.028303415
134	0xbd4133c3	-0.047168504
135	0xbab0319a	-0.0013442517
136	0xbc8cca17	-0.017186208
137	0x3ce9009d	0.028442675
138	0x3d01eb7d	0.03171872
139	0xbc8dfe83	-0.017333275
140	0xbd275f8b	-0.0408626
141	0x3d0d9efb	0.034575444
142	0xbd35e427	-0.044407036
143	0x3cd1781d	0.02556997
144	0xbb894da7	-0.004190165
145	0xbbd69c73	-0.006549412
146	0xbc1ad420	-0.009449989
147	0x3cf671b3	0.030083513
148	0xbb58a4b3	-0.0033057153
149	0x3a1e2467	0.0006032646
150	0x3d054678	0.032537907
151	0xbbf64ccd	-0.0075164796
152	0xbd445385	-0.047931213
153	0xbd370513	-0.044682574
154	0xbcbfdaaa	-0.023419697
155	0xbce4cd1d	-0.027929837
156	0x3d144722	0.03620065
157	0xbd485c28	-0.048916012
158	0x3d2f67bb	0.042823534
159	0x3c8a58aa	0.016887981
160	0xbd09156a	-0.033467688
161	0xb7cb8ccd	-2.4265051e-05
162	0xbccf3c6a	-0.025297362
163	0x3cded1aa	0.027199585
164	0xbc29c0c7	-0.010360903
165	0xba3d059a	-0.00072106125
166	0x3d325f5f	0.043547984
167	0x3d234630	0.039861858
168	0xbcf0b1d3	-0.029381668
169	0x3d1e908b	0.038712066
170	0xbc74c773	-0.0149401305
171	0x3bc2d440	0.0059457123
172	0xbceb5e37	-0.028731449
173	0xbb5e7b33	-0.0033947944
174	0xbc395ccd	-0.011313629
175	0x3ca9319a	0.020653535
176	0xbd0fe0d5	-0.035126526
177	0xbcd4d55a	-0.02598064
178	0xbb5e6e00	-0.0033940077
179	0xbd0574f7	-0.03258225
180	0xbd2b3d0a	-0.04180626
181	0x3c43913a	0.01193648
182	0xbd145fcb	-0.036224168
183	0xbcaf0373	-0.02136395
184	0xbd28a5eb	-0.041173857
185	0x3d25ed63	0.040509593
186	0x3bce189a	0.006289554
187	0xbcbee8da	-0.023304392
188	0xbc91ce43	-0.017798549
189	0x3d0f4cff	0.03498554
190	0x3cf3bc6a	0.029752929
191	0x3d0f3025	0.034958024
192	0x3c5f0c80	0.01361382
193	0x3cd66f5d	0.026176149
194	0xbcf923e0	-0.030412614
195	0xbd19b793	-0.037528586
196	0x3d057fcd	0.032592583
197	0xbd4b2c5f	-0.049602862
198	0x3b624233	0.003452432
199	0xbcf6d160	-0.030129135
200	0xbbe2591a	-0.0069075944
201	0xbd1065db	-0.035253387
202	0x3c9648da	0.018345285
203	0xbd3d17ca	-0.046165265
204	0xbc8f5a10	-0.017499
205	0xbbe35a4d	-0.006938255
206	0xbd34f470	-0.044178426
207	0xbd00c4af	-0.031437572
208	0x3c0bdef3	0.008537042
209	0xbcfb3b27	-0.030667854
210	0xbd0752ea	-0.033038057
211	0xbc8902e3	-0.01672501
212	0xbd31ea6b	-0.04343645
213	0xbbdaa227	-0.006672162
214	0xbc091e5a	-0.008369053
215	0x3d35e8d8	0.04441151
216	0xbc6ddffa	-0.014518732
217	0x3d40f602	0.04710961
218	0xbd3ebc1b	-0.04656611
219	0x3c173ea0	0.00923124
220	0xbcb4f41d	-0.022089059
221	0xbc8ecf2a	-0.017432768
222	0x3b3d8e00	0.002892375
223	0x3b95bbda	0.004569513
224	0xbc776e80	-0.015102029
225	0x3c2f8413	0.010712641
226	0x3d195578	0.037435025
227	0x3d4bddaa	0.049771942
228	0xbb815773	-0.0039471923
229	0xbd16683d	-0.036720503
230	0xbb7d1867	-0.0038619281
231	0xbbc68bc0	-0.00605914
232	0x3ce07303	0.027398592
233	0xbbc48400	-0.005997181
234	0x3d165d1b	0.036709886
235	0xbc4b0c7a	-0.012393111
236	0x3d03a637	0.032140937
237	0x3d1b3d7f	0.037900444
238	0xbc153c87	-0.009108669
239	0x3ce0d497	0.02744512
240	0x3d0016e7	0.03127184
241	0x3cdb0b63	0.026738828
242	0x3c938583	0.018008
243	0xbc48129a	-0.012211466
244	0xbd3c4b43	-0.045970213
245	0xbd41116b	-0.04713575
246	0xbc9d8ba7	-0.01923163
247	0xbc13971a	-0.009008193
248	0x3c93adfa	0.018027294
249	0xbbf3c18d	-0.0074388445
250	0x3d2fcc7d	0.042919625
251	0x3c25ba93	0.010115284
252	0xbc33c0da	-0.010971272
253	0xbce13add	-0.027493889
254	0x3aa8a800	0.0012867451
255	0x3cb55c1a	0.022138644

base.fc0.bias f4 [400]
0	0x3dcccccd	0.1
1	0x3dcccccd	0.1
2	0x3dcccccd	0.1
3	0x3dcccccd	0.1
4	0x3dcccccd	0.1
5	0x3dcccccd	0.1
6	0x3dcccccd	0.1
7	0x3dcccccd	0.1
8	0x3dcccccd	0.1
9	0x3dcccccd	0.1
10	0x3dcccccd	0.1
11	0x3dcccccd	0.1
12	0x3dcccccd	0.1
13	0x3dcccccd	0.1
14	0x3dcccccd	0.1
15	0x3dcccccd	0.1
16	0x3dcccccd	0.1
17	0x3dcccccd	0.1
18	0x3dcccccd	0.1
19	0x3dcccccd	0.1
20	0x3dcccccd	0.1
21	0x3dcccccd	0.1
22	0x3dcccccd	0.1
23	0x3dcccccd	0.1
24	0x3dcccccd	0.1
25	0x3dcccccd	0.1
26	0x3dcccccd	0.1
27	0x3dcccccd	0.1
28	0x3dcccccd	0.1
29	0x3dcccccd	0.1
30	0x3dcccccd	0.1
31	0x3dcccccd	0.1
32	0x3dcccccd	0.1
33	0x3dcccccd	0.1
34	0x3dcccccd	0.1
35	0x3dcccccd	0.1
36	0x3dcccccd	0.1
37	0x3dcccccd	0.1
38	0x3dcccccd	0.1
39	0x3dcccccd	0.1
40	0x3dcccccd	0.1
41	0x3dcccccd	0.1
42	0x3dcccccd	0.1
43	0x3dcccccd	0.1
44	0x3dcccccd	0.1
45	0x3dcccccd	0.1
46	0x3dcccccd	0.1
47	0x3dcccccd	0.1
48	0x3dcccccd	0.1
49	0x3dcccccd	0.1
50	0x3dcccccd	0.1
51	0x3dcccccd	0.1
52	0x3dcccccd	0.1
53	0x3dcccccd	0.1
54	0x3dcccccd	0.1
55	0x3dcccccd	0.1
56	0x3dcccccd	0.1
57	0x3dcccccd	0.1
58	0x3dcccccd	0.1
59	0x3dcccccd	0.1
60	0x3dcccccd	0.1
61	0x3dcccccd	0.1
62	0x3dcccccd	0.1
63	0x3dcccccd	0.1
64	0x3dcccccd	0.1
65	0x3dcccccd	0.1
66	0x3dcccccd	0.1
67	0x3dcccccd	0.1
68	0x3dcccccd	0.1
69	0x3dcccccd	0.1
70	0x3dcccccd	0.1
71	0x3dcccccd	0.1
72	0x3dcccccd	0.1
73	0x3dcccccd	0.1
74	0x3dcccccd	0.1
75	0x3dcccccd	0.1
76	0x3dcccccd	0.1
77	0x3dcccccd	0.1
78	0x3dcccccd	0.1
79	0x3dcccccd	0.1
80	0x3dcccccd	0.1
81	0x3dcccccd	0.1
82	0x3dcccccd	0.1
83	0x3dcccccd	0.1
84	0x3dcccccd	0.1
85	0x3dcccccd	0.1
86	0x3dcccccd	0.1
87	0x3dcccccd	0.1
88	0x3dcccccd	0.1
89	0x3dcccccd	0.1
90	0x3dcccccd	0.1
91	0x3dcccccd	0.1
92	0x3dcccccd	0.1
93	0x3dcccccd	0.1
94	0x3dcccccd	0.1
95	0x3dcccccd	0.1
96	0x3dcccccd	0.1
97	0x3dcccccd	0.1
98	0x3dcccccd	0.1
99	0x3dcccccd	0.1
100	0x3dcccccd	0.1
101	0x3dcccccd	0.1
102	0x3dcccccd	0.1
103	0x3dcccccd	0.1
104	0x3dcccccd	0.1
105	0x3dcccccd	0.1
106	0x3dcccccd	0.1
107	0x3dcccccd	0.1
108	0x3dcccccd	0.1
109	0x3dcccccd	0.1
110	0x3dcccccd	0.1
111	0x3dcccccd	0.1
112	0x3dcccccd	0.1
113	0x3dcccccd	0.1
114	0x3dcccccd	0.1
115	0x3dcccccd	0.1
116	0x3dcccccd	0.1
117	0x3dcccccd	0.1
118	0x3dcccccd	0.1
119	0x3dcccccd	0.1
120	0x3dcccccd	0.1
121	0x3dcccccd	0.1
122	0x3dcccccd	0.1
123	0x3dcccccd	0.1
124	0x3dcccccd	0.1
125	0x3dcccccd	0.1
126	0x3dcccccd	0.1
127	0x3dcccccd	0.1
128	0x3dcccccd	0.1
129	0x3dcccccd	0.1
130	0x3dcccccd	0.1
131	0x3dcccccd	0.1
132	0x3dcccccd	0.1
133	0x3dcccccd	0.1
134	0x3dcccccd	0.1
135	0x3dcccccd	0.1
136	0x3dcccccd	0.1
137	0x3dcccccd	0.1
138	0x3dcccccd	0.1
139	0x3dcccccd	0.1
140	0x3dcccccd	0.1
141	0x3dcccccd	0.1
142	0x3dcccccd	0.1
143	0x3dcccccd	0.1
144	0x3dcccccd	0.1
145	0x3dcccccd	0.1
146	0x3dcccccd	0.1
147	0x3dcccccd	0.1
148	0x3dcccccd	0.1
149	0x3dcccccd	0.1
150	0x3dcccccd	0.1
151	0x3dcccccd	0.1
152	0x3dcccccd	0.1
153	0x3dcccccd	0.1
154	0x3dcccccd	0.1
155	0x3dcccccd	0.1
156	0x3dcccccd	0.1
157	0x3dcccccd	0.1
158	0x3dcccccd	0.1
159	0x3dcccccd	0.1
160	0x3dcccccd	0.1
161	0x3dcccccd	0.1
162	0x3dcccccd	0.1
163	0x3dcccccd	0.1
164	0x3dcccccd	0.1
165	0x3dcccccd	0.1
166	0x3dcccccd	0.1
167	0x3dcccccd	0.1
168	0x3dcccccd	0.1
169	0x3dcccccd	0.1
170	0x3dcccccd	0.1
171	0x3dcccccd	0.1
172	0x3dcccccd	0.1
173	0x3dcccccd	0.1
174	0x3dcccccd	0.1
175	0x3dcccccd	0.1
176	0x3dcccccd	0.1
177	0x3dcccccd	0.1
178	0x3dcccccd	0.1
179	0x3dcccccd	0.1
180	0x3dcccccd	0.1
181	0x3dcccccd	0.1
182	0x3dcccccd	0.1
183	0x3dcccccd	0.1
184	0x3dcccccd	0.1
185	0x3dcccccd	0.1
186	0x3dcccccd	0.1
187	0x3dcccccd	0.1
188	0x3dcccccd	0.1
189	0x3dcccccd	0.1
190	0x3dcccccd	0.1
191	0x3dcccccd	0.1
192	0x3dcccccd	0.1
193	0x3dcccccd	0.1
194	0x3dcccccd	0.1
195	0x3dcccccd	0.1
196	0x3dcccccd	0.1
197	0x3dcccccd	0.1
198	0x3dcccccd	0.1
199	0x3dcccccd	0.1
200	0x3dcccccd	0.1
201	0x3dcccccd	0.1
202	0x3dcccccd	0.1
203	0x3dcccccd	0.1
204	0x3dcccccd	0.1
205	0x3dcccccd	0.1
206	0x3dcccccd	0.1
207	0x3dcccccd	0.1
208	0x3dcccccd	0.1
209	0x3dcccccd	0.1
210	0x3dcccccd	0.1
211	0x3dcccccd	0.1
212	0x3dcccccd	0.1
213	0x3dcccccd	0.1
214	0x3dcccccd	0.1
215	0x3dcccccd	0.1
216	0x3dcccccd	0.1
217	0x3dcccccd	0.1
218	0x3dcccccd	0.1
219	0x3dcccccd	0.1
220	0x3dcccccd	0.1
221	0x3dcccccd	0.1
222	0x3dcccccd	0.1
223	0x3dcccccd	0.1
224	0x3dcccccd	0.1
225	0x3dcccccd	0.1
226	0x3dcccccd	0.1
227	0x3dcccccd	0.1
228	0x3dcccccd	0.1
229	0x3dcccccd	0.1
230	0x3dcccccd	0.1
231	0x3dcccccd	0.1
232	0x3dcccccd	0.1
233	0x3dcccccd	0.1
234	0x3dcccccd	0.1
235	0x3dcccccd	0.1
236	0x3dcccccd	0.1
237	0x3dcccccd	0.1
238	0x3dcccccd	0.1
239	0x3dcccccd	0.1
240	0x3dcccccd	0.1
241	0x3dcccccd	0.1
242	0x3dcccccd	0.1
243	0x3dcccccd	0.1
244	0x3dcccccd	0.1
245	0x3dcccccd	0.1
246	0x3dcccccd	0.1
247	0x3dcccccd	0.1
248	0x3dcccccd	0.1
249	0x3dcccccd	0.1
250	0x3dcccccd	0.1
251	0x3dcccccd	0.1
252	0x3dcccccd	0.1
253	0x3dcccccd	0.1
254	0x3dcccccd	0.1
255	0x3dcccccd	0.1

last.weight f4 [3, 400]
0	0x3b2ba726	0.0026192158
1	0x3b3fd532	0.0029271361
2	0x3a26a398	0.0006356775
3	0x3a2ca2ec	0.00065855565
4	0x3afa0e9a	0.0019077838
5	0x393eb38d	0.000181867
6	0xbb42b252	-0.0029708338
7	0xb936be3e	-0.00017427743
8	0x3abe207b	0.001450553
9	0xbaa83220	-0.0012832321
10	0xbafd369c	-0.0019318643
11	0xba345c17	-0.00068801775
12	0x3ad7456d	0.0016423889
13	0x3a7b9b96	0.0009598074
14	0xbb2e2e1c	-0.0026577776
15	0xba5f6550	-0.00085218716
16	0xba6a3ab4	-0.0008935139
17	0xba4ecc9e	-0.00078887667
18	0x3ab08f9c	0.0013470533
19	0xbb20aef5	-0.0024518345
20	0x396d1989	0.00022611594
21	0xb9dc76fa	-0.00042050314
22	0xba9df72f	-0.0012051816
23	0xb9e98b81	-0.00044545162
24	0x3a686200	0.0008864701
25	0xbb02db16	-0.0019967011
26	0xbb0ec573	-0.002178517
27	0xb829d979	-4.0495277e-05
28	0x3a957ad3	0.0011404402
29	0x3b1f839e	0.0024339925
30	0xbb3c0207	-0.0028687732
31	0x3990d0b4	0.00027621316
32	0x3b04a9d6	0.0020242832
33	0x3b232444	0.0024893442
34	0x3a3444a4	0.00068766833
35	0xbb11591c	-0.0022178357
36	0xbb277a02	-0.00255549
37	0x3a11e260	0.00055650435
38	0x3b1adba5	0.0023629453
39	0x3aef1c13	0.001824262
40	0xb9b09d06	-0.00033686328
41	0x3acf610e	0.0015821771
42	0x3b3149d0	0.0027052052
43	0xbb08f6a0	-0.0020898953
44	0x3abbc0ae	0.0014324391
45	0x3b16414f	0.002292711
46	0x396fc181	0.00022864902
47	0xbacd286a	-0.0015652303
48	0x3b03494d	0.0020032704
49	0x3a3cfdf0	0.00072094705
50	0x3b30df44	0.0026988545
51	0x3b11d742	0.0022253548
52	0xbb0a7f2d	-0.0021132932
53	0xb9e20db6	-0.00043116295
54	0xb91ed204	-0.00015146291
55	0x3a68d119	0.00088812556
56	0xba873254	-0.0010314682
57	0x3b3c0213	0.002868776
58	0xbb035aac	-0.0020043058
59	0xbb2e6548	-0.0026610661
60	0xbb1f0019	-0.0024261533
61	0xba7a4c85	-0.00095481455
62	0xba5b347d	-0.00083620084
63	0x3a42d6e3	0.00074325333
64	0x3b13693e	0.002249315
65	0xbaece575	-0.0018073755
66	0xbb389fe4	-0.0028171474
67	0xb9028d71	-0.00012450457
68	0x3b4236aa	0.0029634633
69	0x3a1e5bcb	0.00060409
70	0x3a9194f4	0.0011107014
71	0xb7a87f7d	-2.0086527e-05
72	0x392d4375	0.00016523695
73	0x3b1ea661	0.0024208056
74	0xb8505560	-4.9670576e-05
75	0xbb1b7908	-0.0023723263
76	0x3a3314f8	0.00068314327
77	0x3b22ef93	0.0024862036
78	0x3b0a2bd6	0.0021083257
79	0x3a315ce8	0.0006765858
80	0x3b38acaa	0.0028179088
81	0xbb0b0cd6	-0.0021217368
82	0xb988f287	-0.00026120638
83	0xbab4ee4c	-0.0013803928
84	0xbb3a8d81	-0.002846569
85	0xba8ae527	-0.0010596857
86	0xb8723b02	-5.775225e-05
87	0xbb207578	-0.002448408
88	0x3b3ed57c	0.0029118946
89	0x3b3d34fb	0.002887069
90	0xba9c13f8	-0.0011907807
91	0xb8681bc7	-5.533898e-05
92	0xba556687	-0.0008140583
93	0x38df7385	0.00010654986
94	0xbb208435	-0.0024492864
95	0x3b301718	0.0026869234
96	0xb94d192f	-0.00019559705
97	0xbaf623b6	-0.0018778953
98	0x3acaa382	0.0015460106
99	0xbaeeec31	-0.001822835
100	0xbb43e9c1	-0.0029893967
101	0xbb287541	-0.0025704654
102	0xbb0aa82d	-0.002115737
103	0xbaca9d73	-0.00154583
104	0xbb185916	-0.0023246459
105	0xbb359264	-0.0027705664
106	0xbaabe487	-0.0013114371
107	0xbb38d2a3	-0.002820172
108	0xba448937	-0.0007497253
109	0x3a254837	0.00063050113
110	0x3a2efa40	0.00066748634
111	0xb8e00ed9	-0.00010683918
112	0xba9cdf02	-0.0011968317
113	0xba453540	-0.00075228885
114	0x3a44d5b4	0.0007508651
115	0xbb324efd	-0.0027207725
116	0xb9d50740	-0.00040631928
117	0xbb02db3e	-0.0019967104
118	0xb94c4f64	-0.00019484531
119	0x3b2b8780	0.0026173294
120	0xba3fa108	-0.00073100673
121	0xbabc3f82	-0.0014362189
122	0x3ad84d35	0.0016502502
123	0xbb3cf4f0	-0.0028832518
124	0xb9c68035	-0.00037861025
125	0xbae7da51	-0.0017688965
126	0x39b49ac1	0.00034447576
127	0x3b13ad70	0.0022533797
128	0xbab60c38	-0.001388914
129	0xbb18e132	-0.0023327586
130	0xbb111459	-0.0022137372
131	0x3b27d7db	0.0025610838
132	0xba5720e5	-0.0008206501
133	0xbb347e23	-0.0027541004
134	0xb9a6b158	-0.0003179412
135	0x3b1ecc96	0.002423083
136	0x3a276d94	0.0006386873
137	0xbb3b70f5	-0.0028601263
138	0xb927c50e	-0.0001599977
139	0x3acd5ac4	0.0015667309
140	0xbb24bc5b	-0.0025136683
141	0x38a85de3	8.028352e-05
142	0x3af39bb6	0.0018585834
143	0x3b2856f8	0.0025686603
144	0x3adf9ef0	0.0017060917
145	0x3b094750	0.0020947047
146	0x3ac3c31c	0.0014935466
147	0xb9e5538d	-0.00043740534
148	0x3b1ef484	0.002425463
149	0xbb102575	-0.0021994982
150	0xba02a7b8	-0.00049840985
151	0x3adc74da	0.0016819492
152	0x3b1b0024	0.0023651207
153	0x3af8b4fd	0.0018974837
154	0x3b08fbf3	0.0020902127
155	0x3b41b034	0.0029554488
156	0x393dda4e	0.0001810577
157	0x3ae3ae32	0.001737064
158	0xba86656b	-0.0010253614
159	0x3abeab7a	0.0014546954
160	0xba891d99	-0.0010461091
161	0xbb379b93	-0.0028016313
162	0xbadf21b4	-0.0017023594
163	0x3b3a7485	0.0028450799
164	0xba946c40	-0.0011323765
165	0xba68f0d3	-0.0008885983
166	0xba987143	-0.0011630434
167	0x3b063131	0.0020476098
168	0xba5530a6	-0.00081325544
169	0xbb350167	-0.0027619244
170	0x3b1a7599	0.0023568629
171	0x39ae8252	0.00033284962
172	0xbafd1289	-0.0019307892
173	0x3a986261	0.0011625999
174	0x3ab44cb1	0.0013755766
175	0xba82f68f	-0.0009991693
176	0x3b23e3c9	0.0025007597
177	0x3ae9d6bf	0.0017840489
178	0x3ac26469	0.001483095
179	0x3ae231d8	0.0017257286
180	0xbaa08bbd	-0.0012248677
181	0x3b40ebf6	0.0029437519
182	0xb8ebf51f	-0.000112513306
183	0x393a00ac	0.00017738593
184	0x3821faa0	3.8618804e-05
185	0xbb353500	-0.0027649999
186	0x39d7f5f8	0.00041191257
187	0x3ab4e0cf	0.0013799908
188	0xbb2b7aa2	-0.0026165624
189	0x3abad3d9	0.0014253809
190	0x3af1674e	0.0018417628
191	0x3ae32e91	0.0017332603
192	0xbaab67e2	-0.0013077224
193	0x39dac596	0.00041727413
194	0x3b17d8ad	0.002316992
195	0xbac77871	-0.001521839
196	0xb9f7eacd	-0.0004728645
197	0x3a6651a4	0.0008785969
198	0xbb19dfdc	-0.0023479378
199	0xbb41a38d	-0.0029546947
200	0x3b38415e	0.0028115134
201	0x3a693f6d	0.0008897696
202	0xbb13f9e8	-0.0022579376
203	0x3b2aaaef	0.0026041826
204	0x3b1937bc	0.0023379168
205	0xba0fecc7	-0.00054902997
206	0xbb360b50	-0.002777774
207	0xba572ac3	-0.0008207971
208	0xba5d2064	-0.00084353075
209	0xbb0ede43	-0.0021799959
210	0xbb2ed08c	-0.0026674597
211	0x3a9bf178	0.0011897525
212	0x3b3b0745	0.0028538269
213	0xb9dcef50	-0.00042139972
214	0xbb2d076a	-0.0026402124
215	0xba03ea4e	-0.00050321675
216	0x3a8e51d6	0.0010858129
217	0xba4ce2d3	-0.0007815782
218	0x3b3926be	0.0028251852
219	0x3a6c9d7b	0.0009026152
220	0xbb19cb84	-0.0023467252
221	0x3ac9fe4e	0.0015410872
222	0xbb445645	-0.0029958647
223	0x39bca81d	0.00035983408
224	0x3ad54853	0.0016272165
225	0xbb195274	-0.0023395093
226	0xbab6fe55	-0.0013961295
227	0xba866bfb	-0.0010255569
228	0x3b0bdca4	0.002134123
229	0xb8956979	-7.1245195e-05
230	0x3b1131af	0.0022154858
231	0x3a371b13	0.00069849304
232	0xbb304c94	-0.0026901113
233	0x3a5c4a5c	0.00084034144
234	0xbaf1a91a	-0.0018437237
235	0xbb4457be	-0.0029959525
236	0xbb352e84	-0.0027646134
237	0xbb0668aa	-0.0020509162
238	0xbade910b	-0.0016980482
239	0x3a9fe593	0.0012199156
240	0xbb261eb7	-0.0025347897
241	0x39d1e046	0.00040030683
242	0x3ae92550	0.0017787609
243	0xbaeecc21	-0.0018218794
244	0x3b1a9d81	0.0023592415
245	0xbac641db	-0.0015125828
246	0x3b3038e9	0.002688939
247	0xbaf929e4	-0.0019009677
248	0xbb07960e	-0.0020688805
249	0xba8ac9e0	-0.0010588728
250	0x3a410262	0.0007362721
251	0xba5c3562	-0.00084002886
252	0xbad0501c	-0.0015893015
253	0x3b09ab71	0.0021006728
254	0xbab0e658	-0.0013496382
255	0xb9a457aa	-0.00031345832

last.bias f4 [3]
0	0x3b281298	0.0025645848
1	0x3b0b64d5	0.0021269817
2	0x3972ea98	0.00023166311
