log/MUJOCO_ANT_DIR_12_v4/Ant-v3/6/model/model_pf_state_best.pth (torch, 848933 bytes, 6 tensors)

base.fc0.weight f4 [400, 111]
00000000: c76c a8be 6c1a b2bf 7e81 643f 83f3 1dbf
00000010: 784c bebe 2fdc 06bf d5f9 c1be 99cc 233e
00000020: f703 493e 0b9e b9bc 9b1f 813e 18e6 7dbd
00000030: 1302 ed3d 81f5 253e 5f5c 2e3f a8b7 8d3e
00000040: 9005 2c3e b380 333e fdb8 09be 4b62 1a3b
00000050: b783 423c 390d 6cbc 55df f63c 992f 38bc
00000060: ebc4 e03d d2e6 133d 57c7 b93d 6a5b 833c
00000070: e720 1e3b 7acd d23c 3a43 413d ed04 b6bc
00000080: 0080 5fbb ed4d 25bd 001a 823b c3d8 0a3d
00000090: c76f 6cbc f3f8 a7bc 1a9b 5ebb 7ad4 c1bc
000000a0: 67bb 353c 17f0 1dbd 270c 97bb 00ac d9b9
000000b0: cd3c 343c cd22 e03a d315 2d3c 738c 3dbc
000000c0: 1ab0 c2bc 20be 0abd 2a24 33bd cd9a 4cbc
000000d0: 1a62 8cbc 4721 c0bc 4826 103d 6a6c 90bc
000000e0: a798 c23b e729 8d3b 6b3f 2ebd 2a2a dabc
000000f0: 7d3a 213d fad5 2cbc 4026 07bc da5b 63bc
00000100: bab6 15bc ba1e 17bc cf28 49bd c56f 10bd
00000110: 97fe c23c ad0d 9bbc 0f9f 203d 4774 a4bc
00000120: e0f7 d23c c75c 60bc f752 43bd c054 e0bc
00000130: 00a6 ab3c ad36 773c 005d de3a 8dad cfbb
00000140: 255e 2abd 0b24 42bd da4d ffbc 672e 7b3a
00000150: 5ddb 1b3d ddf8 183d b34b 393c 1a79 03bc
00000160: 7345 4cbd cdae 76ba b7ad a4bc efec 4bbd
00000170: 67c2 2fbc 5a78 e93b 40e9 ffbc 8d42 6b3c
00000180: cd75 bdbb 331c 75bb 733a ed3c fdd1 0c3d
00000190: 68a0 4bbd 5059 ef3c 3330 df3a 600b 983c
000001a0: 8d3e 1d3c 336b 0fba 3210 3dbd dfdd 393d
000001b0: da0e d43b ed09 b13c 1342 3dbd 610f 8bbe
000001c0: a9b7 19be a593 36bc d30d f83f 4859 0f3f
000001d0: dc93 043e e239 6cbe e93a a2bd c599 e83e
000001e0: 3a10 d73e 5fc9 f13d 8c3c 1ebe de4e 6dbe
000001f0: 223d babd 9178 df3c b73e 033f efcb 543e
00000200: ceab 8abd f00f 203f 062a 943d 9c7b 91bb
00000210: 007f 0d3e febf 23bd 00a0 a73d eeb4 0fbb
00000220: 7179 773d a939 d33c a266 2b3d 07f2 c3bc
00000230: 0792 603c 1768 cebc ad32 c5bc fb98 36bd
00000240: 4ffd 48bd 808c fbbb 0dc1 1a3c 3d7a 0dbd
00000250: 7de1 863c b843 493d ba7f 003c 83d0 0dbd
00000260: 7db3 e53c 9318 d03c c0d7 5dbc 8069 ba3b
00000270: 83bb 983c 9aa8 a0bb c0ae f4bc fd2c fabc
00000280: 1a27 2d3b 3d4f 363d 0047 cc3a 47be 20bc
00000290: 2d34 913c a04a 3abc a782 c93c b5ad 3ebd
000002a0: ff1a 333d d230 393d f311 6e3c cdbb 8dbc
000002b0: 80a3 7d3c a76b 173d 5d59 ccbc d757 023d
000002c0: 9a8f 11bd 10e6 94bc 80b7 c2bb df21 113d
000002d0: 3f7b 0b3d 3254 2abd 671c dd3c 60ad 8fbc
000002e0: 27e7 cc3b 854e 213d 3318 42bd 0a9c a63c
000002f0: 4a0d 25bd eda0 41bd d739 273d 93be d9bc
00000300: 8785 f5bc 9a4a 723c 3348 71bc b2c1 1a3d
00000310: 632d 2cbd a76d 3abd e3fe 293d 97c6 3b3d
00000320: 0395 363d 001d bb3a 33da 49bb e3eb c6bc
00000330: 2d03 08bc 2d5d e93c 87cd 02bd e3b1 9a3c
00000340: e72d e3bb 80e3 f9bb 80c4 07bc c26b 3a3d
00000350: 5a51 bf3c cdbb 7bbc e777 0abd d872 1b3d
00000360: 73c4 9d3b aacb 2d3d bbd1 393d c00f a6bb
00000370: 4a91 423d 7a15 d0bc 6b0d 2cbf 55a4 42bf
00000380: 80e4 a9bf 4cf1 43bf a8f0 973f 9bd7 dfbe
00000390: c4ff ddbe 1d7f 27be df32 893e baa1 05bf
000003a0: 99dc 4f3e 48db 293f 10ee 66bf d143 943e
000003b0: 987a 79be bd2d e63e 1ffc 023f aec1 fabc
000003c0: d1a6 363e 0940 60bc f007 863b db4c 873c
000003d0: a17e 223e 9e6f c43c 881f 25be 24a4 6e3d
000003e0: c4fb babc 6762 aa3a bd7e 4abd 5b89 18bd
000003f0: 7a1b 2ebc 5704 9b3c a05d 453c 88de 2fbd
-0.3289549 -1.3914313 0.8926009 -0.61699694 -0.37167716 -0.52679724 -0.3788592 0.15996017
0.19630419 -0.022658369 0.25219426 -0.061987013 0.11572661 0.16206934 0.681097 0.2767918
0.16798997 0.17529564 -0.13449474 0.0023557122 0.011872224 -0.014407449 0.03013579 -0.011241817
0.10975059 0.0361088 0.09071224 0.0160348 0.0024128498 0.025732744 0.047183253 -0.022219146
-0.0034103394 -0.04035752 0.0039703846 0.033898126 -0.014430947 -0.02050445 -0.003396696 -0.023660887
0.0110920435 -0.038559046 -0.004609603 -0.00041517615 0.011000824 0.0017100215 0.010564285 -0.01156913
-0.023765612 -0.033872724 -0.04373566 -0.012488079 -0.017136622 -0.023453368 0.035192758 -0.01762982
0.0059386077 0.0043079737 -0.04254095 -0.026631434 0.03936242 -0.010549063 -0.008248866 -0.01387688
-0.009137804 -0.009223634 -0.049111184 -0.03526284 0.023803039 -0.01892742 0.03921419 -0.020074977
0.025752962 -0.013693995 -0.047686543 -0.027384162 0.020953178 0.015088719 0.0016964972 -0.0063378275
-0.04159369 -0.047397655 -0.031165052 0.00095818046 0.038050998 0.03734671 0.011309552 -0.008024478
-0.04987092 -0.00094102026 -0.020102365 -0.049786504 -0.0107275015 0.0071249427 -0.031239152 0.014359129
-0.005781865 -0.0037400841 0.028958535 0.034379948 -0.049713522 0.029217392 0.0017027914 0.018560112
0.009597433 -0.0005470991 -0.046158023 0.04537761 0.006471497 0.021611178 -0.04620559 -0.2716017
-0.15011467 -0.0111436 1.9379219 0.5599561 0.12947029 -0.23068956 -0.079213925 0.45429817
0.42004567 0.118059866 -0.15452784 -0.23174617 -0.090936914 0.02727917 0.5126757 0.2078092
-0.067710504 0.6252432 0.07234578 -0.004439784 0.13817978 -0.03997802 0.081848145 -0.002192791
0.06041855 0.02578433 0.041845925 -0.023919119 0.013706691 -0.025196118 -0.024072016 -0.044579487
-0.0490697 -0.007676661 0.009445441 -0.034540404 0.016464943 0.049136847 0.007842952 -0.03462268
0.028039688 0.025402343 -0.013540208 0.005688846 0.0186441 -0.0049029114 -0.029868484 -0.03053903
0.0026421011 0.04450916 0.0015585124 -0.009810991 0.017725075 -0.011370331 0.024598433 -0.04655238
0.043726917 0.045212574 0.014530647 -0.017301464 0.015480876 0.0369679 -0.024944955 0.03182205
-0.03553734 -0.018176109 -0.005942285 0.035432693 0.034053084 -0.0415842 0.026991082 -0.017538726
0.0062531414 0.039381523 -0.04738636 0.020338077 -0.040295877 -0.04727261 0.040826645 -0.02658013
-0.029970897 0.014788294 -0.014726686 0.03778238 -0.04203547 -0.04551473 0.041502845 0.045843687
0.044575702 0.001427561 -0.0030800223 -0.024282401 -0.008301538 0.028486812 -0.031934287 0.018883651
-0.006932962 -0.007625997 -0.008286595 0.045512922 0.023354221 -0.015364599 -0.033805754 0.03795132
0.0048146783 0.042430557 0.04536603 -0.0050677955 0.04750184 -0.025400866 -0.67207974 -0.76032
-1.3272858 -0.76540065 1.1870317 -0.4371918 -0.43359196 -0.16357084 0.26796624 -0.521999
0.20298995 0.6635022 -0.90207005 0.2895799 -0.24363172 0.4495677 0.51165956 -0.030609932
0.17837073 -0.013687142 0.0040903017 0.01651614 0.15868618 0.023979004 -0.1612531 0.058262005
-0.02282513 0.0012999297 -0.049437273 -0.037240367 -0.010626668 0.018922968 0.012046248 -0.04293683

base.fc0.bias f4 [400]
00000000: d27e cbbe ec6c 99bd 174e 02bf 3400 013f
00000010: 0fb2 40bf a783 253f d818 46bf e9d1 79bf
00000020: 9207 2e3e b4e5 01bf 2313 38bf 46ae cf3e
00000030: 72a6 1c3f 8e57 cc3e 34d4 3a3e e96f d73e
00000040: 0d66 5bbf 0a58 45bf 820b b0be ba15 0e3f
00000050: c15a 77bf 7231 6d3f 5055 c1ba 639d e3be
00000060: 73c8 72be 9f36 91bf e0c3 19bf e0a0 b7be
00000070: 586e b3be 030c 99be a53c b83d c0bb a2be
00000080: d693 00bf bc2a 163e 570f f1be 4f61 53bf
00000090: f9e0 15bf 0eac 73bf 76e8 623e 2197 15bd
000000a0: fae1 b33e 960a acbe f13c 3ebf 7df3 f1be
000000b0: 3a5e f63d 29a3 ff3d b5e8 78be 9585 ccbe
000000c0: bba6 1c3f 0938 343f 0668 9c3e c327 a73d
000000d0: d90f a0be 4a5f 9fbe d8af 36bf 9ce4 b93e
000000e0: 015a 46be 3e80 4fbe 0f9d c63e ecbc 6abf
000000f0: d045 90be 9eaa 58bf a987 d3be fa8b 733e
00000100: 6a62 8ebd d948 12bf 25fd 29be 9527 17bf
00000110: c4b0 293e 3b63 3b3e 7920 00bf 1555 61be
00000120: 9691 b43e 1bdc 58bf 5145 5dbe 5958 2e3e
00000130: 5a6e 2e3e 87dc f03d 3494 2abe e284 cfbe
00000140: e818 39bf b6f9 0ebe f3ed 783f 52bc 0fbf
00000150: 65aa 3abf 4563 c9bb bfca ebbe fc21 433e
00000160: 8c83 56be fc05 39bf f213 103e ffec fcbe
00000170: be64 1bbf 7364 853f 0bb5 81be ee0a eabe
00000180: 63a1 5bbe e23d ac3d b4ab 5cbf 1950 0bbf
00000190: bbde 64bb be7f b13e ee8b c03e 1870 38be
000001a0: ab17 c7bd 8939 f1bd d24e b43d 05f0 c1be
000001b0: a78e 28bf 3550 73be f60d f1be 605e d4be
000001c0: aabf 0fbf c8d0 923d ea8c 2fbe 4be9 d93e
000001d0: 8606 f8bd 036c 843f 248a 0b3f 15fc 13bf
000001e0: 3ec8 cabd 2c19 37bf 1c45 fcbe b0b9 0a3f
000001f0: 203c 09bf 3340 54bf 2e48 443e 9b25 2dbf
00000200: 28c4 29bf 0510 3ebf 9d35 073f f51a 6fbf
00000210: e42b 10bf a854 84be 0560 8dbd d64d 133f
00000220: 9b89 38bf e511 91bd dd05 bbbe 188d 23bf
00000230: 83b9 b0bd f49f e1be dd9a 8d3e efcd 933e
00000240: c565 183e 2fcf a2be 3aae 73be ed2c ddbe
00000250: 671a 983e bfd9 5cbe 3300 43bf e23e 96be
00000260: 9fdf 04be 197e b9be 3d7f 223d b6a9 d73d
00000270: 8f13 ea3c 2a01 bdbe f277 0abc 665b 11bc
00000280: 491b 31be 3ac8 f7be 1982 2bbf 75a1 3fbf
00000290: d311 2b3f 0557 20be e638 e03e 748b 06bf
000002a0: 75fe 063f 304e 37be aa16 bdbe be8d 463c
000002b0: d181 eabd 0568 b9be b21f 343f 5b7d 8abf
000002c0: 23f3 b63e 227c d9bd 18eb 77bf ca4a 34bf
000002d0: a00d 25be 5297 c33e 6b19 6dbe be10 dcbe
000002e0: 11da 5dbf 8710 d53d f163 45bf 32db 573f
000002f0: b3f0 92be 01ce 1bbf ae57 093f fd55 6abf
00000300: 521c f1be 90d8 193f 1883 523e 93fd 1bbf
00000310: 3de4 e5be f498 efbe e670 cbbe 48b7 31bf
00000320: f58b 3e3e 1401 0cbf 8f45 7b3f 519d 433e
00000330: c58e 23bc aaa5 22be 6653 ee3e fbdb 0fbf
00000340: f758 42be 77ba 6dbf aef4 3ebf 178d d8be
00000350: ae7c efbe 0a8a 9fbc d015 f93e e767 83be
00000360: c1fc f83e 4a5a 8abf 9efc bd3e 0d0f 09be
00000370: 6297 5ebf 0c44 d2be 1bfa 9abf 517d 16be
00000380: 8e03 83be 694a 09be ce7a 4d3e 35be 24bf
00000390: 01b2 70bf cef3 073e d2b9 8fbd 8da6 58bf
000003a0: f12f 04bf 44f9 c0bc b592 293c 99e6 443f
000003b0: b42c 2fbf 1bac 62be ef52 7dbf 175f ecbe
000003c0: ff54 75bf 673f acbe 4955 cc3d 4487 513f
000003d0: 1f9b 12bf 63f0 f9be 7f90 53bf 9125 08bf
000003e0: fd1b 51bf 4e21 4d3e 98bf 08bf 6dae 51bf
000003f0: cd8b 3c3e 9e3f 24bf e642 2a3d 562b 00bf
-0.39745194 -0.07491478 -0.50900406 0.50390935 -0.75271696 0.6465401 -0.7738166 -0.9758592
0.16995075 -0.50741124 -0.719042 0.40562648 0.61191475 0.3991055 0.18245012 0.42077568
-0.8570259 -0.7708746 -0.3438378 0.555019 -0.96622854 0.9265357 -0.0014750157 -0.44456014
-0.23709278 -1.1344794 -0.60064507 -0.35864925 -0.35045123 -0.29891977 0.08995942 -0.31783867
-0.5022558 0.1466474 -0.47082016 -0.82570356 -0.58546406 -0.9518441 0.2215899 -0.03652108
0.35133344 -0.33601826 -0.7431174 -0.4725608 0.12029691 0.12482292 -0.2430752 -0.39945665
0.6119191 0.70398 0.30548114 0.08161881 -0.3126209 -0.31127387 -0.71362066 0.36307228
-0.19370271 -0.20263764 0.387917 -0.9169452 -0.28178263 -0.8463534 -0.41314438 0.23783866
-0.06952365 -0.57142407 -0.16600473 -0.5904477 0.16571337 0.18299572 -0.5004955 -0.22005112
0.35267323 -0.84710854 -0.21608473 0.1702589 0.17034283 0.11760812 -0.16658098 -0.4053107
-0.7230363 -0.13962445 0.9723808 -0.5614673 -0.7291625 -0.006145867 -0.4605312 0.19055933
-0.20948619 -0.72274756 0.14070109 -0.49399564 -0.60700595 1.042128 -0.25333437 -0.45711464
-0.21448283 0.08410241 -0.861995 -0.54419094 -0.0034922797 0.34667772 0.37606758 -0.1801151
-0.09721311 -0.11778552 0.08804096 -0.37878433 -0.6584267 -0.23761065 -0.47080964 -0.41478252
-0.5615183 0.07168728 -0.17143598 0.425608 -0.12110619 1.0345463 0.5450766 -0.5780652
-0.099014744 -0.71522784 -0.49271476 0.54189587 -0.5360737 -0.8291046 0.1916816 -0.67635506
-0.66314936 -0.74243194 0.5281618 -0.9340051 -0.5631697 -0.25845838 -0.0690308 0.57540643
-0.7208497 -0.07083491 -0.3652791 -0.63887167 -0.086291336 -0.44067347 0.27657214 0.28868052
0.14882572 -0.31798694 -0.23796931 -0.43198338 0.29707643 -0.21567439 -0.7617218 -0.2934485
-0.1297593 -0.36229017 0.039672125 0.10530417 0.02857378 -0.3691495 -0.008451449 -0.008871889
-0.17295565 -0.48394948 -0.6699539 -0.7485574 0.6682407 -0.15658195 0.4379341 -0.5255654
0.5273202 -0.1790092 -0.36931354 0.012118755 -0.11450542 -0.36212173 0.70360863 -1.0819505
0.35732374 -0.106193796 -0.968431 -0.7042662 -0.16118479 0.38201386 -0.23154227 -0.42981523
-0.8666087 0.10403543 -0.77105623 0.8431884 -0.28699264 -0.6086121 0.53649414 -0.9153746
-0.4709192 0.60096073 0.20557821 -0.609338 -0.44900694 -0.4679638 -0.39734572 -0.6942029
0.18608077 -0.54689145 0.98153013 0.1910298 -0.009982769 -0.15883508 0.46548003 -0.5619504
-0.1897925 -0.9286265 -0.745921 -0.42295143 -0.4677481 -0.019475002 0.48649454 -0.2566521
0.48630336 -1.0808804 0.37106794 -0.13384648 -0.8694974 -0.4106754 -1.2107576 -0.14696242
-0.2558865 -0.13407291 0.20066378 -0.6435273 -0.9402161 0.13276598 -0.07017864 -0.84629136
-0.5163565 -0.02355636 0.010349919 0.76914364 -0.68427587 -0.22135966 -0.9895467 -0.46166298
-0.9583282 -0.33642122 0.09977204 0.81847024 -0.57267946 -0.48816213 -0.8264236 -0.5318232
-0.8168333 0.20032236 -0.5341735 -0.8190678 0.18412705 -0.6415957 0.041567706 -0.50066125

base.fc1.weight f4 [400, 400]
00000000: e728 5f3e 6056 1ebe 9402 e5bc 865c 83bd
00000010: 897e 473d 2455 223d 1b3f 00bc 3316 40bf
00000020: 4f92 aabd 5831 003e aa8f ac3d 8a04 c03d
00000030: 22bc 813b 8c51 95bd 455f b7bd 6bc7 c13c
00000040: 2f9f 1abc dda2 92bd 4d18 473e 6d2e 0c3e
00000050: baa5 09bf b74f c03e 4b86 233d 1170 d73e
00000060: fc8b 35bd 314e 7ebe e618 32be 06ca 4dbd
00000070: 6334 61be 77f6 053e 0a7a 0cbd 8aba 9fbe
00000080: b3d4 c5be c966 b83d 0f10 1c3d fc36 123e
00000090: f192 0cbe 1113 a8be 5393 51be fadb c5bd
000000a0: 467b 4d3d c32a 2dbe c612 403e 7d09 f5bd
000000b0: c9e4 193d c5d4 4cbe a134 ecbe ddce 133e
000000c0: 42e5 db3e f93a 38be 3fbe e83c a925 983e
000000d0: 1ebe c6be 6f1c b33e f5e1 17be 2047 38be
000000e0: 403d 83bd f3bf 483e b88c 59be 8ccb ecbd
000000f0: cbfe b1bc 281c 8dbe 83a9 f33e bcaa 283c
00000100: 3a21 44be a315 56bd 92f1 033d 7816 3abe
00000110: 837b 94be abc8 bd3e 908f 1ebe cff4 5a3e
00000120: fbdc 0e3e f4fd e53d 851f 10bd f365 edbc
00000130: 388f 623e b750 073c 1a71 153f 61b3 66be
00000140: b5f1 f7bc 2b46 933c 588e a3bd 871e 263d
00000150: fb77 ac3d b345 a23e e038 b4bc 90fc 39be
00000160: 496b f3ba 237b 8dbe 62f6 99be 4ac0 aa3e
00000170: 53e1 1ebe ebb6 f53d 15fa c8b9 813c 3c3e
00000180: 96aa 3fbe 389a b7bd edd3 a5bc a8ec 3abe
00000190: 3ce2 4b3e 2be2 383c e8cb c43d 2525 24be
000001a0: 7107 bf3d defa ccbd ea09 8e3e 7a10 313e
000001b0: 6c16 4a3c df68 f5bc 08d4 493e cb27 573d
000001c0: bb85 78bc dd1a 41bc af80 183e d042 a5bd
000001d0: d1dd 8d3e 8066 753e bcf1 723e 01df 8fbe
000001e0: 66e1 38be 42c5 b0be a8d8 c63d 0ca6 25bd
000001f0: c5bb 95bb 14d4 02bd bf47 cebd 32a8 c63e
00000200: fab8 853d df62 243e b7dc 98be 3491 af3d
00000210: 973a 78bd 6d70 e0bd eb8f 69be 3937 d33d
00000220: bef0 66bd d563 ddba 7f81 07be cb56 2cbe
00000230: 3409 4c3d 9f04 9a3d 7c6b 1d3e fbda 83be
00000240: 651e 363c 6af7 3a3e 3aee fabd 6fb0 5b3d
00000250: 28d4 143e 7153 0bbd 46f5 083e f10b d03a
00000260: e396 babd ca0f a13e b0e9 6ebd aa3e 8d3d
00000270: 4658 633e 61b7 01bd 561c ad3d bf06 8bbd
00000280: a9f8 a33d 7f27 97bd 23ee 10bf e431 dabe
00000290: aa4d 0d3e a318 a7bd 8e1c db3d 234f 803c
000002a0: b26d f73a f092 ff3c dd75 023e cd18 ec3d
000002b0: 7b43 0c3e ea00 4a3d 6b4f d43d 445d cabe
000002c0: 0655 fb3d 5c45 8b3e 7af0 33be 7f58 a4be
000002d0: 5011 003c 3199 1f3e c15b 1abe ccc9 343e
000002e0: db9d d1bd 3e43 89bd 4ccb 8abc 1d1d 8f3d
000002f0: d8a6 aa3d eeae 64be f76b 7abd 3664 98bd
00000300: be1a 013d 3c87 5a3f 1128 9bbd b271 603e
00000310: fd9e 8bbd a726 e93d fff1 6fbe 7282 663e
00000320: 386d 6d3e 63d2 53bd 0a78 6cbe a3c8 b5bd
00000330: 700e cebd 4521 853e 1cf1 fe3d b052 9a3d
00000340: 33f2 dfbd 814d 2a3c c21c 523d 3cde 8d3e
00000350: d590 183c bde0 83bd efbc cc3e 77e9 2a3e
00000360: 660d d2bd 65f0 ee3d 75ff e0bd d08a 15bf
00000370: c8f0 be3d d8be 4e3e 5e46 7f3d 2b33 cc3e
00000380: 7073 983e 1b31 37be b6f5 c23d 39ec b13d
00000390: cd0f 8dbd 7d3a bf3d 4f26 b13d 576e e93c
000003a0: fc1b 4d3b d63d ca3d e085 d63d 9453 8c3c
000003b0: a4aa b83d 28c2 c3bd cf54 663d 714c 023d
000003c0: 73a8 52be 708b 343e 7ce2 37be ab37 f5bd
000003d0: 68ed 483c 05de a83c a594 be3e ad99 263e
000003e0: 4128 94be 082c 03be c7b5 50bd 8051 c33d
000003f0: 49e4 a73d 3180 313e 5f54 1a3c 04c8 4abe
0.21792947 -0.15462637 -0.02795533 -0.06414132 0.048704658 0.039631978 -0.0078275455 -0.75033873
-0.083286874 0.12518823 0.08425839 0.09375866 0.0039591948 -0.072909445 -0.08953718 0.02365466
-0.009437366 -0.0715997 0.19442864 0.13689585 -0.53768504 0.37560818 0.039922994 0.42077687
-0.044322953 -0.24834515 -0.1739231 -0.050241493 -0.2199264 0.130823 -0.034296073 -0.31197006
-0.3863884 0.0900398 0.038101252 0.14278787 -0.13727929 -0.32827047 -0.20466356 -0.09661098
0.05016639 -0.16910844 0.18757161 -0.119647 0.037571702 -0.2000304 -0.46133903 0.14434381
0.42948347 -0.17991246 0.028411029 0.29716232 -0.38816923 0.3498263 -0.1483229 -0.17995882
-0.06408167 0.19604473 -0.21245086 -0.11562261 -0.02172794 -0.27560544 0.47590265 0.0102946125
-0.191533 -0.052266728 0.0322128 -0.18172634 -0.29000482 0.3706716 -0.15484452 0.2138245
0.13951485 0.11230078 -0.03518631 -0.028979277 0.22124946 0.00825899 0.58375704 -0.22529365
-0.030266622 0.017977795 -0.07986134 0.040556457 0.08421322 0.316938 -0.021999776 -0.18162751
-0.0018571402 -0.27633008 -0.30070788 0.3334983 -0.15515642 0.119977795 -0.00038333298 0.18382455
-0.18717417 -0.08964962 -0.020242656 -0.1825434 0.1991052 0.011284391 0.096092045 -0.16029795
0.09327591 -0.100087866 0.2774194 0.17291442 0.012334447 -0.029957233 0.1970979 0.052528184
-0.015168603 -0.01178619 0.14892839 -0.08069384 0.27708295 0.23964882 0.23725027 -0.28099826
-0.18054733 -0.34525496 0.09709293 -0.040441558 -0.004569503 -0.031940535 -0.10072278 0.38800198
0.06529422 0.16053341 -0.29855892 0.08572617 -0.06060275 -0.109589435 -0.22808807 0.10313267
-0.056381933 -0.0016890714 -0.13232993 -0.16829984 0.049813464 0.07520413 0.15373033 -0.25753006
0.011115645 0.18258443 -0.12252469 0.053635057 0.14534056 -0.034015123 0.13374814 0.00158727
-0.091108106 0.3145736 -0.05832833 0.06896718 0.22201642 -0.031669024 0.0845267 -0.06788396
0.080064125 -0.0738058 -0.5661337 -0.4261619 0.13799158 -0.08158996 0.10698806 0.015662735
0.0018877296 0.031197995 0.12740274 0.11528168 0.13697617 0.049317278 0.1036671 -0.3952428
0.12272076 0.27201355 -0.17572203 -0.32098767 0.007816628 0.15585782 -0.15074064 0.17655104
-0.10235187 -0.067022786 -0.016942643 0.06987975 0.08332604 -0.22332355 -0.06113812 -0.07440989
0.031519644 0.853626 -0.075760014 0.21918371 -0.06817434 0.113843255 -0.23432158 0.22510698
0.23186195 -0.051714312 -0.23092666 -0.08876159 -0.100613475 0.26001945 0.12448332 0.07535303
-0.10934868 0.010394455 0.051296957 0.27708614 0.009311874 -0.0643935 0.39987895 0.16690622
-0.10256462 0.11666945 -0.109862246 -0.58414936 0.09323269 0.20189989 0.062322967 0.39882788
0.29775572 -0.17889826 0.09519522 0.08687634 -0.068877794 0.09337328 0.08649885 0.028494997
0.0031297198 0.098750755 0.104747534 0.017129697 0.09016922 -0.09558517 0.056233224 0.03181118
-0.20572071 0.17631316 -0.1795749 -0.119735084 0.012263633 0.02061368 0.37222782 0.1626956
-0.2893696 -0.12809765 -0.050954606 0.09537029 0.08197839 0.17334057 0.00941953 -0.19802862

base.fc1.bias f4 [400]
00000000: ec21 c33e fd91 cb3d 43c5 703d 68a4 53be
00000010: 173c 30be bde8 3fbe 3e6d 923d 45c5 21bc
00000020: fe2f 423d 31df 03bb 2a3b 473d 0084 5dbc
00000030: 079d 733e d8f4 b83d 42b9 a83d b5b1 24be
00000040: 4e8b eebe cb8f 5dbe 3ab9 8bbe 1b16 99bd
00000050: 5621 fd3c 2ca3 e0bd 806d a6bd 1b4f 9e3d
00000060: e5d5 cf3d 8284 233d 0368 873e d267 fdbe
00000070: d61e a0be 71a5 2e3d 41c4 083c 127a 26be
00000080: 64a6 77bd 9590 0d3e 2741 5fbe 91a2 cfbe
00000090: 8d98 d1bd 9f8a 71be 5f5c 603d 83c3 d5bd
000000a0: cad9 223d a0a4 373d 67fe 2a3e 54ef 9cbe
000000b0: 05c8 15bd d7f7 733d 5f23 52be 6400 4d3d
000000c0: 75e6 713e 71e8 1fbe 3f8a cd3c 0758 70bc
000000d0: 2ed9 5ebd b099 84be a752 883d 975f 993e
000000e0: 4023 513e 6be9 463d 9a22 f1be 541a d7be
000000f0: 3a1c 653d e785 1a3d c0b3 ae3e db58 863d
00000100: 4648 cb3c 9aca 123e 7be6 6a3d 90c7 8abe
00000110: 499e b63d 0ee3 2bbe 4293 f6bd b25e 873c
00000120: 1492 7d3e 52f3 55bd 245d a93d 2ff2 9abe
00000130: 4107 4abe 3527 f8be d68f f6bd 2e8e 3d3d
00000140: 0fbc ccbe d8c1 533d 6997 f73c 1c88 8cbe
00000150: 60ad 383e 7880 a73d 8fac 08bf b36c cdbe
00000160: df15 d23e 0613 8bbd 9702 d43d fb1f 903d
00000170: 30fd 9cbd c5f3 03bf 9787 39be 7535 80be
00000180: 222c 7c3d 179c 27be 7784 c7bd 8c67 3abd
00000190: 54d7 9b3c fe44 7cbe b550 643d a046 02be
000001a0: b748 8d3d e808 03bf 3c5f 73bd 67ea dfbc
000001b0: eafa 113e 51b2 8abe f2cf d4bd f85c 8cbe
000001c0: 8d21 8a3d d68e fabe f1a5 fabe ad65 df3e
000001d0: 76fe 693c 21f7 e13c 0fe0 173e 3bbd 133d
000001e0: bcf1 8e3d 432a cc3c 2718 af3e cff9 cabc
000001f0: fc98 9d3d 97d5 773d 646a 5cbe 98aa da3c
00000200: 1c8a 76be 3f0e aabe bf4c 57bb f3f8 a73d
00000210: c05d 853d dbb5 53be 0cc0 1d3e 8ebc bd3c
00000220: 506f 943d bb51 4c3d 454a fbba 29c5 31bd
00000230: 80a6 86be a17b 7a3d 47d3 6c3d 4e16 e33d
00000240: 2efa 713d 032e 213e ce58 bc3e 0322 c8bd
00000250: 19c5 54bd b6aa 9b3d ada1 613d f42a 49be
00000260: 6f9e ee3d b4b0 5c3d 0e1b c63c bf39 503e
00000270: d389 873d 7d89 413e 64e5 5fbe a4f5 3bbe
00000280: fdd9 923e d81c 463d 8dc9 27be 591e c2be
00000290: b66b 453d a771 5abe 016c 103e 4066 0ebf
000002a0: 8e16 8cbd c8d8 81be a342 883c 3684 28be
000002b0: ef74 643d bee6 1dbc c9a3 7e3d a56f b5be
000002c0: a677 8d3d f723 a9bd 2462 f23d 7900 e3be
000002d0: c663 553d 3438 7b3d 4977 0ebf 53c9 f23c
000002e0: 55a3 7e3d 029b 303d 8e67 85be ca2d 0abf
000002f0: 5503 1bbe 5591 3b3d 6ed9 793c a1a7 483e
00000300: 34cb 76bd 99b9 0cbe fb9e a13e d34e 733d
00000310: 6bc7 563d c59f e4be 196a 473d 2812 66be
00000320: 367a 8fbd 5628 1dbe 1feb 273e 3b24 32bd
00000330: 9ee0 553d 2f3a adbd 7e49 babe 6eaf 00bf
00000340: 2941 9f3d 336d 653d 8319 2dbe 1810 7e3d
00000350: fa70 803d fd61 80bd 2131 853d 52a5 2b3e
00000360: c428 a2be 78d9 cbbe db45 92bd 7a6c 793c
00000370: 8a08 c5be c3f3 203c 2835 4e3d 9451 073e
00000380: f912 a9be ddce f63d 7d59 9b3d 1c44 4f3e
00000390: ca90 81bd 8585 a2bd c3cd 80be 0620 4fbc
000003a0: efeb 713d a619 103e b053 b1be 4722 80bd
000003b0: aad2 693e ca2c 92be a9bf 98bd 8a9d 753d
000003c0: cdac 153d 43ac 673d 9b27 463d 3c8d 7b3d
000003d0: 4787 51be c155 483e 28a0 423d bb46 9d3d
000003e0: 6d60 803d 7f04 c8bd c7ea a5be e1c7 993d
000003f0: badc f43c 9bc0 dd3d 7161 12be 03fb 1cbf
0.38111818 0.099399544 0.058781873 -0.20668185 -0.17210422 -0.18741126 0.071497425 -0.009873693
0.04740905 -0.0020122046 0.048640408 -0.013520241 0.2379037 0.09031075 0.0823846 -0.16083415
-0.46590656 -0.21636884 -0.27289754 -0.074749194 0.030899685 -0.109686226 -0.08126354 0.07729932
0.10148219 0.03992129 0.26446542 -0.4949327 -0.31273526 0.042638246 0.008347572 -0.16257504
-0.060461417 0.13824685 -0.21802197 -0.40553716 -0.10234175 -0.23588036 0.054775592 -0.104376815
0.03975848 0.044834733 0.1669861 -0.30651343 -0.036567707 0.05956253 -0.20521306 0.0500492
0.23623069 -0.15616013 0.025090335 -0.014669425 -0.054406337 -0.25898504 0.0665639 0.29955742
0.20423603 0.04856245 -0.4709671 -0.42012274 0.055935122 0.037725355 0.34121513 0.065599166
0.024814736 0.14335099 0.05734871 -0.2710538 0.08916909 -0.16785833 -0.12039806 0.016524646
0.24762756 -0.052234 0.08269718 -0.30262896 -0.1972933 -0.48467413 -0.12039153 0.04627817
-0.39987227 0.051698536 0.030223565 -0.27447593 0.18034887 0.081788 -0.53388304 -0.40121993
0.4103231 -0.06790738 0.103520565 0.0703735 -0.07665479 -0.5154384 -0.1811813 -0.25040784
0.061565526 -0.16368137 -0.097420625 -0.045508906 0.019023575 -0.24635693 0.05574103 -0.12722254
0.06898635 -0.51185465 -0.059416994 -0.027333451 0.14255872 -0.2708917 -0.10391225 -0.2741468
0.067446806 -0.489371 -0.48954728 0.4363226 0.01428186 0.02758366 0.14831565 0.036069136
0.06979701 0.024922496 0.34198114 -0.024777321 0.07695195 0.06050643 -0.2152496 0.026692674
-0.24076122 -0.33213994 -0.003285214 0.0820178 0.06512022 -0.20674841 0.15405291 0.023161199
0.07247794 0.04988263 -0.0019171914 -0.043400917 -0.26298904 0.061153058 0.057818677 0.11088239
0.05907648 0.15740208 0.36786503 -0.09772112 -0.05194578 0.0760092 0.055085827 -0.19645292
0.116513126 0.053879455 0.024182823 0.20334528 0.06618085 0.18900104 -0.2186485 -0.18355423
0.28681937 0.04836735 -0.1638548 -0.37913778 0.048198424 -0.21332417 0.141037 -0.5562477
-0.068402395 -0.25360703 0.016633337 -0.16456684 0.05577558 -0.009637533 0.062167916 -0.3543674
0.06907587 -0.08258813 0.11835125 -0.44336298 0.052097104 0.061332896 -0.55650765 0.029637014
0.062167484 0.043116577 -0.26055568 -0.5397612 -0.1513799 0.045792896 0.015249593 0.19595195
-0.060252383 -0.13742675 0.31566605 0.059401345 0.052436274 -0.44653144 0.048685167 -0.22467864
-0.07005732 -0.15347418 0.16398285 -0.043491583 0.052216165 -0.08458363 -0.36384195 -0.50267684
0.077761 0.056012344 -0.16904263 0.062027067 0.062715486 -0.0626869 0.06503511 0.16762283
-0.31671727 -0.39814353 -0.0714223 0.015223617 -0.38483077 0.009823742 0.050343663 0.13214713
-0.33022287 0.12051175 0.07585428 0.20240825 -0.063264444 -0.07935623 -0.25156984 -0.012641912
0.059062894 0.14072284 -0.3463416 -0.06256538 0.22834268 -0.28549796 -0.07458431 0.059964694
0.03654175 0.056560766 0.048377614 0.06141399 -0.2046176 0.19563963 0.04751602 0.076795064
0.06268392 -0.097664826 -0.32405683 0.07508827 0.029890407 0.10827752 -0.14294983 -0.61320513

last.weight f4 [16, 400]
00000000: 022d 37bd 6189 063e be1a 20bb e137 b43e
00000010: 6be6 9a3c 806e fcbd ade6 993c f0b8 0d3f
00000020: 4574 d5bc 865f d5bd 3386 9d3d d685 96bd
00000030: 37e3 47bd 9650 2cbe b635 1f3b 0ebd dcbe
00000040: 73b6 413e c41e d23c 8d39 1fbd 89d9 bb3e
00000050: 70c5 40bc a4aa 023c 07c3 703e 9670 ca3a
00000060: 7a20 593d 1b95 06bd 216d f43d 239f 8b3e
00000070: 4057 03be 9578 d4bc 8785 d13e 402f 4d3e
00000080: 54ab 833e 394f 233d afe4 a5be 8dad 6c3e
00000090: b3c8 3e3e 2d70 aebe fe72 3abc 2838 fe3c
000000a0: a5be 4c3c 7853 2c3d 1b26 593e b8cc 963d
000000b0: 2466 68be c668 ad3d f4cf c2bd a9c7 01bb
000000c0: b1ca 823c e5b6 48be 3b94 db3e 75e0 02be
000000d0: 9b13 bcbd 1ab7 20bc 693b 1b3c 7659 d0bd
000000e0: e3a2 0d3e 4e5a 07bb eed7 f53e bed9 86be
000000f0: 3bee 51bb 07b8 22bd 76be b63d 92f7 523c
00000100: 2c3b b23d 6b35 1abd 92a1 523c 0c65 0b3e
00000110: 9645 7dbe 3a49 3dbd f796 003f f833 f4bd
00000120: 7ff4 2a3e bc12 063d 8c1b 113e c39e 873d
00000130: c13a f2bd a997 e7bc 5e57 4f3d 0cbe bf3d
00000140: 2294 923d 3bbc 963d c41b a9bd 71b4 433e
00000150: 7336 b0bd 4683 e33d 5e38 75be 5645 5e3e
00000160: 9efb b1bd 6765 03bf bfc3 13be 864e ee3c
00000170: 05b6 ae3d d4fa 9abd feb4 debe d024 193e
00000180: 7480 5c3c 6fc0 80be 00ee a13d 5a41 473e
00000190: 52f3 433d 4fe0 7a3e 8509 bebc 2cf6 adbd
000001a0: df79 053b 4fbc dabd 32a2 ff3d 361b fbbd
000001b0: 7b02 60bc 2498 8abe cf19 053d 2c99 0d3d
000001c0: bfcb 283c 5597 27be 219f d53e 2926 5e3d
000001d0: d540 46be 17ef fabd 50ae f3bd 6b34 e73c
000001e0: 0326 e03b cd8e b93e 3968 693c 5b49 74bd
000001f0: f75b 46ba 19eb e5ba 8c76 02be 6b52 eabd
00000200: ae38 aabd cd98 cabd 6d43 5d3d 8404 ddbc
00000210: 6bb9 adbb 5a85 0abe 3410 6e3d 6512 cb3e
00000220: 1f7f 433c 68a8 273c d20b 12be 199e c43e
00000230: c7f1 fe3e 2950 13ba 0615 2fbb 493a aebe
00000240: 49b9 adbb 14b3 d7b8 c5b7 1abe ae2e 9fbd
00000250: adbc b4bd e9f0 363f f2a0 453d 10dc 023e
00000260: 3492 29be 622a c43b 51c1 f13d 4c2a ac3c
00000270: 4903 493b b223 aa3c bd54 de3c 6945 7bbd
00000280: 4c28 5f3e fe9f d9bc ffb3 c8bd 4e8b 0cbe
00000290: e431 cfbd e49c 383d 61c3 73bd 3358 abbd
000002a0: 58f2 233c 827f 013e f7c8 b8bd 5b4b d8bd
000002b0: b557 213c 9fbf b53c df33 3a3c 4584 8a3e
000002c0: ea98 a4bc 6f6b 7ebb 2807 83bd 6643 80be
000002d0: 4da8 1c3e 1324 35bd 1499 dfbd 84f8 7abd
000002e0: ff85 793c 604f 18bd 49bd e63e e771 14bd
000002f0: ed74 5e3c b5a9 d8bb b97b 32bd 93db 473d
00000300: 3775 f8bc 47d0 ed3c c13f eebd 5890 76bc
00000310: d843 b7bb 76fa fbbd f729 46bc 9219 a8bd
00000320: 4d96 373d f9af e2bd b054 84bc 0296 d83d
00000330: 70d0 0cbe 08d9 093b 9794 6c3e d56d e53d
00000340: 6d31 fabd a955 c1bc 8cc0 63bd 77c5 d5ba
00000350: 427f cf3b a720 453e 39d5 4dbe 441d 993d
00000360: b0be bc3e 37da b4bd 5a7e 013e f01b 243d
00000370: b5c2 193e 7e4f b33d 9ed6 6a38 3932 f33c
00000380: fced c63d 52f7 343c a479 12bd be2e bfbd
00000390: a357 91be 685e 67be 806f f23d d328 86bd
000003a0: c0a3 01be 7707 e13d 8bd9 c1be 07fa 1c3b
000003b0: 338f 7fbd 5a6e f93d 118d d03d 698e a1bc
000003c0: 2241 b73d 49da 25be 97ae 003e 4c62 943c
000003d0: b805 583d 83d5 783d 53fc b9bd 03d3 84be
000003e0: 37ae 443b 53e2 df3c 5e37 963e df15 1cbc
000003f0: 4da3 6abd 6a08 4e3d 4a13 67bc 8c9c 943e
-0.044720657 0.13138343 -0.0024430002 0.35198882 0.0189087 -0.12325764 0.018786753 0.5536032
-0.026056418 -0.1041861 0.07691612 -0.07349746 -0.048800673 -0.16827616 0.0024293489 -0.43112987
0.18917255 0.025649436 -0.038873244 0.36689404 -0.011765823 0.007975254 0.23511897 0.001544493
0.053009488 -0.03285704 0.11934877 0.2726985 -0.12826252 -0.025936404 0.40922186 0.20037556
0.2571665 0.039870474 -0.32401034 0.2311308 0.18631248 -0.34069958 -0.011379955 0.031032637
0.012496625 0.04207179 0.21205942 0.07363266 -0.22695214 0.084672496 -0.0951232 -0.0019802845
0.015965791 -0.19601019 0.42886528 -0.12780936 -0.09183427 -0.00980928 0.009474614 -0.10173313
0.13831668 -0.002065319 0.48016304 -0.26338 -0.0032032866 -0.039726283 0.08923046 0.012876408
0.087026924 -0.0376486 0.012855904 0.13612765 -0.24733576 -0.046212412 0.50230354 -0.11923975
0.1669483 0.03273271 0.14170665 0.06622078 -0.11827613 -0.02827056 0.05062043 0.093624204
0.0715716 0.07360121 -0.08257249 0.19111802 -0.08604135 0.11109023 -0.23947284 0.21706137
-0.0869057 -0.513266 -0.1443014 0.029090177 0.08530811 -0.07567373 -0.4349746 0.14955449
0.01345836 -0.25146815 0.07906723 0.19458523 0.04783947 0.2449963 -0.023197899 -0.08494219
0.002036683 -0.10680448 0.12482108 -0.122610494 -0.013672466 -0.270692 0.032495316 0.034569904
0.010302483 -0.16366322 0.41722968 0.05423561 -0.19360669 -0.12252634 -0.11898482 0.028223237
0.006840469 0.3624176 0.01424604 -0.05964027 -0.00075668044 -0.0017541378 -0.12740535 -0.11441501
-0.08311592 -0.09892426 0.05401938 -0.026979692 -0.0053016446 -0.13527432 0.05812092 0.3966247
0.0119321635 0.010233022 -0.14262322 0.3840187 0.49793836 -0.000561955 -0.0026715412 -0.34028843
-0.0053016287 -0.00010285355 -0.15109165 -0.07772575 -0.088250495 0.7146135 0.048249193 0.1277926
-0.16559678 0.0059864977 0.1180445 0.021016262 0.0030672124 0.020768974 0.027140016 -0.06134549
0.21792716 -0.026565548 -0.097999565 -0.13725016 -0.10116938 0.045071498 -0.0595125 -0.08366432
0.01000651 0.12646297 -0.09022706 -0.10561248 0.009847571 0.022186099 0.011364906 0.2705404
-0.020092446 -0.003882136 -0.06397849 -0.2505142 0.15298577 -0.044223856 -0.10917869 -0.06127216
0.015229701 -0.037185073 0.45066288 -0.03624144 0.013577682 -0.0066120275 -0.043575022 0.048793387
-0.03032933 0.029029978 -0.11633254 -0.015049063 -0.0055928044 -0.12303631 -0.012094966 -0.08208002
0.044821072 -0.1106872 -0.016153663 0.10575487 -0.13751388 0.0021033902 0.23103558 0.112025894
-0.122164585 -0.023600416 -0.05560355 -0.001630946 0.006332309 0.19250737 -0.20100869 0.07476285
0.36864233 -0.08830684 0.12645856 0.040065706 0.15015681 0.08755396 5.5989825e-05 0.029687034
0.09713361 0.011045294 -0.035760537 -0.09335087 -0.28387174 -0.22594607 0.11837673 -0.06550755
-0.12660122 0.10987752 -0.37861285 0.002395274 -0.062392425 0.12179251 0.10183156 -0.019721227
0.0894797 -0.1619655 0.125666 0.018113278 0.05273983 0.060750496 -0.0908133 -0.2594224
0.0030011067 0.0273296 0.29339117 -0.009526699 -0.057284642 0.050300993 -0.01410372 0.29025686

last.bias f4 [16]
00000000: 5ff8 443e 902a 053f 3d1c c7be bdae 2abe
00000010: ed1f 95be 132c 8d3e 0117 b9bd bf25 a1bd
00000020: b885 14be c00b 953e 0e28 efbe 8b6d cb3c
00000030: ab03 12bd 8752 adbd 191a 4e3e c565 a43e
0.19235371 0.5201807 -0.38888732 -0.1666822 -0.2912592 0.27572688 -0.09037591 -0.078685276
-0.14504135 0.29110527 -0.46710247 0.024832508 -0.03564803 -0.084630065 0.20127143 0.32108894
