log/MUJOCO_ARMT_ANT_DIR_12_v4/Ant-v3/1/model/model_pf_task_8060.pth (torch, 27411 bytes, 4 tensors)

base.fc0.weight f4 [400, 12]
-0.2229662 -0.23032546 0.31228328 0.12144599 0.1098115 0.007842493 -0.12195367 -0.18662135
-0.016837336 -0.11348832 0.6111553 0.49736762 0.03819177 0.104078226 -0.061768193 -0.11214566
0.7144888 1.0098572 1.3217126 2.654892 0.018199494 -0.03948157 -0.27867156 -0.21819651
-0.24958873 -0.33142328 0.7685311 0.67910695 -0.018945346 -0.055706557 -0.22509405 -0.27601048
-0.25632364 0.18910721 0.5329578 1.5634065 0.5021913 0.9815902 -0.20154762 -0.18967207
0.2104262 0.3093305 0.5643503 0.6170274 -0.14361596 0.06797487 -0.363045 -0.29546806
-0.30643213 -0.28212938 0.041607704 -0.27045226 0.79611164 0.5278851 0.248596 0.2930269
2.1083808 -0.27888823 0.38227367 -0.058287803 -0.034227595 -0.04356736 -0.002836047 -0.039084397
0.007959969 0.0062368945 -0.07560116 -0.020882051 -0.020798113 -0.05316012 -0.024703272 -0.09607729
-0.24390024 -0.23888744 -0.14290372 -0.26864988 0.5075683 0.3695925 0.20242788 0.28479192
1.1631293 -0.26607618 0.31013852 -0.02176527 -0.29509303 -0.37468863 -0.13719666 -0.277738
0.60468286 0.47179785 0.2513347 0.3829147 1.6268171 -0.32814717 0.3741065 -0.09455768
-0.22778514 -0.2902796 0.8378439 0.60452557 0.043557286 -0.02075141 -0.15004858 -0.2618535
-0.27191553 0.12102085 0.52602416 1.243577 -0.33585203 -0.361212 -0.15624742 -0.29768568
0.6426013 0.5256396 0.36373997 0.48677984 1.8188096 -0.36604828 0.27521917 -0.3631523
1.9425116 0.998805 0.060391236 0.14216232 0.026407667 0.23031142 0.42406726 0.27119455
-0.46797055 0.66751146 -0.40337273 -0.4659606 0.064296775 -0.17853718 0.2977281 0.42883015
-0.1685827 -0.17624095 -0.17395157 -0.17872217 -0.17232116 0.46091533 -0.17570105 -0.050805423
-0.28347108 -0.39029366 0.9740695 0.72768646 0.06348006 -0.01219895 -0.15555117 -0.32554197
-0.19648163 0.19095151 0.63909936 2.262963 -0.20162456 -0.34479317 0.81768477 0.7783154
-0.06276442 -0.054026123 -0.18230224 -0.34785724 -0.23999587 0.282175 0.39761353 1.0550469
0.05638277 -0.1289796 0.29089063 0.37618697 -0.12587374 -0.12546256 -0.124161646 -0.1286884
-0.08449974 0.38385433 -0.12368191 -0.124491476 1.5772297 0.52678764 0.048261303 0.2604477
-0.028654814 0.10302717 0.22070408 0.09845937 -0.31390765 0.6715274 -0.35227346 -0.34782654
-0.059507225 -0.024818122 -0.06306652 -0.06454245 0.011063793 0.015071128 0.01693912 0.0043277014
-0.01301291 -0.049417622 -0.0572509 -0.10309661 0.44495174 0.89472765 -0.24064158 -0.2257476
0.25999802 0.36402702 0.5663951 0.66267604 -0.114768125 -0.023410175 -0.39451382 -0.3147029
-0.19155121 -0.2692005 0.68502516 0.65276146 -0.058642533 -0.1208906 -0.21460387 -0.22590259
-0.26904288 0.243162 0.42957485 0.92912525 -0.07049702 -0.032334354 -0.043625087 -0.058304723
-0.0011446781 0.009476802 0.0075104088 0.005965615 -0.007976603 -0.06527084 -0.042408224 -0.10516817
-0.04502601 -0.19609867 0.25456536 0.18393278 0.71673906 2.139771 0.923856 0.5116715
-0.26723924 0.23716542 -0.24463347 -0.24313912 -0.076460406 -0.0399831 -0.0066630463 -0.075673394
00000000: 4051 64be 70da 6bbe 98e3 9f3e adb8 f83d
00000010: dae4 e03d cd7d 003c d9c2 f9bd ab19 3fbe
00000020: 74ee 89bc 906c e8bd ac74 1c3f f8a6 fe3e
00000030: f96e 1c3d f726 d53d a500 7dbd a0ac e5bd
00000040: bde8 363f 0043 813f e12d a93f c0e9 2940
00000050: 1b17 953c 6db7 21bd 0aae 8ebe e86e 5fbe
00000060: 3094 7fbe 50b0 a9be 74be 443f f4d9 2d3f
00000070: 4533 9bbc 8f2c 64bd 0e7f 66be 3f51 8dbe
00000080: da3c 83be 52a5 413e ec6f 083f b41d c83f
00000090: 9c8f 003f 7f49 7b3f 8062 4ebe 6539 42be
000000a0: f779 573e 9160 9e3e 4379 103f 82f5 1d3f
000000b0: 1010 13be 6936 8b3d 09e1 b9be 9747 97be
000000c0: ace4 9cbe 4373 90be d76c 2a3d b878 8abe
000000d0: f9cd 4b3f 7a23 073f f38f 7e3e 9f07 963e
000000e0: b6ef 0640 70ca 8ebe 60b9 c33e 31bf 6ebd
000000f0: 3c32 0cbd b073 32bd f9dc 39bb f616 20bd
00000100: 886a 023c dd5e cc3b c8d4 9abd d610 abbc
00000110: ce60 aabc 6dbe 59bd 845e cabc 2cc4 c4bd
00000120: fcc0 79be e99e 74be 5a55 12be 7a8c 89be
00000130: ffef 013f 3a3b bd3e 4149 4f3e 3fd0 913e
00000140: 6ce1 943f 233b 88be 7aca 9e3e 144d b2bc
00000150: 6f16 97be 30d7 bfbe 487d 0cbe ad33 8ebe
00000160: 7fcc 1a3f 7d8f f13e f1ae 803e 650d c43e
00000170: 8b3b d03f e802 a8be e38a bf3e 75a7 c1bd
00000180: 8240 69be 879f 94be f07c 563f 30c2 1a3f
00000190: 2069 323d dcfe a9bc 56a6 19be a911 86be
000001a0: 8338 8bbe c8d9 f73d 85a9 063f 882d 9f3f
000001b0: ccf4 abbe c7f0 b8be 53ff 1fbe 426a 98be
000001c0: 8581 243f 5190 063f 203c ba3e 353b f93e
000001d0: c1ce e83f ae6a bbbe 87e9 8c3e 19ef b9be
000001e0: 38a4 f83f afb1 7f3f cd5c 773d 0093 113e
000001f0: e454 d83c c2d6 6b3e 581f d93e 03da 8a3e
00000200: d699 efbe 08e2 2a3f df86 cebe 6392 eebe
00000210: 07ae 833d 73d2 36be d16f 983e a08f db3e
00000220: f1a0 2cbe 8278 34be 5c20 32be f202 37be
00000230: f574 30be 18fd eb3e faea 33be 5919 50bd
00000240: 1f23 91be 92d4 c7be 9e5c 793f a949 3a3f
00000250: d501 823d 1bde 47bc ce48 1fbe 70ad a6be
00000260: 7b32 49be cb88 433e 049c 233f 63d4 1040
00000270: ab76 4ebe bb88 b0be ca53 513f ae3f 473f
00000280: a28a 80bd 7f4a 5dbd 70ad 3abe 581a b2be
00000290: 7ac1 75be 3e79 903e 0094 cb3e c70b 873f
000002a0: 9ff1 663d 3a13 04be 9eef 943e 949b c03e
000002b0: 0ce5 00be 4279 00be 7648 febd e4c6 03be
000002c0: 330e adbd 8e88 c43e f14c fdbd 63f5 febd
000002d0: aae2 c93f 8edb 063f a5ad 453d 6759 853e
000002e0: 80bd eabc e9ff d23d 4000 623e 11a5 c93d
000002f0: 81b8 a0be 38e9 2b3f 305d b4be 5216 b2be
00000300: d9bd 73bd 604f cbbc 0529 81bd d52e 84bd
00000310: e944 353c e4ec 763c e9c3 8a3c 64cf 8d3b
00000320: 1a34 55bc 226a 4abd eb7f 6abd 5124 d3bd
00000330: b7d0 e33e df0c 653f bf6a 76be 612a 67be
00000340: 761e 853e c061 ba3e 45ff 103f 23a5 293f
00000350: 8d0b ebbd b2c6 bfbc b7fd c9be bd20 a1be
00000360: 0026 44be a6d4 89be cf5d 2f3f 601b 273f
00000370: 2733 70bd 7e95 f7bd 1ec1 5bbe 0253 67be
00000380: fdbf 89be 76ff 783e 3cf1 db3e 27db 6d3f
00000390: be60 90bd 0771 04bd 38b0 32bd efd0 6ebd
000003a0: 0609 96ba 9744 1b3c e019 f63b 357b c33b
000003b0: 4cb0 02bc b8ac 85bd 3fb4 2dbd 6962 d7bd
000003c0: 326d 38bd 17ce 48be 6456 823e e058 3c3e
000003d0: 367c 373f 02f2 0840 d481 6c3f e7fc 023f
000003e0: 95d3 88be 7edb 723e 3281 7abe 76f9 78be
000003f0: 4697 9cbd 52c5 23bd af55 dabb a7fa 9abd

base.fc0.bias f4 [400]
0.2555321 0.3353716 0.3186762 0.37432995 0.31705752 -0.009146955 0.256234 0.36814296
0.28040546 0.3443281 0.45360383 0.16534804 0.38264596 0.33720002 0.11235308 0.34553474
-0.018215058 0.40558937 0.2570652 -0.0106273 0.389394 -0.012316055 0.15842259 0.3693585
0.4132581 0.4980865 0.30709848 -0.0048629222 0.3993575 0.2856977 0.3328311 0.35746062
0.37316498 0.3225719 0.32747263 0.35237724 -0.028068267 0.45932367 0.3223115 -0.0021280225
0.41780877 -0.003053854 0.26633364 0.3422646 -0.064667195 0.49293268 0.52997404 0.41288552
0.33716297 0.18735807 0.32420513 0.3487616 0.35817918 0.25486848 0.32499576 0.3447637
0.1737519 0.36394647 0.4497532 0.41190693 0.419025 0.37459558 0.17117001 0.2453532
0.021085896 0.256486 0.21101612 -0.06502594 0.42009547 0.28568327 0.32427248 0.48650694
0.41057664 0.20405528 0.2711797 0.18481657 0.22583605 0.31231093 0.2911909 0.3238087
0.3470191 -0.05314541 0.4519982 0.4432142 0.306839 0.4218685 0.2592122 -0.017046925
0.016587485 0.43919513 0.29874715 0.31437397 0.18399234 0.3062916 0.4110342 -0.012243465
-0.08072754 0.35158405 0.015145264 0.40194488 0.32435292 0.3897541 0.34262177 0.4148316
0.21861492 0.27847654 0.26899096 0.38270098 0.3089184 0.37448156 0.29631662 0.22657019
-0.014244172 0.4114905 0.28192604 0.26510388 0.48407555 0.34459132 -0.03698683 0.34776422
0.26718348 0.39222464 0.30957156 0.3324565 0.5889778 0.23667076 0.16498622 0.004438804
0.35624996 0.37124315 0.27783534 0.46175417 0.12792972 0.33434433 0.33994144 0.34168828
0.37001824 0.36260244 0.3755394 0.39576533 0.41267502 0.09202102 0.28519428 0.40174577
0.3097177 0.39251924 0.34204984 0.44378304 0.46183133 0.28641015 -0.03949005 0.2470214
0.40269667 0.20167053 0.00080024416 -0.011575276 0.41867054 0.40226626 0.4815419 0.41285875
0.22322677 0.40297833 0.22694528 0.330691 0.44988316 0.37361464 0.29183254 0.3353177
0.2878352 0.41177306 0.37593773 0.46051022 0.28837532 0.468462 0.39953762 0.46876442
0.018317007 0.3380998 0.38322544 0.34944117 0.26316103 0.27486446 -0.0004983115 0.20784214
0.29564947 0.22176458 0.39353895 0.28267378 0.31446394 0.4209525 -0.03220208 0.2396249
0.3443135 0.20427284 -0.08759653 0.2711619 0.32922512 0.28604943 0.14366914 0.39339414
0.43511873 0.3327174 0.29940116 0.33863026 0.288216 0.3182025 0.22339548 0.008643504
0.14166497 0.4407912 0.33304712 0.44971132 -0.0072242958 0.42314848 0.18082894 0.35672933
0.42740762 -0.029705223 0.28105658 0.28106105 0.31672814 0.36824402 0.35020563 0.4174526
0.32364538 0.26468608 0.4679201 0.3415495 0.3739659 0.3639525 -0.052978624 0.32760555
0.33600333 0.468905 -0.048115008 0.28214288 0.44454983 0.12417409 0.42074335 -0.010980331
0.3427084 -0.008598865 -0.03422066 0.24205369 0.30482852 -0.0071766893 0.31266424 0.35815287
0.3189577 0.3437589 0.21474002 0.17289002 0.2522991 -0.015592191 0.49238035 0.34374553
00000000: 1ad5 823e d4b5 ab3e 8729 a33e 2da8 bf3e
00000010: 5d55 a23e 1cdd 15bc 1a31 833e 3c7d bc3e
00000020: 4e91 8f3e c64b b03e c33e e83e ff50 293e
00000030: 2cea c33e 7ba5 ac3e 5f19 e63d eee9 b03e
00000040: bf37 95bc 69a9 cf3e 0d9e 833e 201e 2ebc
00000050: a65e c73e 47c9 49bc 8839 223e 8f1c bd3e
00000060: 9196 d33e 3205 ff3e 033c 9d3e 2659 9fbb
00000070: 9678 cc3e f846 923e d768 aa3e 1405 b73e
00000080: 7b0f bf3e 2528 a53e 7eaa a73e ca6a b43e
00000090: 6cef e5bc 792c eb3e 0306 a53e 4b76 0bbb
000000a0: 08eb d53e 2b23 48bb e25c 883e 4e3d af3e
000000b0: 3c70 84bd ac61 fc3e 61ac 073f bb65 d33e
000000c0: a0a0 ac3e cbda 3f3e 37fe a53e e190 b23e
000000d0: 4363 b73e 1f7e 823e d865 a63e de84 b03e
000000e0: 05ec 313e 3157 ba3e 0d46 e63e 77e5 d23e
000000f0: 728a d63e feca bf3e 3147 2f3e df3d 7b3e
00000100: 54bc ac3c 2252 833e 9c14 583e 522c 85bd
00000110: c116 d73e 1445 923e 0b07 a63e 7017 f93e
00000120: 1a37 d23e def3 503e 11d8 8a3e 8e40 3d3e
00000130: 9141 673e 38e7 9f3e f916 953e 41ca a53e
00000140: 7dac b13e 00af 59bd 4f6c e73e f9ec e23e
00000150: 001a 9d3e 26ff d73e 76b7 843e fea5 8bbc
00000160: 7ae2 873c 2fde e03e 63f5 983e a0f5 a03e
00000170: 7d68 3c3e 41d2 9c3e 1373 d23e d098 48bc
00000180: 7b54 a5bd d302 b43e d723 783c b8cb cd3e
00000190: 9611 a63e d98d c73e 1f6c af3e cf64 d43e
000001a0: 97dc 5f3e 7a94 8e3e 2fb9 893e 62f1 c33e
000001b0: 8d2a 9e3e 0cbc bf3e d0b6 973e 0402 683e
000001c0: 6360 69bc e2ae d23e 9c58 903e b2bb 873e
000001d0: c0d8 f73e 466e b03e 817f 17bd 270e b23e
000001e0: 46cc 883e abd1 c83e 2a80 9e3e bd37 aa3e
000001f0: 40c7 163f d259 723e 26f2 283e 6373 913b
00000200: 6566 b63e 9513 be3e 6f40 8e3e 0b6b ec3e
00000210: 0200 033e 2e2f ab3e ce0c ae3e c4f1 ae3e
00000220: 0873 bd3e 07a7 b93e b346 c03e c1a1 ca3e
00000230: 244a d33e 8475 bc3d fc04 923e 9fb1 cd3e
00000240: 5293 9e3e 48f8 c83e 2821 af3e 8837 e33e
00000250: 2875 ec3e 5aa4 923e 52c0 21bd 2ef3 7c3e
00000260: 422e ce3e b882 4e3e 7ac7 513a 3aa6 3dbc
00000270: fc5b d63e d8f5 cd3e a98c f63e 3962 d33e
00000280: 8f95 643e 2d53 ce3e 5864 683e 5550 a93e
00000290: 1657 e63e 6b4a bf3e 136b 953e c3ae ab3e
000002a0: 235f 933e ebd3 d23e e97a c03e ffc7 eb3e
000002b0: eea5 933e 40da ef3e 3290 cc3e e401 f03e
000002c0: 8c0d 963c 6b1b ad3e 2036 c43e f4e9 b23e
000002d0: 0bbd 863e 09bb 8c3e 1ea1 02ba 92d4 543e
000002e0: 5e5f 973e 4116 633e f07d c93e 9eba 903e
000002f0: 6b01 a13e 1687 d73e 54e6 03bd 3b60 753e
00000300: dc49 b03e e62c 513e cf65 b3bd bcd5 8a3e
00000310: 3290 a83e 1275 923e 011e 133e f56a c93e
00000320: e2c7 de3e ef59 aa3e 1c4b 993e f260 ad3e
00000330: 0c91 933e 70eb a23e c9c1 643e 7c9d 0d3c
00000340: 9f10 113e 62af e13e 2785 aa3e 9040 e63e
00000350: c9b9 ecbb eba6 d83e 392b 393e 3aa5 b63e
00000360: 2cd5 da3e 5e58 f3bc a6e6 8f3e 3ce7 8f3e
00000370: 312a a23e 7b8a bc3e 274e b33e 59bc d53e
00000380: d9b4 a53e ef84 873e 3993 ef3e 93df ae3e
00000390: 7578 bf3e fb57 ba3e 1d00 59bd eabb a73e
000003a0: a108 ac3e 5114 f03e 3e14 45bd 0875 903e
000003b0: 099c e33e fc4e fe3d ac6b d73e d9e6 33bc
000003c0: 7a77 af3e 41e2 0cbc f62a 0cbd ecdc 773e
000003d0: 7c12 9c3e 6f2a ebbb 8715 a03e d05f b73e
000003e0: 6c4e a33e 2b01 b03e cfe4 5b3e 150a 313e
000003f0: 592d 813e 6476 7fbc 4719 fc3e 6aff af3e

last.weight f4 [3, 400]
-0.023205949 0.70967406 -0.09352681 0.88883626 0.06217396 0.030043926 0.048217073 0.06719233
-0.04333662 0.09637929 1.1787086 0.1896174 -0.08373029 -0.037906315 0.24149683 0.91517025
0.031143103 0.90092963 -0.04972013 0.02365087 0.6547894 0.03512332 0.12448496 0.8991055
1.0518117 1.1048965 0.66076165 0.013790563 1.0800966 0.5389403 0.6853611 0.6034046
0.96974885 -0.081672885 0.7178472 0.21269926 0.015934486 1.1145098 -0.024754275 0.007862181
1.0789336 0.039928846 0.28514108 -0.07885692 0.09048666 1.1457591 1.1745138 1.1140293
-0.12182126 0.054400794 -0.09815781 0.8726856 0.6231321 0.04328989 0.07313659 0.68961245
0.049202967 0.7038429 -0.15266708 1.1493651 -0.13233832 -0.054837283 0.2120171 0.18840696
0.072477415 0.5838514 0.43957254 0.061713763 1.0735936 0.5224547 0.7823391 1.1611217
0.8667217 0.13449748 0.12429788 0.41550756 0.3734715 0.035037577 0.5992832 -0.08631238
0.03565462 0.061389204 1.1171385 1.0413944 0.06769461 1.0997692 0.2308835 0.03131769
0.013060358 1.1164442 -0.077604644 -0.08752891 0.14626399 0.37337238 -0.025284506 0.015243293
0.049344976 0.88458097 0.012120142 -0.07203273 -0.10913663 0.811569 0.058053996 0.068314195
0.08263004 -0.009684138 0.46616468 -0.090898514 0.63343376 -0.14369985 -0.03892211 0.06806752
0.02160239 1.0919279 0.47343627 0.43669713 0.9262579 0.065385595 0.03192829 0.055058245
0.107362494 0.8995593 0.68483853 0.060371116 1.2705697 0.060024545 0.10590932 0.003976319
0.6600926 -0.12003028 0.604756 -0.14404072 0.31188318 -0.053436097 0.83294994 -0.13985713
0.7799284 -0.12959099 -0.15965539 1.0043546 -0.06515008 0.257031 0.10446121 -0.04663334
-0.045162268 -0.013687356 -0.09718005 -0.084386304 -0.080350354 0.62710524 -0.008524579 0.5668673
0.9612452 0.14094791 0.045019306 -0.009941282 1.1314167 -0.041782346 1.0745475 0.98612285
0.07617204 1.1577086 -0.009617168 0.6230451 1.0441984 0.8677414 0.26259038 0.3203124
0.5114865 1.0574069 0.95577914 1.1472671 0.60808 -0.09005379 1.0044537 1.1676228
0.008345121 0.64622325 0.04228764 0.061155125 -0.07359847 0.08426977 0.012881548 0.34903842
0.7886078 0.4837963 0.78612435 0.7426947 0.6418675 -0.009824211 0.04281998 0.07898026
0.012568496 0.13633326 0.094507955 0.5598479 -0.126267 0.45504493 0.3912433 0.91853803
1.1117592 0.077143 0.11881815 -0.13294937 -0.044009637 -0.008499955 0.038491484 0.011436947
0.12809165 1.1391401 0.622161 -0.12335652 0.018190915 0.20017979 0.018832725 -0.06696525
1.057562 0.04686584 0.44490695 0.5465395 0.6157499 -0.14575744 -0.04204482 -0.053888846
0.048011456 -0.041303325 1.1712797 0.6666953 1.0313475 -0.021503497 0.08715429 0.09299415
0.03511899 0.922167 0.025046624 0.09487247 1.0475111 0.21836188 1.1008422 0.018843
0.20794307 0.036487024 0.012924202 0.1453639 -0.05217107 0.056932945 -0.123559706 -0.059995648
0.8082515 0.16144699 0.33578923 0.13286054 0.17971504 0.07199304 0.9209173 0.8260493
00000000: 671a bebc 33ad 353f fc8a bfbd c68a 633f
00000010: 1faa 7e3d ae1e f63c 447f 453d 229c 893d
00000020: bd81 31bd 8162 c53d ecdf 963f 102b 423e
00000030: c97a abbd a743 1bbd f24a 773e 9948 6a3f
00000040: d21f ff3c 53a3 663f 56a7 4bbd 78bf c13c
00000050: 47a0 273f 78dd 0f3d f9f1 fe3d c72b 663f
00000060: c4a1 863f 406d 8d3f ad27 293f d0f1 613c
00000070: 9b40 8a3f fef7 093f d373 2f3f b978 1a3f
00000080: 7641 783f 1d44 a7bd d6c4 373f d6cd 593e
00000090: 0a89 823c 42a8 8e3f 7ac9 cabc 61d0 003c
000000a0: 7f1a 8a3f 6e8c 233d 03fe 913e bd7f a1bd
000000b0: 1251 b93d 3ca8 923f 7856 963f 8398 8e3f
000000c0: 6d7d f9bd 5ed3 5e3d f606 c9bd 5368 5f3f
000000d0: 9685 1f3f bd50 313d a3c8 953d 718a 303f
000000e0: 0d89 493d 0c2f 343f c254 1cbe 651e 933f
000000f0: b283 07be 0f9d 60bd 031b 593e c1ed 403e
00000100: 0a6f 943d 4977 153f a70f e13e 92c7 7c3d
00000110: 846b 893f 97bf 053f 6047 483f a39f 943f
00000120: 79e1 5d3f b5b9 093e e38f fe3d 68bd d43e
00000130: a837 bf3e 9083 0f3d a06a 193f 8cc4 b0bd
00000140: 940a 123d 3f73 7b3d 65fe 8e3f 694c 853f
00000150: 79a3 8a3d 3dc5 8c3f b96c 6c3e fa46 003d
00000160: 1dfb 553c a5e7 8e3f 2fef 9ebd 5b42 b3bd
00000170: 3ac6 153e aa2a bf3e 7421 cfbc 01bf 793c
00000180: f51d 4a3d e673 623f 8f93 463c e585 93bd
00000190: 0783 dfbd fcc2 4f3f 07ca 6d3d 50e8 8b3d
000001a0: f039 a93d 38aa 1ebc 23ad ee3e 0029 babd
000001b0: b728 223f 0e26 13be ca6c 1fbd fc66 8b3d
000001c0: 7ff7 b03c 4bc4 8b3f 3d66 f23e c496 df3e
000001d0: 3d1f 6d3f e2e8 853d 3dc7 023d c184 613d
000001e0: dee0 db3d 8549 663f 9451 2f3f b447 773d
000001f0: 07a2 a23f 4cdc 753d fce6 d83d c84b 823b
00000200: d4fb 283f 6fd2 f5bd 4ad1 1a3f 697f 13be
00000210: 27af 9f3e cfdf 5abd 353c 553f b536 0fbe
00000220: 63a9 473f 80b3 04be b47c 23be b18e 803f
00000230: 686d 85bd 9199 833e c2ef d53d 9a02 3fbd
00000240: 12fc 38bd ef40 60bc 5606 c7bd bad2 acbd
00000250: ba8e a4bd f889 203f adaa 0bbc 371e 113f
00000260: 2a14 763f a654 103e 2a66 383d c2e0 22bc
00000270: 43d2 903f f723 2bbd c68a 893f 8c72 7c3f
00000280: 1600 9c3d cc2f 943f 5491 1dbc e27f 1f3f
00000290: 4ba8 853f 4d24 5e3f 3f72 863e fdff a33e
000002a0: c7f0 023f 1c59 873f f1ad 743f a6d9 923f
000002b0: 22ab 1b3f 1f6e b8bd f091 803f aa74 953f
000002c0: f9b9 083c e36e 253f ce35 2d3d cc7d 7a3d
000002d0: cbba 96bd a195 ac3d 210d 533c 2ab5 b23e
000002e0: 33e2 493f 26b4 f73e 723f 493f 3d21 3e3f
000002f0: 6e51 243f baf5 20bc 0164 2f3d 67c0 a13d
00000300: 18ec 4d3c f29a 0b3e 638d c13d 3152 0f3f
00000310: 234c 01be a6fb e83e 0b51 c83e 4f25 6b3f
00000320: 204e 8e3f 26fd 9d3d ee56 f33d e123 08be
00000330: 7343 34bd 6543 0bbc 3fa9 1d3d 0862 3b3c
00000340: 752a 033e 58cf 913f f145 1f3f 58a2 fcbd
00000350: 1d05 953c eefb 4c3e 1647 9a3c 1425 89bd
00000360: 315e 873f 65f6 3f3d d8ca e33e 03ea 0b3f
00000370: c9a1 1d3f 7041 15be 3037 2cbd 8dba 5cbd
00000380: a9a7 443d ad2d 29bd 7eec 953f 8bac 2a3f
00000390: 3203 843f 1a28 b0bc f37d b23d b873 be3d
000003a0: eed8 0f3d 2313 6c3f 942e cd3c 7f4c c23d
000003b0: d814 863f 429a 5f3e 66e8 8c3f a35c 9a3c
000003c0: 07ef 543e 6b73 153d 08c0 533c 46da 143e
000003d0: 55b1 55bd 8532 693d df0c fdbd ffbd 75bd
000003e0: 92e9 4e3f 5c52 253e 91ec ab3e 980c 083e
000003f0: 3807 383e 1671 933d 3cc1 6b3f f877 533f

last.bias f4 [3]
0.3562238 -0.07247319 -0.20102341
00000000: f762 b63e d36c 94bd 15d9 4dbe
