log/MUJOCO_ARMT_ANT_DIR_12_v4/Ant-v3/1/model/model_pf_task_7133.pth (torch, 27411 bytes, 4 tensors)

base.fc0.weight f4 [400, 12]
000000 a2 1f 7f be 2e 2f 83 be ee 6d 90 3e 2b 89 ff 3d
       -0.2491441 -0.25621933 0.2820887 0.124773346
000010 a2 db d2 3d b9 42 f6 3b d5 07 01 be 68 26 3f be
       0.10295798 0.007515278 -0.12600644 -0.18666995
000020 f0 f7 ad bc 8f 56 e0 bd 40 a1 0a 3f bc 61 ee 3e
       -0.02123639 -0.1095401 0.541523 0.4655894
000030 d3 88 f6 3c 5f d7 a7 3d 35 fe 3f bd f2 83 b5 bd
       0.03009454 0.08195376 -0.04687329 -0.08863057
000040 d0 cc 2d 3f f0 b2 73 3f 86 f0 a0 3f 03 7a 26 40
       0.67890644 0.9519491 1.2573402 2.601197
000050 ef b5 e8 3b 2a a9 0e bd 76 b8 84 be c9 bd 7a be
       0.0071017663 -0.034829296 -0.25921983 -0.2448646
000060 9b 7f 7a be 31 f4 9a be a4 1a 35 3f d4 28 23 3f
       -0.2446274 -0.30264428 0.70743775 0.63734174
000070 45 c5 a5 bc 03 49 4b bd 5d c0 68 be a4 f9 8a be
       -0.020235667 -0.049630176 -0.22729631 -0.27143586
000080 78 86 80 be 22 c5 3a 3e b4 6f e4 3e c0 e8 c3 3f
       -0.25102592 0.18239263 0.44616473 1.5305405
000090 8e 43 e8 3e 52 cd 6b 3f 7e 3e 3d be bc 52 39 be
       0.4536404 0.9211017 -0.1848087 -0.18097967
0000a0 b2 39 53 3e 75 dd 93 3e 83 dd 08 3f 48 71 13 3f
       0.20627478 0.28879896 0.53463 0.5759473
0000b0 76 2d 0d be 92 d3 52 3d b6 9b ac be f3 6e ad be
       -0.13786873 0.0514713 -0.33712548 -0.3387371
0000c0 54 46 93 be 4f 97 8c be f0 05 68 3d b8 07 72 be
       -0.28764594 -0.2745919 0.056646287 -0.23635757
0000d0 95 ec 3c 3f 3d a6 f4 3e 05 ec 6e 3e 15 d5 8c 3e
       0.73798496 0.4778308 0.23332222 0.2750632
0000e0 30 fe 00 40 80 be 93 be 75 9e c1 3e 49 76 c1 bd
       2.0155144 -0.28856277 0.37816206 -0.09446389
0000f0 3c 32 0c bd b0 73 32 bd f9 dc 39 bb f6 16 20 bd
       -0.034227595 -0.04356736 -0.002836047 -0.039084397
000100 88 6a 02 3c dd 5e cc 3b c8 d4 9a bd d6 10 ab bc
       0.007959969 0.0062368945 -0.07560116 -0.020882051
000110 ce 60 aa bc 6d be 59 bd 84 5e ca bc 2c c4 c4 bd
       -0.020798113 -0.05316012 -0.024703272 -0.09607729
000120 6b 72 65 be fd 90 6d be a9 b1 02 be 81 a3 83 be
       -0.22406928 -0.2319984 -0.12763084 -0.2571068
000130 6f 72 e9 3e 02 6b a5 3e d4 34 44 3e 55 c8 8c 3e
       0.45595118 0.32308203 0.19160777 0.2749659
000140 f5 38 8c 3f 16 e5 82 be 5d 4f a3 3e 25 a7 5a bd
       1.0954882 -0.25565404 0.31896487 -0.053382058
000150 83 df 8c be 60 35 b1 be c3 5e fa bd b6 93 78 be
       -0.27514276 -0.34611034 -0.122251056 -0.24275097
000160 38 ba 0b 3f f7 bb d7 3e 05 e9 72 3e 34 03 bc 3e
       0.5458102 0.42135593 0.23721702 0.36721194
000170 55 19 c3 3f bb 08 b2 be 45 3b bf 3e 7e 68 04 be
       1.5242106 -0.34772286 0.37349907 -0.12930486
000180 55 8d 64 be 5f f4 84 be bd 08 47 3f 68 3f 11 3f
       -0.22319539 -0.2596769 0.7774771 0.56737375
000190 28 e6 2a 3d 7d 16 80 bc 27 68 1c be 43 9c 80 be
       0.0417234 -0.015635723 -0.15274106 -0.25119218
0001a0 39 3a 82 be 50 39 eb 3d cc b2 e1 3e 19 b0 96 3f
       -0.25435045 0.11485541 0.44081724 1.1772491
0001b0 64 ed a1 be d7 0f b4 be 43 cf 0e be b8 c0 85 be
       -0.31626427 -0.35168335 -0.13946252 -0.26123595
0001c0 34 b9 15 3f 5a 51 f1 3e 10 f2 b2 3e 4d 96 ef 3e
       0.5848572 0.4713238 0.34950304 0.46794358
0001d0 83 67 dc 3f cf 89 b6 be 8a cb 8d 3e a9 51 b2 be
       1.7219089 -0.35652015 0.2769435 -0.34827927
0001e0 c5 90 e3 3f fd 00 6a 3f e9 eb 87 3d de 1e 00 3e
       1.7778555 0.9140776 0.06636793 0.12511775
0001f0 0a 31 11 3d 3e bd 65 3e 35 27 c9 3e 95 59 72 3e
       0.035447158 0.22435471 0.39287725 0.23666985
000200 22 d7 dd be 5a 10 20 3f 2f 36 c5 be 49 0f db be
       -0.43328196 0.6252495 -0.385179 -0.427851
000210 30 b6 55 3d 50 86 2b be ae e2 89 3e f0 ef c4 3e
       0.0521757 -0.16750455 0.26930755 0.38464308
000220 a3 b4 23 be 2b 05 26 be bf 5c 2a be 42 be 26 be
       -0.15986876 -0.16212909 -0.16636942 -0.16283515
000230 5d e7 27 be 23 57 e7 3e f4 a0 24 be 18 a5 90 bd
       -0.16396852 0.45183668 -0.16077024 -0.07062739
000240 10 2f 8e be 6e 32 b9 be 5e 95 68 3f d2 14 30 3f
       -0.2777028 -0.36171287 0.90852916 0.6878177
000250 f6 ae 74 3d c1 69 0b bc 0e 4b 22 be a9 09 a5 be
       0.05973717 -0.0085091 -0.15848944 -0.32233933
000260 e2 34 46 be c9 86 3c 3e b1 37 0a 3f 4e d5 0a 40
       -0.1935611 0.18410791 0.5399123 2.169269
000270 df 9b 4a be 37 68 a3 be e2 02 42 3f 12 a6 3a 3f
       -0.19786023 -0.31915447 0.7578565 0.72909653
000280 65 04 79 bd af 4b 38 bd 6f c1 3b be 79 9d a2 be
       -0.060795207 -0.044994052 -0.18335508 -0.31760767
000290 bb 65 6a be ea 45 8c 3e 3d 73 a6 3e 1c e8 82 3f
       -0.2289037 0.2739709 0.32509795 1.0227084
0002a0 20 69 1a 3d 96 fe e4 bd bf 3b 8b 3e d0 16 ad 3e
       0.03769791 -0.11181371 0.2719402 0.33806467
0002b0 1e 41 e1 bd 36 7e dc bd 12 d2 ea bd 27 1d e1 bd
       -0.10998748 -0.1076626 -0.11465849 -0.109918885
0002c0 fc 1f e5 bd 55 11 c3 3e f6 0f df bd da c7 db bd
       -0.11187741 0.3809916 -0.10891716 -0.10731478
0002d0 e9 5f b7 3f ca d6 f1 3e 9d 7c 50 3d a2 0b 75 3e
       1.4326144 0.47234184 0.05090009 0.23930219
0002e0 73 f8 86 bc 46 39 d1 3d ef 76 43 3e c6 a3 8f 3d
       -0.016475892 0.10216002 0.19088338 0.07013659
0002f0 4e 50 99 be ce 8a 20 3f 98 e3 a5 be 10 0b ac be
       -0.2994408 0.627118 -0.32400203 -0.3360219
000300 d9 bd 73 bd 60 4f cb bc 05 29 81 bd d5 2e 84 bd
       -0.059507225 -0.024818122 -0.06306652 -0.06454245
000310 e9 44 35 3c e4 ec 76 3c e9 c3 8a 3c 64 cf 8d 3b
       0.011063793 0.015071128 0.01693912 0.0043277014
000320 1a 34 55 bc 22 6a 4a bd eb 7f 6a bd 51 24 d3 bd
       -0.01301291 -0.049417622 -0.0572509 -0.10309661
000330 f7 9c ce 3e a2 bb 56 3f a1 90 64 be 55 58 5b be
       0.4035413 0.83880055 -0.22320797 -0.21420415
000340 14 fb 81 3e 46 ed ae 3e 43 19 09 3f 56 ef 1e 3f
       0.2538687 0.341654 0.5355417 0.6208395
000350 26 45 e1 bd a3 b5 19 bd 9d 92 be be 23 21 ac be
       -0.10999517 -0.037526738 -0.37221232 -0.3361903
000360 d8 23 41 be 51 6e 76 be 25 17 21 3f cd 9d 1b 3f
       -0.1886133 -0.2406552 0.6292594 0.6078766
000370 13 5a 67 bd ca d4 e5 bd 77 4f 5d be 16 77 72 be
       -0.056482386 -0.11222227 -0.21612345 -0.2367824
000380 32 0d 7c be 0d d2 72 3e c7 d3 b8 3e e5 04 6b 3f
       -0.24614409 0.2371294 0.36099073 0.91804343
000390 be 60 90 bd 07 71 04 bd 38 b0 32 bd ef d0 6e bd
       -0.07049702 -0.032334354 -0.043625087 -0.058304723
0003a0 06 09 96 ba 97 44 1b 3c e0 19 f6 3b 35 7b c3 3b
       -0.0011446781 0.009476802 0.0075104088 0.005965615
0003b0 4c b0 02 bc b8 ac 85 bd 3f b4 2d bd 69 62 d7 bd
       -0.007976603 -0.06527084 -0.042408224 -0.10516817
0003c0 36 29 5c bd 4b c9 4f be 64 9e 85 3e 7e f8 47 3e
       -0.05375024 -0.20291631 0.26097405 0.19528386
0003d0 6e 25 30 3f 57 e2 05 40 52 a0 58 3f 67 74 e9 3e
       0.68807113 2.0919397 0.8461963 0.4559662
0003e0 15 1d 8b be fb f1 6e 3e ea 94 6e be 93 e9 8b be
       -0.27170625 0.23334496 -0.23298994 -0.2732664
0003f0 46 97 9c bd 52 c5 23 bd af 55 da bb a7 fa 9a bd
       -0.076460406 -0.0399831 -0.0066630463 -0.075673394

base.fc0.bias f4 [400]
000000 da 2f 77 3e f3 04 9a 3e dc cb 94 3e ac 06 aa 3e
       0.24139348 0.300819 0.29061782 0.33208215
000010 9e c9 99 3e 1c dd 15 bc 6d 55 7e 3e 97 cc ac 3e
       0.30036634 -0.009146955 0.24837275 0.3374984
000020 48 e6 7a 3e d6 d5 ac 3e 90 22 d8 3e ff 2b 1d 3e
       0.24501908 0.33756894 0.4221387 0.15348814
000030 ed ee b2 3e 52 5a 9d 3e 72 17 ca 3d 84 89 a4 3e
       0.3494791 0.3073297 0.09867753 0.32136166
000040 bf 37 95 bc 63 43 bb 3e fb 59 69 3e 20 1e 2e bc
       -0.018215058 0.3657485 0.22788231 -0.0106273
000050 9b b2 b3 3e 47 c9 49 bc b1 16 13 3e 90 6c a2 3e
       0.35097203 -0.012316055 0.14364125 0.31723452
000060 0f ee bd 3e b1 db ed 3e 33 9d 95 3e 26 59 9f bb
       0.37095687 0.46456674 0.29221496 -0.0048629222
000070 87 b0 ba 3e 38 9d 7a 3e b9 67 96 3e 7c 05 a4 3e
       0.36462805 0.24474037 0.2937601 0.32035434
000080 0a 80 ae 3e ed 58 99 3e 82 60 94 3e a4 1b a8 3e
       0.3408206 0.29950657 0.2897988 0.32833588
000090 6c ef e5 bc 07 04 e1 3e 55 6a 9a 3e 4b 76 0b bb
       -0.028068267 0.43948385 0.3015925 -0.0021280225
0000a0 c9 b2 c6 3e 2b 23 48 bb 1b ca 7f 3e 95 aa a1 3e
       0.38808277 -0.003053854 0.24979441 0.31575456
0000b0 3c 70 84 bd 64 56 e8 3e 9c 3a 00 3f 46 7e c8 3e
       -0.064667195 0.4537841 0.5008943 0.3915884
0000c0 01 fd 9d 3e b3 10 2a 3e 08 c0 98 3e fb 2c 9f 3e
       0.3085709 0.16607933 0.29834008 0.31089005
0000d0 ba 49 a9 3e d7 e6 66 3e 09 ac 98 3e 21 7b 9e 3e
       0.3306406 0.22548996 0.29818752 0.30953315
0000e0 dc 3c 14 3e 9d 91 ae 3e 13 16 d5 3e 2d bd bc 3e
       0.14476341 0.3409547 0.41618404 0.3686308
0000f0 d8 21 c5 3e 01 4c b8 3e 7d 7d 33 3e b5 ea 54 3e
       0.38502383 0.35995486 0.17528339 0.20792659
000100 61 e6 63 3c 2b 09 7c 3e 45 1a 47 3e 52 2c 85 bd
       0.013909907 0.24612872 0.19443615 -0.06502594
000110 64 07 c2 3e f6 14 8e 3e c8 a3 99 3e 9a 93 ed 3e
       0.37896264 0.27750367 0.30007768 0.46401674
000120 24 fb c2 3e c3 45 3b 3e ec e3 82 3e 96 c6 33 3e
       0.3808223 0.1828833 0.25564516 0.17556223
000130 99 de 41 3e 31 fb 93 3e cc d3 8d 3e 2e c8 9b 3e
       0.1893257 0.2890258 0.2770065 0.30426162
000140 44 fa ac 3e 00 af 59 bd 8c 63 d9 3e f8 a6 cd 3e
       0.33784688 -0.05314541 0.4245876 0.4016645
000150 32 f1 8d 3e b4 bd cd 3e 7a 65 80 3e fe a5 8b bc
       0.2772308 0.40183794 0.2507742 -0.017046925
000160 7a e2 87 3c 34 e0 c8 3e 0b 9e 8b 3e f4 84 93 3e
       0.016587485 0.39233553 0.27269015 0.28812373
000170 0a 8a 32 3e bc 23 90 3e e5 e1 cf 3e d0 98 48 bc
       0.1743547 0.28152263 0.4060203 -0.012243465
000180 7b 54 a5 bd f1 50 9d 3e d7 23 78 3c 62 c3 c4 3e
       -0.08072754 0.30725816 0.015145264 0.38430315
000190 c2 bb 9c 3e cc 72 ba 3e 36 79 a9 3e 55 f1 c8 3e
       0.30611998 0.36415708 0.3310029 0.39246622
0001a0 41 9b 49 3e 4c 26 87 3e a3 3d 6d 3e a4 0b b4 3e
       0.19688131 0.26396406 0.23168044 0.3516513
0001b0 4f ad 99 3e a4 fb ae 3e 9c da 85 3e 7e 56 5f 3e
       0.30015036 0.34176362 0.26143348 0.21810338
0001c0 63 60 69 bc c9 f7 c1 3e 77 94 8b 3e 01 da 82 3e
       -0.014244172 0.37884358 0.27261707 0.2555695
0001d0 94 0f e2 3e 50 a2 a5 3e 81 7f 17 bd b1 62 ad 3e
       0.4415251 0.32350397 -0.03698683 0.33864358
0001e0 79 0c 71 3e 13 b1 af 3e 63 bc 8a 3e 11 78 a4 3e
       0.23539914 0.34314784 0.27096853 0.32122853
0001f0 a5 1a 0d 3f 5b d7 6a 3e 05 da 0d 3e 63 73 91 3b
       0.5511878 0.22933714 0.13852699 0.004438804
000200 49 32 a6 3e b5 1a af 3e 10 82 88 3e 95 e8 db 3e
       0.3246024 0.34200063 0.2666173 0.42950884
000210 59 ef 10 3e f4 4e a1 3e d1 f5 9a 3e 74 8f a2 3e
       0.14153804 0.3150555 0.30265668 0.3175007
000220 fe 1c b3 3e d7 ae b3 3e ed 86 b1 3e 04 18 c2 3e
       0.34983057 0.3509433 0.34673253 0.37908947
000230 89 c4 c0 3e e4 cf cf 3d a8 12 88 3e e4 ac be 3e
       0.37649944 0.10147074 0.26576734 0.3724128
000240 c7 90 93 3e a1 24 b9 3e 30 ce 9e 3e e3 31 d1 3e
       0.28821394 0.36160758 0.31016684 0.40858373
000250 df 5a e0 3e a5 bb 87 3e 52 c0 21 bd dd 4e 61 3e
       0.4381933 0.2651035 -0.03949005 0.2200274
000260 62 4d c4 3e 85 b4 2a 3e 7a c7 51 3a 3a a6 3d bc
       0.38340288 0.16670425 0.00080024416 -0.011575276
000270 ee fc c6 3e c8 01 c3 3e a1 9f e0 3e f4 a9 bf 3e
       0.38864845 0.38087296 0.43871787 0.3743435
000280 46 a1 49 3e 8e 89 c5 3e 68 1c 4f 3e 10 5b 97 3e
       0.19690427 0.38581508 0.2022568 0.29561663
000290 90 dc d1 3e 06 eb af 3e e4 45 8d 3e c8 27 9b 3e
       0.40988588 0.34358996 0.27592385 0.30303788
0002a0 af 21 85 3e 93 03 bb 3e 98 94 b3 3e 94 53 d9 3e
       0.2600226 0.36526164 0.35074306 0.42446578
0002b0 29 b0 7e 3e da b1 e0 3e de 88 b8 3e 8b db e3 3e
       0.24871887 0.4388569 0.3604192 0.44503435
0002c0 8c 0d 96 3c b5 f4 a1 3e 06 ee be 3e 4d f5 ad 3e
       0.018317007 0.3163201 0.37290972 0.33976212
0002d0 f0 df 6c 3e 21 98 6d 3e 1e a1 02 ba b9 67 57 3e
       0.231323 0.23202564 -0.0004983115 0.21035661
0002e0 17 1b 92 3e e4 c5 55 3e f9 a7 b4 3e 8f ad 88 3e
       0.28536293 0.2087627 0.35284403 0.26694915
0002f0 fd 33 92 3e 98 8e d2 3e 54 e6 03 bd c6 50 65 3e
       0.2855529 0.41124415 -0.03220208 0.22394094
000300 02 37 ac 3e c1 71 46 3e cf 65 b3 bd 5b 90 85 3e
       0.33635718 0.19379331 -0.08759653 0.26086697
000310 80 32 a1 3e df 89 7f 3e c9 03 14 3e 28 8e b7 3e
       0.3148384 0.24954937 0.14454569 0.35850644
000320 e9 14 cd 3e a7 a9 a2 3e 94 10 91 3e 58 25 9f 3e
       0.40055016 0.3177006 0.2833296 0.3108318
000330 bd 6b 84 3e 22 d8 99 3e 1b cd 45 3e 7c 9d 0d 3c
       0.25863448 0.3004771 0.19316523 0.008643504
000340 27 e6 01 3e 0d 06 d7 3e ab 38 98 3e 33 62 d5 3e
       0.12685452 0.41996804 0.29730734 0.41676483
000350 c9 b9 ec bb 78 fc c0 3e 8a db 2e 3e 71 78 a6 3e
       -0.0072242958 0.37692618 0.17075935 0.32513765
000360 36 98 d0 3e 5e 58 f3 bc da b4 80 3e 05 45 87 3e
       0.40741128 -0.029705223 0.2513798 0.26419845
000370 42 5c 8e 3e c3 ac a5 3e bc ab aa 3e 87 8f c2 3e
       0.27804762 0.3235837 0.33334148 0.38000128
000380 6e 40 9e 3e c4 c7 6d 3e ac 45 df 3e 66 b8 9f 3e
       0.3090853 0.23220736 0.43607843 0.31195372
000390 57 4f b4 3e 7f c4 b1 3e 1d 00 59 bd e0 71 a9 3e
       0.35216781 0.34720227 -0.052978624 0.33094692
0003a0 2c 70 a9 3e 98 11 d9 3e 3e 14 45 bd 30 72 8d 3e
       0.33093393 0.42396235 -0.048115008 0.2762618
0003b0 d2 6a da 3e 12 33 f0 3d 3f 43 c5 3e d9 e6 33 bc
       0.42659622 0.11728491 0.38527867 -0.010980331
0003c0 ae c7 99 3e 41 e2 0c bc f6 2a 0c bd 35 0d 4c 3e
       0.30035156 -0.008598865 -0.03422066 0.19926913
0003d0 f4 0a 8e 3e 8b f2 10 3c 7f 58 93 3e c6 9f ac 3e
       0.27742732 0.008846889 0.28778455 0.33715647
0003e0 d5 11 92 3e 2b 68 9e 3e fd 06 64 3e 9b ca 23 3e
       0.2852923 0.3093885 0.22268291 0.15995257
0003f0 7a 8c 71 3e 31 72 59 3d 27 48 ea 3e f0 c3 9c 3e
       0.23588744 0.053087417 0.45758173 0.30618238

last.weight f4 [3, 400]
000000 56 95 4b bd 06 f0 28 3f e1 b3 04 be 3d 3b 50 3f
       -0.049702965 0.65991247 -0.12959243 0.8134039
000010 2a 75 59 3d ae 1e f6 3c e2 c0 0c 3d b3 91 59 3d
       0.053090252 0.030043926 0.034363635 0.053117465
000020 32 00 9f bd 4b a7 ae 3d 19 a2 87 3f bc 32 26 3e
       -0.07763709 0.08528002 1.0596343 0.16230291
000030 c6 e5 f0 bd 9e 7e 99 bd 68 77 60 3e e5 b9 4f 3f
       -0.11762576 -0.074948534 0.2192055 0.8114303
000040 d2 1f ff 3c 45 7d 54 3f 52 2a b2 bd 78 bf c1 3c
       0.031143103 0.83003646 -0.08699478 0.02365087
000050 50 4a 22 3f 78 dd 0f 3d 80 83 b7 3d 71 2c 52 3f
       0.6339464 0.03512332 0.089606285 0.8209906
000060 0a 09 76 3f ac e0 82 3f ce b9 19 3f d0 f1 61 3c
       0.9610754 1.0224814 0.6004914 0.013790563
000070 fe ee 7d 3f d2 d7 fe 3e ea 8c 26 3f cb c1 13 3f
       0.991928 0.49774033 0.6505877 0.5771758
000080 b9 7e 65 3f 6d 9c eb bd 92 40 28 3f 47 7d 51 3e
       0.8964649 -0.11504445 0.65723526 0.20457946
000090 0a 89 82 3c 49 7b 81 3f 23 eb 27 bd 61 d0 00 3c
       0.015934486 1.0115749 -0.04099573 0.007862181
0000a0 73 2d 7a 3f 6e 8c 23 3d e4 43 82 3e 31 4d b6 bd
       0.977256 0.039928846 0.2544242 -0.08901442
0000b0 12 51 b9 3d 0e bb 86 3f 1a b0 88 3f 81 99 81 3f
       0.09048666 1.0525835 1.0678742 1.0124971
0000c0 5e b0 21 be b5 2b c6 3c 48 bd 06 be 92 ca 51 3f
       -0.15789935 0.024190763 -0.13158143 0.8194972
0000d0 5b f4 18 3f 3b 1d d9 3b 7e d7 73 3d ff e1 23 3f
       0.59747857 0.006625799 0.05953168 0.6401672
0000e0 f2 97 9e 3c e0 30 25 3f 7f 74 3e be 92 0b 8c 3f
       0.019359563 0.645277 -0.18599127 1.0941031
0000f0 86 90 2b be 6e b9 8c bd c9 87 49 3e 7b 68 29 3e
       -0.1675435 -0.068713054 0.19680704 0.16543762
000100 25 43 85 3d 43 bd 0a 3f fa d5 c6 3e 92 c7 7c 3d
       0.065069474 0.5419504 0.38835126 0.061713763
000110 5b ba 7b 3f 54 32 01 3f 25 d4 35 3f e4 ef 87 3f
       0.9833123 0.5046742 0.7102683 1.0620084
000120 dc 11 50 3f 25 7f ef 3d eb b2 fa 3d 0a 61 bc 3e
       0.8127725 0.11694173 0.12241157 0.36792785
000130 6c ae b3 3e ba 1f 8c bb bd 52 0b 3f 10 49 fa bd
       0.3509401 -0.004276243 0.54423124 -0.12220967
000140 df f3 b6 3c 3f 73 7b 3d 08 9b 85 3f 72 1f 74 3f
       0.022333084 0.061389204 1.0437937 0.9536048
000150 c3 b8 40 3d 14 15 80 3f 67 b1 65 3e fa 46 00 3d
       0.047051203 1.0006433 0.22430955 0.03131769
000160 1d fb 55 3c 35 5d 82 3f 12 e6 ea bd 8a 1d fe bd
       0.013060358 1.0184695 -0.11469664 -0.12407978
000170 24 4c e6 3d 74 89 c4 3e 4f 64 27 bd 01 bf 79 3c
       0.112449914 0.38386118 -0.040867146 0.015243293
000180 f5 1d 4a 3d c9 0a 4f 3f 8f 93 46 3c 11 5d b8 bd
       0.049344976 0.8087583 0.012120142 -0.09002126
000190 49 47 11 be 6d 95 3c 3f 2d e7 3d 3d 21 64 69 3d
       -0.1418735 0.73665506 0.046363045 0.056980256
0001a0 1d c6 48 3d 45 19 36 bd fe 6a dd 3e fb 70 fd bd
       0.04901706 -0.044457693 0.4324569 -0.12375065
0001b0 fc f0 17 3f be d5 34 be ba 31 86 bd be ca 6a 3d
       0.5935209 -0.17659661 -0.06552453 0.057322256
0001c0 7f f7 b0 3c af f2 7b 3f 78 3b e0 3e da e6 cc 3e
       0.02160239 0.9841718 0.4379537 0.40019876
0001d0 39 20 5b 3f 9d e9 59 3d 3d c7 02 3d 31 cf 25 3d
       0.8559604 0.053201307 0.03192829 0.040480796
0001e0 15 6d ab 3d af 18 50 3f 8e 3e 22 3f c8 89 49 3d
       0.08370415 0.81287664 0.633767 0.049203664
0001f0 67 8c 92 3f 53 31 3f 3d 4b b6 ce 3d c8 4b 82 3b
       1.1449097 0.0466779 0.100933634 0.003976319
000200 d7 ba 1e 3f 0f db 1f be b7 f9 0c 3f 36 d1 35 be
       0.62003845 -0.15610908 0.55068535 -0.17755589
000210 dc c1 a0 3e 54 db 87 bd 61 50 3f 3f 81 ea 31 be
       0.31397903 -0.066336304 0.74732023 -0.17374612
000220 15 91 39 3f a4 68 27 be ed 65 45 be b6 07 6e 3f
       0.72487 -0.16348511 -0.19277163 0.92980516
000230 95 2c c8 bd 4a 25 80 3e 45 ce bd 3d cc de 73 bd
       -0.09774128 0.2502845 0.092678584 -0.059538648
000240 36 ae 63 bd 8a 88 04 bd 8c 4c 05 be 5b 3b ca bd
       -0.055586062 -0.032356776 -0.13017482 -0.098746024
000250 40 08 c5 bd 7f 78 11 3f ad aa 0b bc f6 07 fe 3e
       -0.09620714 0.5682449 -0.008524579 0.4961545
000260 c2 e8 60 3f 28 92 f7 3d 2a 66 38 3d c2 e0 22 bc
       0.8785516 0.12088424 0.045019306 -0.009941282
000270 0f 31 82 3f 55 c9 63 bd d4 0d 7c 3f f0 af 60 3f
       1.0171221 -0.055611927 0.984586 0.8776846
000280 92 57 2c 3d 9b 83 86 3f ba a6 3d bd b1 37 13 3f
       0.0420757 1.0508913 -0.04630158 0.57506853
000290 d7 93 74 3f ae c7 4f 3f 45 25 92 3e ce e7 98 3e
       0.95538086 0.8116406 0.2854406 0.29864353
0002a0 3d b1 02 3f 94 06 77 3f a0 c4 5e 3f 4b 89 86 3f
       0.51051694 0.9649441 0.87018776 1.0510648
0002b0 f9 7c 11 3f f5 09 cb bd e0 ed 6b 3f a8 73 87 3f
       0.5683132 -0.099140085 0.92159843 1.058217
0002c0 f9 b9 08 3c eb ef 1b 3f 4b 8f e6 3c bf 76 46 3d
       0.008345121 0.6091296 0.0281445 0.04845309
0002d0 95 5b e5 bd d9 f0 92 3d 21 0d 53 3c ad ea a6 3e
       -0.111991085 0.07174844 0.012881548 0.32600918
0002e0 69 df 39 3f 48 fc dd 3e d6 60 3c 3f 49 d3 2d 3f
       0.7260652 0.43356538 0.7358526 0.6790052
0002f0 5a 48 1a 3f bd fa cc bc 01 64 2f 3d 91 66 7c 3d
       0.6026665 -0.025021905 0.04281998 0.061621252
000300 c5 fc f9 39 ab 4c c9 3d 63 8d c1 3d ba 09 06 3f
       0.0004768131 0.098290764 0.094507955 0.5235859
000310 95 ba 24 be d1 40 d5 3e 0d 55 b9 3e ea 83 5e 3f
       -0.160868 0.41651013 0.361977 0.86920035
000320 c3 f9 82 3f 85 f7 7b 3d 9d 61 d5 3d d0 3c 2d be
       1.0232471 0.06151535 0.10419009 -0.1691773
000330 b2 70 a6 bd 59 09 c3 bc 17 8e 4e 3b 08 62 3b 3c
       -0.08126964 -0.023808168 0.0031517798 0.011436947
000340 bb 96 c4 3d 5c ab 84 3f b6 6b 14 3f 0c 1f 06 be
       0.09599062 1.0364795 0.57976854 -0.13097781
000350 1d 05 95 3c 43 e2 38 3e 1b ab 6a bc 00 5e cf bd
       0.018190915 0.18055062 -0.014323021 -0.10125351
000360 4b 2a 78 3f 65 f6 3f 3d 30 80 e5 3e 31 86 01 3f
       0.96939534 0.04686584 0.44824362 0.50595385
000370 55 f0 11 3f da 24 39 be 4e fb 6f bd 3f 0e 8b bd
       0.5700734 -0.18080464 -0.058589272 -0.067898266
000380 af 0a 00 3d 02 21 a1 bd 2e 3c 87 3f 1e 87 21 3f
       0.03126019 -0.07867624 1.056524 0.630968
000390 c0 7d 6e 3f b9 01 27 bd f3 7d b2 3d 2d b0 a6 3d
       0.9316063 -0.040773127 0.08715429 0.081390716
0003a0 76 94 a9 3c 8a aa 5b 3f 94 2e cd 3c d4 8c a7 3d
       0.020700675 0.85807097 0.025046624 0.08181158
0003b0 2b bc 75 3f d4 ee 46 3e 08 8e 7f 3f a3 5c 9a 3c
       0.95990247 0.19427043 0.998261 0.018843
0003c0 56 13 3b 3e 6b 73 15 3d 08 c0 53 3c 52 96 ee 3d
       0.18269095 0.036487024 0.012924202 0.11649765
0003d0 49 15 ac bd 41 01 1d 3d a9 61 22 be 48 6a 9b bd
       -0.08402497 0.038331274 -0.15857567 -0.07588631
0003e0 77 d0 3a 3f 01 14 11 3e 0a 64 a1 3e e3 80 cd 3d
       0.7297434 0.14167787 0.31521636 0.10034349
0003f0 29 17 33 3e 8b 8e 4f 3d fc 93 5d 3f 1c 3f 3f 3f
       0.17489304 0.05067305 0.8655393 0.7470567

last.bias f4 [3]
000000 4f 9d 98 3e 2b 8c 8a bd 21 47 31 be
       0.29807517 -0.06765016 -0.1731229
