log/MUJOCO_ANT_DIR_12_withnoise_v4/Ant-v3/2/model/model_pf_task_best.pth (torch, 27411 bytes, 4 tensors)

base.fc0.weight f4 [400, 12]
000000 cd 07 13 3f bd c4 c4 3e 15 48 82 be ef 21 ed be
       0.5743378 0.3843135 -0.2544562 -0.46314952
000010 77 f9 ff be 38 75 00 bf 80 a6 d3 be d2 a6 ff be
       -0.49995014 -0.5017886 -0.41337967 -0.4993196
000020 12 5d f6 be 9c 86 ef bd 5f 14 b1 40 e2 cf 78 3f
       -0.48117882 -0.116955966 5.5337367 0.97192204
000030 8c e1 21 3e 73 06 ac be 25 c8 20 40 1c 7c 18 3f
       0.15808696 -0.3359867 2.5122159 0.59564376
000040 90 67 c5 be 14 c8 c3 be 24 94 94 3c 42 93 4e be
       -0.38555574 -0.38238585 0.018137045 -0.20173362
000050 99 11 c3 be 05 20 2f 3e d4 3d c3 be 9d f0 97 be
       -0.38099363 0.17102058 -0.3813311 -0.2967576
000060 b3 45 46 be da 18 0d be 1d 05 48 be 99 b5 46 be
       -0.19362526 -0.13779011 -0.195332 -0.19405212
000070 f8 87 bd 3d 33 ec 93 3e 1c dc 76 bd 09 00 a0 bd
       0.092544496 0.28891143 -0.060268506 -0.07812507
000080 03 1a f8 3d 7e 2c 43 be 17 67 44 be 1a 5e 45 be
       0.12114336 -0.19059941 -0.1917995 -0.19274178
000090 d0 07 71 be 30 ee 6a 3f 4f 40 02 3e 21 33 25 3f
       -0.23538136 0.91769695 0.12719844 0.6453114
0000a0 4a ce 26 3f 2c 25 5b 3d d5 87 54 be d8 9f 8e be
       0.6515852 0.053502247 -0.20754941 -0.27856326
0000b0 ec d2 82 be 0b 9c 8a be 87 03 1e 3d 0c 68 85 bd
       -0.25551546 -0.27072176 0.038577583 -0.06513986
0000c0 17 a4 0d 3d 2f a7 c8 3e 13 85 13 3f 7b f1 99 3f
       0.034580316 0.3919005 0.5762493 1.2026819
0000d0 3d da f3 3d d1 62 99 be a7 db 72 be e5 50 99 be
       0.1190686 -0.29958203 -0.23716603 -0.2994453
0000e0 4d 97 96 be 65 8a 9a be c3 03 96 be df 8c b6 bd
       -0.29412308 -0.30183712 -0.29299745 -0.08913588
0000f0 b2 3d 22 be b8 91 1a be 8b 92 f7 bd af c6 1c be
       -0.15843847 -0.1509465 -0.12088498 -0.15310167
000100 b5 3f d2 3e ec 18 13 3e 82 d6 b2 3e b3 68 19 be
       0.4106423 0.14364976 0.3492928 -0.14981346
000110 f4 f1 06 be 2f 21 0c be c9 16 1f be 41 62 1c be
       -0.13178235 -0.13684534 -0.15536036 -0.15271856
000120 1a e5 47 3f e7 db 70 be 5d 03 42 3c 3b 79 bf be
       0.78083956 -0.23521386 0.011841622 -0.3739718
000130 01 3d c3 be 0c 0c a9 be 96 bb 98 be 76 16 c5 be
       -0.3813248 -0.33017004 -0.29830617 -0.384937
000140 be ec c0 be 04 9f 7f 3e 78 33 92 3e 07 45 1e 3f
       -0.3768062 0.24963003 0.28554893 0.6182408
000150 fa 70 85 be 33 b1 b9 3e 4e 7b 82 be b8 e9 39 bd
       -0.26062757 0.36268005 -0.254847 -0.045388907
000160 87 df 52 3f 90 40 77 3f 20 77 48 be ca 2f 52 be
       0.82372326 0.9658289 -0.19576693 -0.20526043
000170 5e d4 cd bd f6 db 84 be 04 81 93 bc 23 4a 84 be
       -0.100502715 -0.25949067 -0.018005855 -0.25837812
000180 03 91 36 bd 24 fe 5b 3b 3d 96 9e bd 70 8c 3a 3d
       -0.044571888 0.0033568228 -0.077434994 0.045544088
000190 b4 97 75 3d aa 57 a2 bd d4 de 8c 3d 0b a6 a1 bd
       0.05995913 -0.07926877 0.068784386 -0.07892998
0001a0 87 01 a7 bd 30 ef 98 bd 8e b8 87 bd f8 6d 99 bd
       -0.08154588 -0.074674964 -0.06626998 -0.07491678
0001b0 fc e8 a6 be 98 bd a8 be ab fe 7e 3e 7f 94 35 be
       -0.32599628 -0.3295715 0.24901836 -0.17732428
0001c0 38 39 a5 be ea 2e a8 be 3b 02 0d 3f b5 a0 b6 3e
       -0.32270217 -0.32848293 0.5508153 0.35669485
0001d0 6d 61 a6 be d7 03 c0 3e dd df a0 be cc ad a5 be
       -0.32496205 0.3750293 -0.31420794 -0.3235916
0001e0 09 6c a0 be f3 40 14 3f 89 0a 14 be 44 41 6d 3d
       -0.31332424 0.57911605 -0.14457144 0.05792357
0001f0 78 95 aa 3e fa 2a 08 3f 7f e5 98 be f9 c7 9d be
       0.3331716 0.5319058 -0.29862592 -0.3081663
000200 87 7e 41 be 62 31 9b be 29 2b 50 3e 35 da 9c be
       -0.18895923 -0.30311114 0.20328964 -0.3063523
000210 e9 fb 12 3f 3a 29 a2 be 54 6f 00 be 63 b6 14 be
       0.57415634 -0.31672078 -0.12542468 -0.145227
000220 b7 d1 ba be c6 be 9a be 95 29 ba be 62 49 82 be
       -0.36488125 -0.30223674 -0.3635985 -0.25446612
000230 f7 26 a9 be e5 ae c9 bd 59 be d6 3f 6c b9 96 3f
       -0.3303754 -0.098478116 1.677684 1.1775336
000240 59 82 41 be 51 da 04 be c6 5e 89 bd c3 fb 3d 3c
       -0.1889738 -0.12973906 -0.0670753 0.011595669
000250 3f 0b 0e 3e 4f b2 7a bd f3 0c 24 3e 38 92 42 be
       0.13871478 -0.061205205 0.16020565 -0.1900109
000260 6c 83 07 be 71 d4 2b be 16 4c 3b be df de 3b be
       -0.13233727 -0.16780259 -0.18290743 -0.18346737
000270 bd 35 cd be 30 64 c2 be 3b 54 59 3e 50 2c a7 3d
       -0.40080062 -0.37967062 0.21223538 0.08162749
000280 ef 0f 07 3f 58 30 75 be b5 72 82 3f 00 3d 76 3e
       0.5275869 -0.23944223 1.0191256 0.24046707
000290 d5 2e c2 be 4d 7f c9 be 08 3d c2 be d0 41 c0 be
       -0.37926355 -0.39354935 -0.37937188 -0.3755021
0002a0 e1 83 a1 be 86 77 a5 be ca f8 9e be b7 99 a0 be
       -0.31545928 -0.32317752 -0.31049186 -0.31367275
0002b0 d8 66 06 be 3c df ef bd a7 00 3b 3e 2f fc a5 be
       -0.1312517 -0.117125005 0.18261968 -0.32418963
0002c0 8e 73 35 40 5f df 9e be df bc f9 bd c5 02 a3 be
       2.835178 -0.31029794 -0.121942274 -0.3183805
0002d0 1f ef 40 be 15 75 3c be bc f8 43 be c4 b1 da 3e
       -0.18841217 -0.18404038 -0.19137853 0.4271375
0002e0 76 e6 a5 3f 82 67 d8 3e e4 b0 98 bc fd 87 17 3c
       1.2960956 0.4226647 -0.018639036 0.009248731
0002f0 22 0e 3d be 85 9b 3d be 0f 60 3c be 9a 50 3f be
       -0.18462422 -0.18516357 -0.18396018 -0.18683091
000300 fe cc 36 3f 9c e2 50 3e d9 3d 6a bd 56 7d 9f be
       0.71406543 0.20398945 -0.05718789 -0.3115031
000310 01 d7 de be 23 10 aa be 09 51 dc be 0e fb dc be
       -0.4352341 -0.33215436 -0.43030575 -0.4316029
000320 22 72 af bd bd d3 15 3d a5 44 04 40 bb 52 d7 3f
       -0.08566691 0.036578882 2.0666897 1.6822122
000330 01 7e 47 be fc f3 2e be 6a 33 42 be c0 1d 43 be
       -0.1948166 -0.1708526 -0.18964925 -0.19054317
000340 da 60 03 3e 7d 6e 68 3f 88 ba 25 be fb 81 0c be
       0.12829915 0.9079359 -0.16184437 -0.13721459
000350 cb 6a 41 3e c5 46 40 be e5 65 8c bd 9d d5 40 be
       0.18888395 -0.18776996 -0.06855372 -0.18831487
000360 c6 eb 33 be 4e 56 c3 bd 61 b4 aa bd be fe 73 3d
       -0.17570409 -0.09537946 -0.08335186 0.059569113
000370 1e 71 c1 3c 80 b9 27 3d 7a 0f 94 bc ee b8 47 be
       0.023613509 0.04094839 -0.018073786 -0.19504139
000380 ed c7 2f be b5 3f 48 be 90 89 43 be 93 a5 48 be
       -0.1716611 -0.19555552 -0.19095445 -0.19594412
000390 41 c3 be be 0d da c3 be 5e 83 26 bd 8f 2d 17 be
       -0.37258342 -0.38252297 -0.040652625 -0.14763473
0003a0 d9 86 ba 3e 06 df 30 be df c9 20 40 f9 84 b4 3f
       0.36431006 -0.17272577 2.5123212 1.410308
0003b0 c9 e0 80 be fb 48 8b bd 53 93 c1 be 0d 91 c3 be
       -0.25171497 -0.06801029 -0.37807712 -0.38196602
0003c0 ce 98 f9 3e 03 db e2 bb 5c 4d 44 be 4d 7c 64 be
       0.48749393 -0.006923081 -0.19170135 -0.22313042
0003d0 91 0a b2 be 4e 7b bd be f3 5f b2 be 98 64 ba be
       -0.34773687 -0.37008137 -0.34838828 -0.36404872
0003e0 05 4e 88 be 9c f5 e0 3b 6a ba 19 40 04 2f 6a 3f
       -0.26622024 0.0068652164 2.4020028 0.9147799
0003f0 9f d7 93 3f eb 08 04 bd 0f f2 3e 3e f8 b0 3e be
       1.1550177 -0.032235067 0.18647026 -0.18622196

base.fc0.bias f4 [400]
000000 b4 b4 eb 3e 0b fd 92 3e 72 7d 2e bd 51 07 3c 3e
       0.46036303 0.2870868 -0.042600103 0.18362166
000010 40 85 81 3e a6 35 71 3d 3c 69 b3 3e 82 b0 22 3e
       0.25296974 0.058889054 0.35041225 0.15887645
000020 2b ad 8e bd 65 42 9b 3e cf 1c 76 3e 44 13 b5 3e
       -0.06966623 0.30324093 0.24034427 0.3536626
000030 22 86 24 be 0b 3a b0 3e b7 af 9b 3e 76 db cf 3d
       -0.16066793 0.34419283 0.30407497 0.10149281
000040 0f 50 d7 3e 89 8d 7e 3d 08 e3 76 bd 1a ac b3 3e
       0.42053267 0.062146697 -0.060275108 0.3509224
000050 c3 ba ac 3e 1d 43 9b 3e a0 a8 ca 3e 95 a0 84 3e
       0.33736238 0.3032464 0.39581776 0.25903764
000060 ac 9f 98 3e b0 07 6d 3e a8 82 cf 3d 6c c6 15 be
       0.2980932 0.23147464 0.101323426 -0.14626473
000070 8a ae e4 3e f3 b8 ca bd 62 2e 34 3e 20 37 a1 3e
       0.44664413 -0.098985575 0.17595819 0.3148737
000080 97 e8 0c 3e f0 e6 26 3f 4e 32 66 3e c6 03 a5 3e
       0.13760601 0.6519613 0.22480127 0.3222944
000090 82 b5 35 3e 81 51 55 3e 90 48 1a 3e fc 9f 92 3e
       0.17745021 0.20831873 0.15066743 0.28637683
0000a0 ba ce 99 3e 52 d0 73 3e d6 89 a1 bd 48 99 df 3d
       0.30040532 0.23809937 -0.07887618 0.10917908
0000b0 1b 32 4f 3e d0 9c 6b bd cd ba 96 3e cd a0 78 3e
       0.20233957 -0.057522595 0.29439393 0.2428009
0000c0 f4 60 96 3e 17 97 a2 3e 97 1f 80 3e 3e a2 a8 3e
       0.29370844 0.31755897 0.250241 0.3293628
0000d0 a2 eb fe 3e 73 f9 5b 3e 6e fc c3 3e 7a 49 8f bd
       0.4978915 0.21481876 0.38278526 -0.069964364
0000e0 68 5c 90 3e 1e 0c 90 3e 84 1e 0b 3e c5 da ab 3e
       0.281955 0.28134245 0.1358586 0.33565345
0000f0 4e 14 61 3e 04 00 b0 3d 8c e7 a0 3e 8e 99 80 3e
       0.21980402 0.08593753 0.31426656 0.25117153
000100 2f 8a 99 bc 4a 92 c5 3e 8c c3 b5 3e 17 f4 8b 3e
       -0.018742649 0.38588172 0.35500753 0.27334663
000110 a5 6d a1 bd ac f4 05 3f 26 9c 60 bd 63 ad a5 3e
       -0.07882241 0.52326465 -0.054836415 0.32358846
000120 3a 38 77 3e 1f c4 90 3e ff 4a 42 be ea dd af 3e
       0.24142542 0.2827463 -0.18973921 0.34348994
000130 80 3e fa 3d d7 02 93 3e de dd 99 3e 19 19 d8 bd
       0.12218952 0.28713104 0.30052084 -0.10551662
000140 d6 54 07 be f5 a6 ba 3e 62 b9 4b 3e ce 73 24 3e
       -0.13215956 0.36455503 0.19894937 0.16059801
000150 93 4c da 3e 84 b7 c4 3e 78 91 75 3e 53 f2 f6 bc
       0.42636546 0.3842126 0.23981273 -0.030144846
000160 14 56 a1 bd 5c 29 32 be 07 e9 54 3e 76 f4 8e 3e
       -0.07877746 -0.1739859 0.20792018 0.27920884
000170 17 73 6f 3e 58 a1 5f 3e f9 7d af bd 47 f4 57 3e
       0.23383747 0.21838892 -0.08568949 0.21089278
000180 95 d8 bc 3e 94 e2 bd 3d 69 8b 57 3e 14 6d b0 3e
       0.3688399 0.09271732 0.21049275 0.3445822
000190 12 5d 9c 3e 91 e9 5c 3e d1 fd e5 3d 24 c7 88 3e
       0.30539757 0.21573474 0.11230052 0.26714432
0001a0 c6 dd bf 3e 9b 65 64 3e 90 24 fc 3e 79 f5 a6 3e
       0.37473887 0.22304384 0.49246645 0.32609156
0001b0 de 51 6b 3e 8f 11 f7 3e 90 00 96 3e 73 e2 b8 3e
       0.22980449 0.48255584 0.29297304 0.36110267
0001c0 6e b8 67 3e 8b 99 d1 3e 51 56 6a 3e 36 03 06 bc
       0.22628948 0.40937456 0.2288449 -0.0081794765
0001d0 86 4f 65 3e 2d bf a1 bd d0 39 9a 3e 75 f2 a2 bd
       0.22393617 -0.07897792 0.30122232 -0.07956401
0001e0 e6 1b c5 bc d0 0c d9 3e 6a 1a b3 bd 98 d2 c4 3e
       -0.024061155 0.42392588 -0.087452725 0.3844192
0001f0 b9 3d b2 3e 27 71 d2 3e a0 9d 97 3e 5e 38 25 be
       0.34812716 0.41101953 0.29612446 -0.16134784
000200 83 9e 96 3e e5 da e1 3e 70 1a 46 3e 8b a2 01 3f
       0.2941781 0.44112316 0.19346023 0.50638646
000210 b0 f0 0c 3e b8 54 69 3d 47 c9 81 3e 9c e6 91 bc
       0.1376369 0.05696556 0.25348875 -0.017810158
000220 d6 4f 83 3e 7e fe 9f 3e 44 6a 0e be a8 3e 81 3d
       0.25646847 0.3124885 -0.13907725 0.06310779
000230 e0 09 b7 3e 99 17 8a 3e a4 a5 8d 3e 19 42 d1 3e
       0.35749722 0.2697113 0.27665436 0.4087074
000240 69 4f e3 3e 95 25 9f 3e f0 3c b4 3e f9 0e c5 3e
       0.44396523 0.3108336 0.35202742 0.38487986
000250 a2 11 b4 3e ba de 70 3e d7 82 cf 3e 4d 68 ad 3e
       0.35169703 0.23522463 0.4052951 0.33868638
000260 49 fc 14 be eb 17 c9 3e 9a 2b 4e 3e e5 86 e6 3e
       -0.14549364 0.3927606 0.2013382 0.4502479
000270 0e d8 d4 3e 73 a1 6c 3e 85 f4 d7 3e 64 ad e5 3e
       0.41571087 0.23108463 0.4217874 0.4485885
000280 25 1f 85 3e 74 bc 76 bd ea 78 a7 3e 6e c8 26 3e
       0.26000324 -0.060238317 0.32709438 0.16287395
000290 90 bd 07 be c6 9a 8f 3e e4 9c 57 3e 27 4d 80 3e
       -0.13255906 0.2804777 0.21055943 0.25058863
0002a0 50 1a 1d 3e 1a f0 d2 3e ae ea d4 3e 23 da 8a 3e
       0.15342069 0.41198808 0.41585296 0.2711955
0002b0 44 20 a6 3e 2a 4e 03 3f f5 e9 61 bd 23 01 cc bd
       0.32446492 0.51291144 -0.05515476 -0.09961154
0002c0 e3 4c bd 3e 5b 7b db 3e 6d 21 ce 3e a7 bf 5f be
       0.36972722 0.4286755 0.40259877 -0.21850453
0002d0 04 f1 fa bd 86 84 fe bc 15 5d c1 bd ad ad 24 3e
       -0.12253001 -0.031069051 -0.09441582 0.16081877
0002e0 f6 d0 9c bd cf 6d b4 3e b0 c7 88 3e e4 30 db 3d
       -0.07657044 0.35240027 0.2671485 0.107026845
0002f0 7f 5c 80 3e e6 f9 01 be 68 7f 67 3e 0b 8d a0 3e
       0.2507057 -0.12692985 0.22607195 0.31357607
000300 18 d9 29 be 89 d3 8b 3e e1 26 11 3e 25 01 5b be
       -0.16586721 0.27309826 0.14174987 -0.21387155
000310 7b 6b 07 3e f7 1c af 3e e2 72 07 3e 50 0d 82 3e
       0.13224594 0.34201786 0.13227418 0.25400782
000320 66 9b c6 3e 79 aa 7b 3e 8b 93 35 3e 09 93 e2 3e
       0.38790435 0.24576749 0.17732064 0.44252804
000330 03 c7 82 3e 0f 5a 42 3e 84 7a c5 3e af 60 b3 bd
       0.2554246 0.18979667 0.38570035 -0.08758675
000340 9d 9a 2a 3e ac 6e 6c be 99 90 b7 3e 0d 61 c5 3e
       0.16660543 -0.23089093 0.35852507 0.38550606
000350 e6 51 7a 3e 98 70 65 3e 90 25 7f bd f1 ec bd 3e
       0.24445304 0.22406232 -0.06229168 0.37094834
000360 f7 cd ba 3e 45 7d df bd f9 3d 5e 3e 57 17 82 3e
       0.36485264 -0.10912565 0.21703328 0.25408432
000370 c7 c9 3c 3e 91 bf 6b 3e 7f d0 b2 3e ba 7d 08 be
       0.18436347 0.23022296 0.34924695 -0.13329211
000380 ff b0 80 bd a8 93 8e 3e 22 a6 05 be 1d fc dd 3e
       -0.06283759 0.27847028 -0.13051656 0.4335641
000390 27 2d f3 3e d3 61 b2 3e e3 de 8c 3e f6 7c 50 3e
       0.47495386 0.3484026 0.275138 0.20360169
0003a0 e9 31 b5 bd d7 73 49 3e 11 92 95 3e 84 aa 39 3e
       -0.0884741 0.19673096 0.29213002 0.18131453
0003b0 71 b0 96 3d 2c 44 11 3f 86 cf f2 3e 16 03 f4 bd
       0.07357872 0.5674465 0.47423953 -0.11914651
0003c0 28 11 9d bd e0 e5 62 3e a0 21 77 3e 01 bf e7 bd
       -0.07669288 0.22158003 0.2413392 -0.11315728
0003d0 f4 f6 52 3e 27 22 0c 3e 4a de f4 3e 99 b2 77 3e
       0.20602018 0.13684903 0.47825843 0.24189223
0003e0 b4 92 70 3e 44 d7 47 be 6a c6 e7 3e 7e 49 a8 bd
       0.23493463 -0.19515711 0.45268565 -0.082171425
0003f0 7d 3b ac 3e 00 60 8f 3e 9a dd 7a 3e 45 30 d2 3e
       0.33639136 0.2800293 0.24498597 0.41052452

last.weight f4 [3, 400]
000000 f1 ab 0d 3f ec 9d 4a bf 61 22 26 3e 4d b8 a7 bc
       0.55340487 -0.7914722 0.16224052 -0.020473624
000010 93 d1 86 be 21 80 04 be 10 a1 d1 3c b8 56 52 3e
       -0.26331767 -0.12939502 0.025589496 0.20540893
000020 f9 3e 70 bc 2c ba ed be ed a6 49 3e 90 f1 c7 3e
       -0.014663451 -0.464311 0.19692583 0.39051485
000030 fc 0e 2e bd 05 5d 05 bf 63 2b 1d 3f f8 25 d3 bd
       -0.04249476 -0.5209506 0.6139433 -0.10309976
000040 78 ee cb 3e 71 3c b1 3e 6a 72 fe 3b 05 4b 06 bf
       0.39830375 0.34616426 0.007765104 -0.5245822
000050 cc 36 eb 3e 2e 74 89 3d 7e 07 a7 3e 39 0e ed 3e
       0.45940244 0.06711613 0.32622904 0.46299914
000060 e4 ee 82 bf 05 74 f6 3e 8e 50 90 3d cb bb b7 bd
       -1.0229154 0.4813539 0.070466146 -0.089713655
000070 1f 35 b7 3e 55 07 29 bc 33 d6 4d be 0a 82 10 3f
       0.35782716 -0.0103166895 -0.20101242 0.56448424
000080 a1 25 62 be b3 64 c9 3b 6c 8c b0 bd b6 1d 6c 3e
       -0.22084667 0.0061460375 -0.08620533 0.23058209
000090 84 64 cf 3e 04 95 06 bf bb 7d 8b 3e 06 de a0 3e
       0.40506375 -0.5257113 0.27244362 0.3141939
0000a0 9b de 37 bf ad 97 96 bd 5c f9 df bc b2 79 5f be
       -0.71824044 -0.073531486 -0.027340584 -0.21823767
0000b0 af 70 9c 3e c1 a4 4e ba ec df 58 bf f0 b7 13 bf
       0.3055472 -0.00078828266 -0.8471668 -0.5770254
0000c0 42 cf 4f 3e 7e 1d 26 bd 62 48 2f 3d 44 e7 dc be
       0.20293906 -0.04055547 0.04279364 -0.43145192
0000d0 78 54 18 3f 58 ec ff be 3f 4a d7 be cb de 48 3d
       0.5950389 -0.49985003 -0.42048833 0.049040597
0000e0 6c 6b a9 3e 65 5e fb be 68 18 d4 be a6 98 06 3f
       0.3308977 -0.49095455 -0.4142487 0.52576673
0000f0 9c b7 57 be 52 bc 9d be 17 89 f0 3e ad 66 9e bc
       -0.21066135 -0.3080774 0.4697959 -0.019336069
000100 37 98 e6 bc b4 a1 9e be 99 7b e4 bd a1 3d d1 3d
       -0.028148754 -0.30982745 -0.11156387 0.10216833
000110 84 c1 b8 bc 52 1c 8b be 9b 24 11 3c ac cb 00 bf
       -0.022553213 -0.27170044 0.008858825 -0.5031078
000120 db a8 a5 3e 9b e7 db bd 62 ee 87 bc 28 55 d4 3e
       0.3235539 -0.107375346 -0.016593162 0.4147122
000130 0a 13 ba 3e 71 91 ee 3e 9e 55 05 bf 08 91 dc ba
       0.3634265 0.46595338 -0.52083766 -0.0016827891
000140 26 05 0e bd 1a 5c 09 bf 1e d6 10 3f 7c ef 0c be
       -0.03467288 -0.5365616 0.56576717 -0.13763231
000150 cc 82 10 be fb b6 c8 bc a9 55 2d bf 97 e8 7c bc
       -0.14112395 -0.024501314 -0.6770883 -0.015436313
000160 e2 1b f5 bd 60 18 15 bd ab 72 03 3f e5 38 99 3d
       -0.11968209 -0.0364002 0.51346844 0.07481555
000170 88 98 11 bf 61 90 8c 3e 42 4d af 3c f6 2c ac 3e
       -0.5687337 0.27453902 0.021399144 0.33628052
000180 32 eb b0 3e ef c8 21 3d eb 2f 3a 3e 92 9d 97 3e
       0.3455444 0.039498266 0.18182342 0.29612404
000190 5b 0b 80 3e 6b 93 45 be 33 c5 3f 3d 76 90 83 3d
       0.25008664 -0.19294517 0.046818923 0.06424038
0001a0 91 fc a6 3e a6 2f 06 be 72 10 86 3e fe 17 85 be
       0.32614568 -0.13104114 0.26184422 -0.25994867
0001b0 5b a9 ad be 68 66 d5 be f6 99 fc bd 44 00 82 3e
       -0.3391827 -0.41679692 -0.12334053 0.25390828
0001c0 21 38 8e be 5d 99 a2 3d fa 58 06 bf 98 c6 9a bc
       -0.27777198 0.07939408 -0.5247952 -0.018893525
0001d0 07 09 cb 3e 6b 00 19 bd 52 f9 67 bf 97 19 24 bd
       0.39655325 -0.037353914 -0.9061481 -0.040063467
0001e0 bb 8f a5 bc ed 19 3d be 2c bd 5e bd ca 2e f6 3e
       -0.020210138 -0.18466921 -0.054379627 0.48082572
0001f0 c8 ce 16 3f c7 5d b5 be e9 61 12 3f 6c 06 bf bc
       0.58909273 -0.3542311 0.5718065 -0.023318492
000200 43 a5 93 3e 36 92 27 3f 6e de 41 be 11 40 0a 3f
       0.28837022 0.65457475 -0.18932506 0.5400401
000210 61 3d 07 3e 9d 64 ad be e2 dc 84 3e 3d ce 99 be
       0.13207008 -0.33865824 0.2594977 -0.3004016
000220 a4 5b 5a be fb fe 19 be 28 65 8a bc 5c f2 bd 3e
       -0.2132402 -0.15038674 -0.016893938 0.37098968
000230 9b 10 c9 bd 4c 48 c0 bd db 25 12 3c 79 8d f4 be
       -0.0981762 -0.093887895 0.008920158 -0.47764185
000240 48 85 90 bd 91 ec 90 bd b1 bb 8d bf 0f d5 b7 3d
       -0.070566714 -0.070763715 -1.1072904 0.089761846
000250 bf bb 9b 3d a3 ed c6 be cb d2 2d bf f7 12 67 3e
       0.07604169 -0.38853177 -0.6789977 0.22565828
000260 c2 eb 2e bc e2 0c 32 3e 23 bb 1c be af bb 18 3f
       -0.010676326 0.17387727 -0.15305762 0.5966138
000270 1b 4d f2 3e 3b a8 a2 be 36 be 0d bf 0f 72 14 3e
       0.47324452 -0.31768975 -0.55368364 0.14496635
000280 ba 05 eb 3e e5 f1 02 bc 41 09 5e 3e 9c 2e bf 3e
       0.45902807 -0.007992242 0.21683218 0.37340248
000290 c4 75 7f bd 7a ec 9c 3e 90 1b e3 3e ab 32 9c 3e
       -0.06236817 0.30649167 0.44356966 0.30507407
0002a0 d4 9b 07 3f 8c ec cd 3d 2a 42 10 bf cc d2 9c 3e
       0.5297215 0.10054883 -0.5635096 0.30629575
0002b0 a8 b3 ee 3e 25 e0 28 3f 05 b2 b0 bb 58 97 88 bc
       0.46621442 0.6596702 -0.0053923153 -0.016673729
0002c0 02 e2 9b be 72 92 88 be 0e 82 88 3e a6 c0 b5 bd
       -0.30445868 -0.2667423 0.26661724 -0.088746354
0002d0 d4 a5 80 bd 8c a0 77 bc 66 79 b2 bd 75 22 50 3e
       -0.06281629 -0.015113961 -0.08714561 0.20325644
0002e0 7b 91 9e bc 45 48 ec be 50 bc 9a 3e 05 4f bd be
       -0.01935648 -0.46148887 0.30221796 -0.3697435
0002f0 c9 1a 0e bf 8a f6 33 bd 17 a5 07 3f 38 d3 d6 be
       -0.5550962 -0.04393629 0.5298628 -0.41958022
000300 b4 91 38 bc ef 12 8f 3c da b6 ff 3d e3 f1 00 3d
       -0.011265207 0.017465083 0.12486048 0.03148068
000310 db 8b 8c be 50 aa 22 bf a5 48 ff 3e 7a 0e e3 be
       -0.2745045 -0.63541126 0.4986011 -0.44346982
000320 ef 80 56 3e c8 12 f6 3e a0 23 b9 be 4a 33 35 be
       0.20947622 0.48061204 -0.36159992 -0.17695346
000330 39 20 c0 be d1 0e 63 3d 23 a6 e3 3e be f5 0a 3d
       -0.37524584 0.055434052 0.4446269 0.033925764
000340 16 1a 85 3e 51 18 08 bd ee 48 96 3e 7f d9 33 3f
       0.25996464 -0.033226315 0.29352516 0.7025375
000350 08 7b cc be 5c cf fa 3e ee 4e 15 bd 5b 61 90 3e
       -0.39937615 0.48986328 -0.036452226 0.28199276
000360 7c ea bd 3c 2d cc f9 3c c6 9e 09 bf 75 e3 e8 be
       0.0231831 0.030492866 -0.53757894 -0.45486036
000370 42 bf 66 be b5 21 e8 be c4 f2 04 bf 2d fb db 3c
       -0.22533897 -0.45338216 -0.5193293 0.026853168
000380 9a 97 a9 bc 08 3c 78 3d 5d 3a 93 3d c8 1d b4 3e
       -0.020702172 0.060604125 0.07188866 0.3517897
000390 19 1e 12 bf 34 45 ab 3e a0 99 00 bf 92 ca a7 be
       -0.57077175 0.33451235 -0.50234413 -0.32771736
0003a0 66 82 86 bc b6 12 06 3f 77 58 fc be 07 ec ed 3e
       -0.0164196 0.523723 -0.49286243 0.46469137
0003b0 33 c2 dc be ea 4c 8c be 6d 34 c1 be bc 0e 8a 3d
       -0.43116912 -0.2740243 -0.3773531 0.067410916
0003c0 c1 b3 43 bd cf c5 01 bf bf 0c c2 3e 05 7d 45 3c
       -0.04777885 -0.50692457 0.3790035 0.012053733
0003d0 fb 73 fb be da 15 88 be 02 47 12 bf 91 e1 75 be
       -0.49111924 -0.2657917 -0.571396 -0.24011828
0003e0 d2 d2 18 bf 18 8d 89 bc 2d ec 22 be a1 72 32 bd
       -0.59696686 -0.016790912 -0.15910406 -0.04356635
0003f0 f7 a1 03 3f 1e 49 b1 3e 25 4e df 3e 19 d1 c4 3e
       0.51419014 0.34626096 0.43614307 0.3844078

last.bias f4 [3]
000000 74 1d dd 3d 5b f1 0b be 92 d9 df be
       0.10796633 -0.13666289 -0.4372068
