log/MUJOCO_ANT_DIR_12_v4/Ant-v3/1/model/model_pf_state_1590.pth (torch, 848933 bytes, 6 tensors)

base.fc0.weight f4 [400, 111]
000000 c4 91 7c 3e dd b2 3b be 28 52 73 bf df 6e b3 3e
       0.2466498 -0.1832995 -0.95047235 0.35045525
000010 74 cd f2 bd c6 64 0d bb 85 a6 be bd d7 23 0c be
       -0.11855593 -0.0021574958 -0.09309105 -0.13685547
000020 47 c0 d6 3d 68 69 59 bd 4c 30 5d 3e c5 a2 92 3e
       0.10485893 -0.05307904 0.21600455 0.28639808
000030 84 c0 96 bd 1f 69 c4 3c 82 23 e7 3e 8a e4 c8 bd
       -0.07360938 0.023975907 0.45144278 -0.09809215
000040 57 aa 1b 3e 88 0e 72 3e a7 93 51 3e 24 bd 81 3d
       0.15201698 0.23638356 0.20466481 0.06334904
000050 ba c2 ea bc fa 86 14 be 18 99 82 bc eb 40 15 3e
       -0.028657306 -0.14504614 -0.015942141 0.14575545
000060 01 84 3f 3d 88 6d 15 3c ce 6a b6 3d e3 f2 cd bc
       0.046756748 0.009120353 0.0890709 -0.025140231
000070 5f 5a 14 3d f3 cc 06 bc c3 49 2c bd 1a 7d d1 3c
       0.036218997 -0.008227575 -0.042062532 0.025572348
000080 8d f4 cd bc b7 53 9d bc 00 45 b9 bc e2 92 14 3d
       -0.025141025 -0.019204957 -0.02261591 0.03627289
000090 03 bc 3a bd 05 c3 13 bd 33 cf 30 bb c8 71 27 bd
       -0.04558946 -0.036074657 -0.002697897 -0.040879995
0000a0 cd bc ec 3c 93 b7 0e bd 15 b2 4a bd 67 ab ce bb
       0.028898621 -0.03484304 -0.04948624 -0.006307054
0000b0 8b 4c 0b bd 07 fc 10 3c 5d 09 83 bc 98 57 28 3d
       -0.034008544 0.0088491505 -0.015995676 0.04109916
0000c0 5d 1c f5 bc d3 a2 7a bc 33 2a d4 bc cd 5f 9b 3a
       -0.029920751 -0.015297609 -0.025899028 0.0011854112
0000d0 08 c2 03 3d 5d 46 40 bd 90 b4 81 bc a0 24 77 3c
       0.032167464 -0.046942104 -0.01583317 0.015084416
0000e0 08 44 23 bd 7d 9e 00 bd b3 73 9c bb a7 9a 15 3c
       -0.0398598 -0.031401146 -0.0047745346 0.00913111
0000f0 3a 39 03 bc 90 ac a6 3c 83 51 d7 3c 22 67 46 bd
       -0.008009249 0.020345956 0.026283985 -0.0484382
000100 37 f5 ad bc 57 f6 f6 3c ad 3c d9 bc 75 c8 41 3d
       -0.021235092 0.03014676 -0.02651819 0.04731031
000110 65 9a 13 bd ca a6 ba bc 93 fc 19 bd cb 26 23 bd
       -0.036035914 -0.02278461 -0.03759439 -0.039831918
000120 63 3e 02 3d 9a 90 22 bd f3 02 cb 3b 4d 61 a6 bb
       0.031797778 -0.039688684 0.00619542 -0.005077517
000130 b3 56 6b 3b bd 6d b5 bc fb ab 29 3d 27 f6 64 bc
       0.003590983 -0.022147054 0.04142378 -0.013974703
000140 3d 9d 00 bd 17 ee c0 3c 7a 74 3d bd 80 50 75 3c
       -0.031399954 0.02355103 -0.04625366 0.014972806
000150 73 a8 4c bd 93 f9 83 bc 3b 88 06 bd 2a 14 02 bd
       -0.049965333 -0.016110217 -0.032844763 -0.03175751
000160 27 c9 ec 3c bb 40 1e 3d 67 e8 b8 bc 8d 5f 19 3c
       0.02890451 0.03863595 -0.022571756 0.00936116
000170 93 89 58 bc fd c2 48 3d da 3a 1e 3c 40 61 3d bd
       -0.013216394 0.04901408 0.009657586 -0.046235323
000180 7a 8d 0c bd dd 0a ad bc 10 3d 04 bd 7d ea c4 3c
       -0.03431461 -0.021123344 -0.032284796 0.024037594
000190 7d f9 15 3d 68 ac 38 bd 2d be 42 bd f7 84 3b 3d
       0.036614884 -0.045086294 -0.047544647 0.045781102
0001a0 d3 e0 0f 3c 9f b8 2f bd ba 93 13 bc cd eb 51 bb
       0.00878163 -0.042900678 -0.009007389 -0.0032031417
0001b0 0d 44 de 3b 7d cd 8c 3c 97 c0 4a 3d f6 87 01 bf
       0.0067830146 0.017187828 0.049500074 -0.50598085
0001c0 68 ad db 3e 91 f2 e8 be 4a e1 1c 3e 59 a3 ba be
       0.42905736 -0.45497563 0.15320316 -0.3645275
0001d0 91 34 4c 3d 70 35 fe bd 28 29 30 3d c0 83 a0 bd
       0.04985482 -0.12412536 0.043008 -0.07837629
0001e0 6d b3 6a bd 82 3e fb bc 80 ca e1 bb 66 1a 2a 3e
       -0.05730002 -0.030669454 -0.006890595 0.16611633
0001f0 02 b3 6e bd 9c 9d de bd 4e 18 d3 bd d2 d0 c2 bd
       -0.058276184 -0.10869905 -0.1030737 -0.095124856
000200 a0 d3 80 3c 56 76 7d bd 18 cc 66 3c 38 89 75 3d
       0.01572591 -0.061880432 0.014086746 0.059945315
000210 86 74 90 bd 01 31 95 3b 5e 83 14 bd b4 a0 8d 3d
       -0.07053475 0.004552961 -0.036258094 0.06915417
000220 5c 49 9a bd a3 ff 72 3d fa 00 08 3c d3 0a 88 3c
       -0.075335234 0.059325825 0.008301014 0.016606724
000230 5a 2e 99 3b 67 41 ff bc d0 d1 90 bc 55 8f 39 3d
       0.004674715 -0.031159116 -0.017678171 0.045302708
000240 9a 99 6b bb 87 c2 c8 3c e0 5a cc bc 0b de 07 3d
       -0.0035949708 0.02450682 -0.024945676 0.03317074
000250 12 f5 2f 3d ea c6 8a bc b3 b6 1c bc b0 29 05 bd
       0.042958327 -0.016940553 -0.009565043 -0.03251046
000260 43 08 20 3d 80 94 42 3c 3a da 48 3c 83 e6 d1 bc
       0.03907038 0.0118762255 0.0122590605 -0.025622612
000270 80 08 40 bc cd ab 9d ba 30 21 ae 3c 80 27 3a 3b
       -0.011720777 -0.001202935 0.02125606 0.0028404891
000280 f8 fb 22 3d d3 ff 87 bc cb 2d 2f bd a3 99 27 3d
       0.039791077 -0.016601479 -0.04276828 0.040918004
000290 52 96 31 bd 53 b3 f2 bc 23 e9 a9 3c c7 e2 c8 bc
       -0.043356247 -0.029626524 0.020741051 -0.024522198
0002a0 a8 af 27 bd ba 83 5d bc 00 08 3d 3b ff c0 48 bd
       -0.040939003 -0.013520176 0.002884388 -0.04901218
0002b0 4d 1c 9a bc 9b db 05 3d fd 8d df 3c 53 28 1e 3d
       -0.018812323 0.032680135 0.027289385 0.038612675
0002c0 d3 19 94 3c 8a 0e e4 3c 77 2c 86 3c 73 bc b0 3b
       0.01807872 0.027838964 0.016378624 0.0053935586
0002d0 07 98 68 bc 23 80 cd bc 5a 68 87 bb cd 1c a0 ba
       -0.014196402 -0.025085514 -0.0041323127 -0.0012215615
0002e0 a8 dd 2e bd 0d 4f d8 3b ed 59 c1 3c ea d2 8c 3c
       -0.042691857 0.0066012205 0.02360245 0.017190415
0002f0 67 4f b5 3c 35 91 39 bd da 89 c1 bb 0d 4a 36 bd
       0.022132589 -0.045304496 -0.0059063258 -0.044504214
000300 58 d7 0e bd c3 82 ec bc 1d f1 22 3d 28 64 01 bd
       -0.034873337 -0.028870946 0.039780725 -0.031589657
000310 27 66 b5 3c 0f 58 0c 3d 57 1f a9 bc 00 24 a2 bb
       0.022143437 0.034263667 -0.020644827 -0.004948139
000320 80 99 49 bb 17 23 b8 3c 53 48 b4 bc 4a 10 9a 3c
       -0.003076166 0.02247767 -0.022007143 0.018806595
000330 b7 f3 86 3c 92 6f 12 3d cd 9c e3 3b 93 05 02 bd
       0.016473634 0.035750933 0.0069461823 -0.031743597
000340 80 67 d6 bb 33 4c dc bc cd 93 84 bb 6d b7 4d 3c
       -0.0065431 -0.026891803 -0.0040459395 0.012555939
000350 f5 2c 41 bd 1d 00 f6 3c b5 0b 34 bd 1a 4a 81 3c
       -0.047162015 0.03002935 -0.043956477 0.015782405
000360 d3 e6 2d bc d2 a7 03 bd 13 dc b2 3c f3 a6 5d 3c
       -0.010614115 -0.032142468 0.021833455 0.013528573
000370 62 10 47 3d b3 53 29 bb 66 06 0b 3f 2c 56 39 3e
       0.04859961 -0.0025837242 0.5430664 0.18099278
000380 31 ea 14 3e a1 52 c5 3e 4c be 9f be e7 ac 92 be
       0.14542462 0.38539603 -0.31199872 -0.2864754
000390 6b 9c 21 be 4d 3b ec 3d 50 4d d0 3d 61 c7 5e bd
       -0.15782325 0.11534748 0.10170996 -0.05438936
0003a0 e3 f9 70 3e 45 69 c8 bd bb e1 29 be 4b e1 b4 bd
       0.23532824 -0.097857036 -0.16590016 -0.08832034
0003b0 fd 1c 47 bd a4 90 c9 3c 0f 72 ab bd 2d ff 2e bc
       -0.04861163 0.024605103 -0.08371364 -0.010680956
0003c0 a7 d1 d5 bc 56 01 cd 3c 29 33 1c bd ab 47 b4 3c
       -0.026100947 0.025025051 -0.038134728 0.02200683
0003d0 17 18 0e 3d d0 91 c2 bd bc 52 33 bc b1 d3 a8 bd
       0.034690943 -0.09500468 -0.010945018 -0.08243502
0003e0 e4 99 94 3d 42 19 04 3d 33 21 70 bc b3 59 2b bd
       0.07255915 0.03225065 -0.014656353 -0.04183359
0003f0 e5 91 0b bd 40 c0 30 bd 1d b6 8c 3c e7 20 7f 3b
       -0.034074683 -0.043152094 0.017176682 0.0038929523

base.fc0.bias f4 [400]
000000 9a b6 80 be 8d 14 79 3e 76 ed 04 be d6 21 9f bd
       -0.25139314 0.24324246 -0.12981209 -0.077701256
000010 78 a5 70 bc 53 72 c4 3e 91 9e d1 bd 61 bb a7 bd
       -0.014687888 0.38368472 -0.10235322 -0.081900366
000020 e0 75 25 3e d6 80 91 be 38 b5 80 be 13 f3 71 3e
       0.16158247 -0.28418607 -0.2513826 0.23627882
000030 8d 5e 41 3e bf be 3d be 8f 90 63 bd fb 34 0b 3e
       0.18883725 -0.18529795 -0.055557784 0.13594429
000040 05 71 23 be 82 61 d9 bd 5f d4 96 3e 50 4b 83 3e
       -0.15961082 -0.10614301 0.294589 0.25643396
000050 26 2c 3b 3d 47 e2 97 bd b6 7a 36 3e 25 c9 92 be
       0.0456964 -0.07416206 0.17820248 -0.28669086
000060 58 a7 64 be 07 b2 1e 3e 75 d5 71 be bb a2 55 3c
       -0.22329462 0.154976 -0.23616584 0.013039286
000070 aa 72 a2 be b6 49 a1 be e2 13 72 3e 68 47 00 3e
       -0.31728107 -0.3150155 0.23640397 0.1252724
000080 56 fe 43 be 6d 58 97 be f2 05 df 3d bc a8 19 3e
       -0.1913999 -0.2955965 0.10889806 0.15005773
000090 1f dc 94 3c 4a 5d 81 3e f5 32 63 3e 27 7d 97 be
       0.018171368 0.25266486 0.22187407 -0.2958767
0000a0 e0 f4 4a 3d 41 97 81 be 93 6b 81 be 6b 19 85 3d
       0.049549937 -0.2531071 -0.25277385 0.06498989
0000b0 38 39 b6 3d 0f b9 d2 3d fe 10 16 3e 84 80 e4 3e
       0.08897632 0.102892034 0.1465492 0.446293
0000c0 26 0e 95 3e 0e 9b 7b 3e b8 1b 61 3d 3b 84 96 3e
       0.29112357 0.24570867 0.054958075 0.2939776
0000d0 3f 56 f1 3d 54 d4 6a 3b 39 01 8d bd e2 22 94 be
       0.11784028 0.0035832124 -0.06884999 -0.28932863
0000e0 ab df 11 3e da fb 79 3e b8 8d 36 be 3f d8 c5 be
       0.14245479 0.2441248 -0.17827499 -0.38641545
0000f0 b0 9a 11 3e e5 20 3e 3e eb bc 13 3e 9c 56 8b 3d
       0.14219165 0.18567236 0.14427535 0.06803629
000100 da 98 95 be 7e 14 65 bd b4 66 c1 3e 17 55 57 be
       -0.2921818 -0.055927746 0.3777367 -0.21028553
000110 45 7d 5f 3e a3 4a da bd 7a 54 a7 be a0 ee b8 3e
       0.2182513 -0.10658767 -0.32681638 0.36119556
000120 4a a7 82 3e 85 f8 8a 3d dd 3e 3d bd a6 42 92 3d
       0.25518256 0.067856826 -0.04620253 0.071416184
000130 51 e0 71 bd dc 5d a7 3c 58 fe 93 3e e1 fb df bd
       -0.059051815 0.020430498 0.28904986 -0.10936714
000140 a0 4d ad 3e ab 41 a2 3d 89 2d e1 3d a2 56 fb bd
       0.33848286 0.079226814 0.10995013 -0.12272383
000150 05 c5 6f be e9 eb 91 3e 42 e1 5f 3e 29 16 dc bc
       -0.23415 0.28500298 0.21863273 -0.026866036
000160 d8 94 9a 3d 82 c7 bc be c3 d4 b6 3e 8c 8c 43 3e
       0.07547921 -0.36870962 0.357092 0.19096583
000170 aa 9d 61 3e 08 c1 f1 bd c5 0c 2e 3d dd 85 6f 3e
       0.220328 -0.11804396 0.042492647 0.23390909
000180 53 dd c0 be ed d7 0d 3e dd 27 0f be 5d 77 9e 3e
       -0.37668857 0.138519 -0.1398005 0.30950442
000190 cc c6 db bd 95 88 ce bd 2e 08 a7 be ce 9d 9f 3b
       -0.10731277 -0.10084645 -0.32623428 0.0048711067
0001a0 b5 1f 26 3e 46 e0 9e 3e 86 51 16 3e 39 56 0a 3e
       0.16223033 0.31030482 0.14679536 0.13509454
0001b0 03 9a 08 be ac 9d 3b 3c 98 b3 34 be 17 fe 6e be
       -0.13340001 0.011451166 -0.17646635 -0.23339115
0001c0 36 30 49 be a0 34 8d 3e f4 62 3d be 8e 92 a5 3e
       -0.19647297 0.27579212 -0.18494779 0.32338375
0001d0 ef 5a 0a be 27 32 99 be 8f db 36 3e 39 13 38 3e
       -0.13511251 -0.29921076 0.17857192 0.17976083
0001e0 32 6a 14 be c7 78 f7 bd 00 37 ae be 7b 08 25 3e
       -0.14493635 -0.12083583 -0.34026337 0.16116516
0001f0 c5 ab 58 be 5c fc 84 3d 6b e5 fc 3c 64 08 80 be
       -0.21159275 0.06493446 0.030871114 -0.25006402
000200 a2 53 fa bd 1f 98 a5 3d 73 ec 16 be 68 53 5a 3e
       -0.12222983 0.080856554 -0.14738636 0.2132088
000210 f3 b7 b6 be 33 1d 6b 3a cb 45 1f 3e 83 14 84 be
       -0.35687217 0.00089688896 0.15553968 -0.257969
000220 f0 03 38 3d 62 33 58 3e 81 7e 73 3d 47 84 59 be
       0.04492563 0.21113351 0.059446815 -0.21241866
000230 4d 46 d7 3d a8 19 ea 3e 8f 8c fb bd f0 29 a4 3e
       0.10511456 0.457227 -0.12282669 0.32063246
000240 2f d9 ca 3d f2 1e 25 3e dd ae 3b be 1f ac 6e 3e
       0.09904706 0.16125086 -0.18328424 0.23307846
000250 8d 2b 18 bd 34 b1 24 be 23 b5 1f 3e 68 9a 8e 3d
       -0.03715091 -0.16083223 0.15596442 0.069630444
000260 72 a4 48 be 8b 6d bf bd c5 19 87 3d 02 03 3e 3e
       -0.19593981 -0.093470655 0.06596712 0.18555835
000270 9c b7 62 3e ea 49 d2 3d c7 2a dd 3d 25 76 0a 3e
       0.22140354 0.10268004 0.10799175 0.13521631
000280 b6 04 27 be 69 6f 15 3e 8d 74 49 3b 05 fc 94 be
       -0.16310391 0.14593281 0.0030739636 -0.29098526
000290 6b 5f e3 3e dd 60 8a 3e 7d a8 eb be 76 e2 f1 bd
       0.44408736 0.27027026 -0.46026984 -0.11810772
0002a0 8e da 4c 3e b7 5e 77 3e 08 f8 f9 bd 89 fb 90 3e
       0.20005247 0.24157225 -0.12205511 0.28316906
0002b0 c3 9e c9 3d 4a f1 fe 3d 32 ed a4 bd a2 a0 88 3e
       0.098447345 0.12448366 -0.08053054 0.26685053
0002c0 a6 3b 5f 3d b7 2d 1f 3c bd a7 5a 39 f5 cf 1f be
       0.054500245 0.009715489 0.00020852587 -0.15606673
0002d0 85 02 cd 3d 3e 7b 59 3e 6d 08 9e bd f4 65 2a 3e
       0.10010246 0.2123842 -0.07716451 0.16640455
0002e0 ef 04 66 3e 42 2a 6d 3e c6 4a 42 3e 18 5f 30 3e
       0.2246282 0.23160651 0.18973836 0.17223775
0002f0 bb 26 b9 be 27 3c 5d 3e e7 90 a4 be 58 83 82 be
       -0.36162362 0.21604978 -0.32141802 -0.25490832
000300 13 16 15 3c 7a 34 11 be 60 e0 ba be be 24 0d be
       0.009099501 -0.14180174 -0.3649931 -0.13783547
000310 57 5e 6b 3d 3c a0 7e 3d 06 00 41 3e 95 b0 84 3d
       0.057463016 0.06216453 0.18847665 0.06478993
000320 a0 2d e1 be b6 51 1a be b9 58 bc 3d 44 7d 18 3e
       -0.43980122 -0.15070233 0.0919661 0.14891535
000330 42 70 70 3e b4 83 41 3e 10 4e c9 b9 26 b7 83 3c
       0.23480323 0.18897897 -0.0003839587 0.016078543
000340 ea 83 a8 3e a7 a2 d9 3d 16 31 84 3e 92 e6 21 3e
       0.32913142 0.106267266 0.258187 0.15810612
000350 a5 de 89 bd 0c e6 87 be d3 b7 ec bb db 80 d4 3d
       -0.06731919 -0.265427 -0.007224062 0.1037614
000360 e0 de b6 be 3c 2c da 3d af 1c 6e bd 4e 33 ca 3e
       -0.35716915 0.10652968 -0.058132824 0.39492267
000370 d8 40 b6 3e 25 3e f7 3e 34 76 dd 3c 7f 44 a2 3e
       0.35596347 0.482896 0.027033903 0.31692883
000380 ec 99 bc be 44 42 10 3e 3c 74 83 3e 13 18 4c bc
       -0.36836183 0.14087778 0.25674617 -0.012456912
000390 4b db 58 bc 84 92 7a 3e 7e e8 0a 3d c5 8b 8d be
       -0.013235877 0.24469954 0.033913128 -0.27645698
0003a0 df ef 62 3e 96 d3 15 be 3d 92 78 3e 19 01 ea bc
       0.22161816 -0.14631495 0.24274535 -0.028564977
0003b0 3b d4 fb 3e 05 fb 49 3e dd 70 34 be 9a eb 7c 3d
       0.49185356 0.19724663 -0.17621179 0.061748125
0003c0 84 5d c7 bd 1e f4 27 be 39 17 6c be 04 85 74 be
       -0.097346336 -0.16401717 -0.23055734 -0.23878866
0003d0 01 b5 e1 3a 7a 4f 51 3e 7d 38 4b bd f3 55 4a be
       0.0017220081 0.20440474 -0.04961442 -0.1975935
0003e0 24 eb 9d 3d cb 33 90 3b ba 1c 86 3e f8 77 12 3e
       0.07710865 0.0044007055 0.26193792 0.14303577
0003f0 e9 c2 88 3d 08 75 6f bc d9 41 8a b9 3e 64 f3 bd
       0.06677801 -0.014615305 -0.00026370471 -0.11884354

base.fc1.weight f4 [400, 400]
000000 d8 9b 21 3e ac 76 24 be 64 0c c6 3d c5 35 77 3c
       0.15782106 -0.16060895 0.09670332 0.015088503
000010 b1 7b 42 be a4 15 a4 3d 81 5f b7 be 4c e4 c8 3d
       -0.18992497 0.0801194 -0.3581505 0.09809169
000020 64 c4 89 3e ef 9b 93 bd c7 ea be 3d 9c 5c 1e 3e
       0.26907647 -0.07207476 0.09322124 0.15465015
000030 75 46 f6 3d da 41 81 bd 1c 73 a2 3d 26 d2 9a be
       0.12025157 -0.06311388 0.079321116 -0.30238456
000040 7a 5c 2d be f0 75 18 be 29 c0 64 bd 62 fc e6 3d
       -0.16929808 -0.1488874 -0.05584732 0.11278607
000050 f1 4a 19 3e fe 4d 97 3c b0 71 c2 bd 6c 9c 34 be
       0.14969994 0.018469807 -0.094943404 -0.17637795
000060 69 85 e3 3d c9 d8 fe bd 9d 4b 1f bc 3a 4b af 3d
       0.1110943 -0.12443692 -0.009722617 0.0855927
000070 34 07 a0 be 1a b1 4a be f4 e5 36 be 5b d6 15 be
       -0.31255496 -0.19794121 -0.17861158 -0.14632551
000080 40 5b 79 3e e6 93 5a be 39 ca f4 3d 74 ac 19 3d
       0.24351215 -0.21345481 0.119526334 0.03751798
000090 10 9a 4a 3e 7f ec 8f bd 1c 5c 86 be eb 1c c5 be
       0.19785333 -0.0702753 -0.2624215 -0.38498625
0000a0 99 3e e1 be 49 56 9e bd f7 6b 99 3e b3 e7 89 3e
       -0.4399307 -0.07731301 0.29965183 0.26934585
0000b0 70 0d 59 be d9 26 02 be 28 51 60 3e 9e 0f 20 3e
       -0.21196532 -0.12710132 0.21905959 0.15630957
0000c0 0c 12 a9 bc 56 25 45 be a2 bd 1b 3d 10 db 3f bd
       -0.020638488 -0.19252524 0.038022645 -0.046839774
0000d0 25 8f a1 3e d6 20 4c be cf 99 7b be a7 e0 05 3e
       0.31554523 -0.19934401 -0.24570392 0.1307398
0000e0 a8 ad 5b 3e fd 80 82 3d 66 9e 6d bd 6e fb e7 bc
       0.21452963 0.06372259 -0.05801239 -0.028318133
0000f0 31 40 a5 bd 1d b8 ed bd ae a2 56 bd ba 0f 4f 3d
       -0.08068884 -0.116073824 -0.052401237 0.050552107
000100 d1 08 69 be d4 62 d9 bd 55 73 93 be 3c f0 06 be
       -0.2275727 -0.10614553 -0.2879893 -0.1317758
000110 ff fe 6c be 0f a5 82 3e 0c 32 29 3d f7 4f f1 3d
       -0.23144148 0.25516555 0.041307494 0.1178283
000120 53 76 c4 bd d6 08 cd 3d e8 04 97 3e 1f 37 64 bc
       -0.09592881 0.10011451 0.2949593 -0.0139291575
000130 68 6c 9c 3d 50 ad 9b be 84 ad 9f be 74 46 1e 3e
       0.07637864 -0.30405664 -0.3118707 0.15456563
000140 2b 91 94 bd f2 58 3f bd 80 c2 57 3e 23 fa a7 3e
       -0.07254251 -0.046715684 0.2107029 0.32808027
000150 5b a4 38 bd 1b ea d4 bd e7 56 ea be 2e 9a 99 be
       -0.045078617 -0.103962146 -0.45769426 -0.30000442
000160 70 dc a3 be 14 d5 b2 3b 93 67 fd be 3e ae c7 3d
       -0.32004118 0.00545753 -0.49493083 0.09750031
000170 c2 e4 1f be ac cf b5 bb 56 b3 c3 3b 42 d0 9c be
       -0.15614608 -0.005548438 0.0059723062 -0.30627638
000180 05 9c b3 3e f8 f5 ba 3c 96 e6 dc be 76 05 92 3e
       0.3507997 0.022822365 -0.43144673 0.2851979
000190 36 ff 8a be fc 9b 92 be e9 50 36 be 99 b0 33 3e
       -0.27147835 -0.28634632 -0.17804302 0.17547835
0001a0 36 10 09 be df 78 df bd af 56 7f 3e 97 50 69 be
       -0.1338509 -0.10911726 0.24935411 -0.22784649
0001b0 bc fc fe 3b 6d f2 26 3e 1c 90 7a be c6 06 d6 bb
       0.007781593 0.16303416 -0.24469036 -0.006531569
0001c0 7a cb d5 3e 72 de 80 be 53 f0 34 bd 93 02 88 bd
       0.41756803 -0.25169712 -0.044174504 -0.06641116
0001d0 d3 fd 2c 3d af ee 6e 3d e5 0a c4 be a5 04 a1 3d
       0.042234253 0.058333095 -0.38289562 0.07862214
0001e0 bb fe ee 3d 98 bf 09 3e f2 ad 89 3d 89 d2 7a be
       0.1166968 0.13451993 0.067226306 -0.24494375
0001f0 20 46 0e be e4 78 bc 3c 3a 8a 60 bd 0c 84 11 be
       -0.13893938 0.023006864 -0.054819323 -0.14210528
000200 8d 30 e5 bd 63 1e de bc ce 0f 9b be ab f9 5f be
       -0.11190901 -0.027114099 -0.30285496 -0.21872585
000210 4f dc 6d ba 58 95 b7 be 03 ea 08 bd ae 72 51 3d
       -0.0009073661 -0.35856128 -0.033426296 0.051134758
000220 98 be cc bd 89 c0 c5 3d 0d 09 b0 be 94 db 1d 3d
       -0.099972904 0.09655864 -0.34381905 0.038539484
000230 e8 f3 a6 bd 54 57 f5 3c 0e 7f aa bd 82 af a0 3d
       -0.0815199 0.029948868 -0.08325015 0.078459755
000240 8a 1e 54 be 0f 72 c4 3d d2 0f 3f 3e 57 c9 8c bc
       -0.20714775 0.095920675 0.18658379 -0.01718585
000250 47 f2 66 bc b0 5d 85 3d 25 e7 11 be 12 cf ae 3e
       -0.014095849 0.0651201 -0.14248331 0.34142357
000260 98 79 0b 3e 32 39 a2 be 3b 1f 58 3e 67 bc b5 bd
       0.13620603 -0.31684262 0.21105663 -0.088738255
000270 7d 84 a2 3e 4c c1 49 3d 38 9c 31 bd f1 fa 4d 3d
       0.31741706 0.049256608 -0.043361872 0.050288144
000280 bd 00 f2 bd 04 d7 80 3e e8 dc 2f be 17 bf 00 be
       -0.11816547 0.25164044 -0.17174113 -0.12572895
000290 54 d3 4d be e3 4d 86 3e 93 9b 9d 3e 90 49 7b bd
       -0.20100147 0.26231298 0.30782756 -0.06134945
0002a0 d4 6c 18 be 40 03 3b be dc 87 79 3d 04 aa 13 be
       -0.14885265 -0.18262959 0.06092058 -0.14420325
0002b0 c3 52 25 be 97 a6 29 3e f7 fb 50 3d 0d b2 fd 3d
       -0.16144852 0.16567455 0.051021542 0.12387476
0002c0 91 c3 62 3e a5 58 0c 3e 08 2f 7f 3e 27 c0 97 bd
       0.22144915 0.1370569 0.24920285 -0.07409697
0002d0 11 8c 0c be 68 af 4b 3c d7 84 18 be 87 1a ba 3d
       -0.13725306 0.012431957 -0.14894424 0.09087091
0002e0 7f b0 a8 bd 63 c1 8f be a4 97 70 bd 23 eb 8c be
       -0.08236789 -0.2807723 -0.058738366 -0.27523145
0002f0 90 73 55 bc 50 2d 61 3d c7 85 04 3f d2 af 17 be
       -0.0130280405 0.054974854 0.5176663 -0.14813164
000300 d2 1c c6 3e a3 15 23 bd 81 49 2f 3d f2 f1 fc 3e
       0.38693863 -0.039815556 0.04279471 0.4940334
000310 dc 66 97 3d b3 08 7d 3b 0a 7e 3c 3e 9e 7d 80 be
       0.07392666 0.0038609921 0.18407455 -0.25095838
000320 29 75 4f bd 21 e8 82 be b3 e5 43 3e f2 a1 cb bd
       -0.050648842 -0.25567725 0.19130592 -0.09942998
000330 19 37 cd be 70 80 b4 be 2b cb f5 3d 54 25 ed 3e
       -0.400811 -0.3525424 0.12001642 0.46317542
000340 6f a8 91 be c9 bd 83 bd 7a a9 37 be 62 ad 89 bd
       -0.28448817 -0.06432683 -0.17935744 -0.06722523
000350 74 0f aa 3d 3e f5 c4 bd 3f 04 98 3e 74 59 b1 bc
       0.08303729 -0.09617089 0.2969074 -0.0216491
000360 20 e8 92 3c d9 85 52 be 6b da 5b 3e 85 53 3e be
       0.017932951 -0.20558871 0.21470039 -0.18586548
000370 70 54 8e be 16 8c ad 3d 7b 11 b7 3d ae 4a 0a bd
       -0.27798796 0.08473985 0.08938881 -0.033762626
000380 d8 82 9c 3d 5a 09 0b 3e aa a7 03 3d b7 20 81 3e
       0.07642144 0.13577786 0.03214232 0.25220272
000390 d3 48 b0 be ef 9c 3a be 34 bd 4e 3e a2 51 ab be
       -0.3443056 -0.18223928 0.20189363 -0.33460718
0003a0 c0 cc 1c be 9a 2a 8d 3d 8d 33 51 be a4 fe 30 bd
       -0.15312481 0.06892891 -0.20429821 -0.043211594
0003b0 c8 fe 23 bd da bd 11 be fa 1e 66 3e 2b 47 cf bd
       -0.0400379 -0.14232579 0.22472754 -0.10120996
0003c0 83 88 6a 3d de 3d 4e be de 1f 15 3e f8 d3 0d bf
       0.057259094 -0.20140788 0.14562938 -0.55401564
0003d0 66 87 02 bb 2b 04 1b 3e f5 b2 2d be c8 eb 83 bd
       -0.001991713 0.15138309 -0.16962798 -0.06441456
0003e0 ae b1 03 bd 9a a8 50 be 8e b2 50 3e 96 3c 66 be
       -0.03215187 -0.20376816 0.20380613 -0.22484049
0003f0 7b ce 07 3c fd 83 98 be e1 21 60 3e bb 5c bc be
       0.008288975 -0.297882 0.21887924 -0.36789498

base.fc1.bias f4 [400]
000000 af 16 9b bd e9 71 0e 3e dc e5 cd bc 9d ad 5b 3e
       -0.07572686 0.13910641 -0.02513402 0.21452947
000010 dc 9e a5 3d 1e 3b 23 3c 01 be 82 3d a5 b8 d8 bc
       0.08086941 0.009962825 0.063838966 -0.026455233
000020 17 89 4e 3d 03 b0 e8 bc da ab 9d 3d ba fd eb 3d
       0.050423708 -0.028404241 0.07698794 0.11523004
000030 ec be 3c 3d 0d 44 9d 3d db 25 52 3e 92 5b 6a 3d
       0.046080515 0.07678995 0.20522253 0.057216235
000040 ec 85 37 3e 77 da aa 3c e6 2b 3b be 8f 21 89 3d
       0.17922181 0.020856125 -0.18278465 0.06695854
000050 a2 01 c0 bb 06 87 bc 3d 69 ad f3 bd 34 f1 fc 3d
       -0.0058595696 0.09205441 -0.1189831 0.12350693
000060 74 b8 88 3d 63 33 6e bd 8e 35 58 3e d8 95 69 3d
       0.06675807 -0.058154475 0.2111418 0.057027668
000070 cf 76 73 3e 31 65 9d bc 64 77 2f bd 02 78 67 bd
       0.2377579 -0.01921329 -0.04283847 -0.056510933
000080 b4 e6 50 bd f1 71 9e 3d 6b 89 b9 3d 0a 67 69 bd
       -0.051001266 0.07736576 0.090594135 -0.05698303
000090 67 b4 94 3d c6 16 fa 3d 6d 8d 85 3c da c6 0f 3e
       0.072609715 0.12211375 0.016302789 0.140407
0000a0 1f 3b 3e 3e c3 a1 53 3d ba 72 b1 bb 8f 5a 87 3d
       0.1857724 0.05166794 -0.005415288 0.066090696
0000b0 41 04 cb 3d be 34 92 3d 55 63 7e 3d 4a 80 6e 3d
       0.09912921 0.07138966 0.06210645 0.058227815
0000c0 9d 58 dd bc 44 6f 6e 3c f5 43 5b bd 18 3a 6d bd
       -0.027019793 0.014552895 -0.053531606 -0.05791673
0000d0 3d 81 46 3d 86 71 77 3e 83 12 8b 3d ca 27 63 3d
       0.048463095 0.241644 0.0679064 0.055457868
0000e0 e1 09 fa 3d d0 0b 15 bd 85 40 6e 3d 78 a3 6d 3d
       0.122089155 -0.03638822 0.058167 0.058017224
0000f0 7f 76 d0 bc 53 ff b1 bc 30 c3 1f be a0 b0 42 3c
       -0.025447128 -0.021728193 -0.15601802 0.011882931
000100 40 d3 13 3d b7 83 ae 3d e2 68 65 bd 67 6c 0d 3c
       0.036090136 0.08521216 -0.056008227 0.008631802
000110 1d 60 8f 3c 55 23 6d 3d f4 ef 53 be 8f b3 39 3d
       0.017501885 0.057895023 -0.20697004 0.045337256
000120 c9 d3 82 3d 66 82 fb 3d 32 d7 e8 3d f9 37 2c bd
       0.06388051 0.12280731 0.1136917 -0.042045567
000130 41 9d 9b 3c 3c 66 93 3d bb e0 b9 3d ef 88 82 bb
       0.018995883 0.07197234 0.09076067 -0.003983609
000140 27 2c 55 3d 1d 21 df ba 23 7d 74 3d cf 07 57 3d
       0.05204406 -0.0017023418 0.059689652 0.05249768
000150 d1 54 bb 3d bf 93 82 3e 34 ef 96 3d a0 06 d3 bd
       0.09147037 0.25503346 0.07369843 -0.10303998
000160 b1 80 3d 3d 8c 31 21 ba 24 10 3a 3e 22 a7 05 be
       0.046265308 -0.00061490457 0.1817022 -0.13052037
000170 6e 6e 48 3d ed b8 15 3e 67 cb 1d bc 54 36 a7 3d
       0.04893344 0.14621325 -0.009631014 0.08164659
000180 6e 9e 02 3d 83 50 0f 3e 2d 7a de bc b0 cc 80 3d
       0.03188937 0.13995557 -0.027157867 0.06289041
000190 69 c8 95 3d fb a1 76 3d f2 a7 4b 3e f3 ae 93 3d
       0.07313616 0.06021307 0.19888285 0.07211103
0001a0 d3 a0 51 3d bc f5 73 3c c3 f9 d6 3d e2 36 7e bc
       0.051178765 0.014890131 0.10496857 -0.015516015
0001b0 1e 10 24 bd af 5f 97 3d f8 69 85 3d ed c9 16 be
       -0.040054433 0.07391297 0.065143526 -0.14725466
0001c0 0b ca a4 3d 55 ea 3f 3e 05 e4 a0 bd eb 33 38 3e
       0.08046349 0.18741734 -0.07855991 0.17988555
0001d0 1d 2b 27 3e 6d 69 92 bd 32 b2 7d 3d b9 e9 6c 3d
       0.1632504 -0.071490146 0.06193752 0.057840083
0001e0 6b 4a 86 3d 80 1d 06 3e ad 82 15 3d 51 a4 5b 3d
       0.06557163 0.13097191 0.036501575 0.0536235
0001f0 9c ce b2 3e c6 4c 8a 3d c2 e4 68 3b 58 97 9a be
       0.34923255 0.067529246 0.003553674 -0.3019359
000200 b6 c3 b8 bc a3 ad 57 3d 66 83 61 bd d1 0d 3c 3d
       -0.02255426 0.052655827 -0.055056952 0.045911614
000210 1b 20 e5 3d 9d 4e ea 3d 8a 82 29 3d ee 7d 8a 3d
       0.11187764 0.114407755 0.041384257 0.067623004
000220 be c6 86 3d 6b 3d 09 3d 34 6e a8 3e d6 45 8b 3b
       0.06580876 0.03350584 0.32896578 0.0042502685
000230 3b 96 a2 3d 97 45 90 bc c0 5a 92 bd 3b 76 98 bc
       0.079388104 -0.017611308 -0.071462154 -0.018611064
000240 8e ba 83 3c 05 e9 0a 3e 12 42 16 bd c8 dd e1 3d
       0.016080167 0.13565452 -0.036684103 0.110286295
000250 c3 ef b4 3d d5 c3 ee bc 23 a1 1b be 59 11 7a bc
       0.088347934 -0.029146114 -0.15198188 -0.015262925
000260 da 3a 89 bd 86 2c 31 bd ae c7 44 3d 22 f4 2f bc
       -0.06700678 -0.04325535 0.048041992 -0.010739358
000270 a5 2e dd 3d 97 f8 ae 3c 0d ca 91 3d 8c 40 4f 3d
       0.10799912 0.021358771 0.07118616 0.050598666
000280 09 41 66 3d 55 4b 93 3d 64 99 2a 3d b4 75 73 bd
       0.056214366 0.07192103 0.04165019 -0.059438422
000290 88 f8 8e 3d c6 21 35 3e 21 ff d8 bd 8b 25 0c 3d
       0.06980997 0.17688665 -0.10595537 0.03421549
0002a0 e8 e2 a4 3d 90 db b9 3d 91 3e 98 3d bc 86 0c 3e
       0.080510914 0.09075081 0.074338086 0.13723272
0002b0 ef 8e 4f 3e e3 c5 1d 3e 98 ce ae 3d f2 41 2e bd
       0.20269369 0.15407519 0.085354984 -0.04254336
0002c0 14 6b 76 3d 4d de 5a 3d 4f af 3e 3c a6 a8 61 3d
       0.06016071 0.05343466 0.0116384765 0.055092476
0002d0 e3 26 1a 3d 93 c8 7d 3d 0a a9 41 3d a5 fe 67 bc
       0.03763474 0.06195886 0.04728035 -0.014159833
0002e0 fa c2 2c 3d 4b f7 7a 3e 1c 81 a9 3c 2d 05 86 3d
       0.04217813 0.24508397 0.020691447 0.06543956
0002f0 a3 62 99 bd bd f6 90 3d ea 88 23 3d d6 9a 43 3d
       -0.074895166 0.070783116 0.039925493 0.047755085
000300 ba 74 ab bd 72 f7 4c 3c c0 7d 63 3d 7d cd 97 3d
       -0.08371873 0.012510167 0.055539846 0.07412241
000310 70 b0 37 3d e5 f9 b1 3c fd 1a 30 3e 20 50 aa 3d
       0.044846 0.021725604 0.17197795 0.08316064
000320 fb 39 06 3e 2a d4 c2 bc bf c1 bb bb 7b d0 b5 3d
       0.13108055 -0.023782808 -0.0057298834 0.08877655
000330 cc 02 20 bc ba be 04 3e c9 d7 5c 3d 0c 80 80 3b
       -0.009766292 0.12963381 0.053916726 0.0039215144
000340 9f e7 70 3d 51 9e 62 3d cc e9 00 3e ff 73 82 3d
       0.05881464 0.055326764 0.12589186 0.06369781
000350 98 c8 50 3d aa 59 de 3b 78 6f 0b be 0f 88 1b be
       0.05097255 0.006785591 -0.1361674 -0.15188621
000360 a6 91 9b 3d 7f 0b 3b 3e 9d b6 68 bd 42 49 5d 3d
       0.075961396 0.18266104 -0.05681478 0.054024942
000370 20 1d 53 3e c6 ba 51 3d b2 8a b4 3d 44 1a 52 3c
       0.20616579 0.05120351 0.088155165 0.012823645
000380 47 47 d3 3d d4 65 94 3d c7 1b 52 be eb 63 2a bd
       0.103163294 0.07245985 -0.20518409 -0.041599195
000390 9d d0 53 3e 1b c3 ec bc 73 a9 d5 3b 9d fb 59 3c
       0.20685048 -0.028901627 0.006520444 0.013304618
0003a0 63 33 00 3d b6 8e 7e 3d 21 03 08 3e ef b8 97 3d
       0.031299006 0.06214782 0.13282444 0.0740832
0003b0 0c e7 68 3d ea 70 b4 3d f8 3c 8b 3d 68 73 21 3d
       0.05686097 0.08810599 0.06798738 0.0394167
0003c0 3e 31 5a 3e 42 57 8a 3d 70 22 81 3d 16 45 12 bd
       0.21307847 0.06754924 0.063053966 -0.035710417
0003d0 30 18 52 3c 21 b4 ea 3d 38 79 a6 bc 58 90 57 3e
       0.01282315 0.11460138 -0.020321473 0.21051157
0003e0 b9 95 f5 3d 73 76 1d 3d ad 1c a8 bc 6b 01 97 3c
       0.11991448 0.03844304 -0.020521486 0.018433293
0003f0 8f 87 92 3d a1 7a f5 3d d7 0e 48 bb ad be 1f 3e
       0.07154762 0.1198628 -0.0030526423 0.15600081

last.weight f4 [16, 400]
000000 bd 66 bd bc f3 00 dc 3d 9a 75 db 3c 3e 8e 40 3e
       -0.023120278 0.107423685 0.026789475 0.18804261
000010 c7 54 68 bb c1 25 92 be 4f a7 87 ba 17 cc 51 3d
       -0.0035450922 -0.2854443 -0.0010349544 0.051220026
000020 b7 bd 87 3d 4d 30 91 3e 9f 9d b1 bd d5 be f5 bb
       0.06627982 0.28357163 -0.08672642 -0.0074995556
000030 83 41 d3 3b 9d a0 fb bb 24 7f eb 3c db bb 4d 3d
       0.0064470186 -0.0076790587 0.028747149 0.05022798
000040 a0 a2 2a 3d 2e d5 e8 3c f1 86 32 3e 0c 0a 8c 3c
       0.041658998 0.028421964 0.17434289 0.017094634
000050 ff 77 d4 bd 20 5c 9b 3c f2 ea 91 3d ce 5d 80 3b
       -0.1037445 0.018964827 0.071248904 0.0039174324
000060 4a eb 10 bc 18 50 1d be 7d e1 0a bd 98 45 98 3e
       -0.00884516 -0.15362585 -0.03390645 0.29740596
000070 17 b9 ad bd 20 87 d8 3d 3d b8 51 3e b3 00 60 3e
       -0.08482569 0.10572648 0.20480438 0.21875267
000080 bf 14 ad bd a4 26 36 be ac 80 31 bd 0b a0 d2 3d
       -0.08451223 -0.17788178 -0.0433356 0.10284432
000090 f5 e7 3e 3e da eb 0b be fe e6 90 3d 1b 41 bd 3c
       0.18643172 -0.13664189 0.07075308 0.023102334
0000a0 e5 46 09 be 8d 76 26 3a 1f 8d 73 3e 54 34 a8 bb
       -0.1340595 0.0006350063 0.23784302 -0.005133191
0000b0 af 9b 07 3c 8b fa 08 bb 47 c0 93 3b 82 b6 b7 bb
       0.008276864 -0.0020901288 0.004509005 -0.0056064734
0000c0 4c db 64 bd 4a 29 72 be eb 25 0f bb 84 ae f1 bc
       -0.0558732 -0.23648563 -0.002184267 -0.02950216
0000d0 59 5c 22 3d f2 2c 20 be 51 56 d4 39 ad 74 70 3c
       0.03963885 -0.15642145 0.00040500102 0.014676255
0000e0 fe 80 c9 be 4f 5b 77 3d e0 a0 e8 ba cd 7c 13 3c
       -0.39356226 0.060389813 -0.001774814 0.009001923
0000f0 d6 e3 79 3d c3 69 2e be b5 07 99 be 86 52 04 3e
       0.061008297 -0.17032532 -0.29888692 0.12922105
000100 c0 18 82 3c 59 41 35 3d 6a 30 2c 3d 77 10 6a 3e
       0.015880942 0.044251774 0.04203836 0.22857843
000110 7b 99 3d be 4a 1f 23 3e 34 23 2c be e5 b7 7c 3e
       -0.1851558 0.15929905 -0.16810304 0.24679525
000120 6a 61 27 bc ec 2c 4b 3d 7d 3a 71 bd 28 03 0d be
       -0.010216096 0.049603388 -0.05889367 -0.13770735
000130 06 d5 ca 3d 43 61 be 3c d0 dc 52 3d 58 fc f6 3c
       0.09903912 0.023239737 0.051480114 0.030149624
000140 c4 92 ae 3e df fd 8d be 26 3e 54 3c 09 ed c5 3d
       0.34096348 -0.2773275 0.0129542705 0.096643515
000150 e4 07 82 3e 5d 77 17 3d 5e 21 1e 3b 81 14 e3 bd
       0.25396645 0.036979068 0.0024128775 -0.11087895
000160 bf da 74 3e 8c 89 b0 3e 76 30 6c 3c 63 dd 7a bd
       0.2391157 0.3447994 0.014415851 -0.061246287
000170 92 9c 4e ba 76 01 f9 3c 0b 44 eb 3d 99 9a 95 bd
       -0.0007881607 0.030396204 0.114875875 -0.07304878
000180 c1 d0 e7 3d 02 32 82 3d 62 52 69 bd c6 fb 4b bc
       0.113191135 0.063571945 -0.056963332 -0.012450164
000190 95 b1 be 3d 8f ff 69 bd b1 16 94 3d 98 c5 cc bc
       0.09311215 -0.057128485 0.072308905 -0.024996564
0001a0 e7 c7 26 be 3a ff c2 bc 03 a0 36 bd 3c 9c ae bb
       -0.16287194 -0.023803342 -0.044586193 -0.005328683
0001b0 1d 60 15 be 4f 5f ef bd 37 1f da 3b b9 62 07 3d
       -0.14587446 -0.116881005 0.006656553 0.033053134
0001c0 85 01 63 bd d3 32 26 3e d9 40 3a 3e ab bc 05 bc
       -0.05542137 0.16230325 0.181888 -0.008162658
0001d0 77 bb 4a be 6d 58 07 bd dc 9c a5 bd bf 18 bc 3b
       -0.19798075 -0.033043314 -0.08086559 0.0057402547
0001e0 42 6e 6a 3d d2 9c 23 be 44 75 0e be a6 a0 ec 3b
       0.057234056 -0.15977791 -0.13911921 0.007221299
0001f0 f4 fd 11 bc 80 ae 9c 3a a5 cf fc 3e 46 08 9f 3e
       -0.008910645 0.001195386 0.4937717 0.31061
000200 a8 af 98 be db dd 0a 3b 08 77 15 be 0b 39 f3 3c
       -0.29821515 0.0021189365 -0.14596188 0.029690286
000210 f1 e7 b3 bc 63 35 c0 3d 2a 4b c5 3d 8e 86 0f bc
       -0.021961184 0.09385183 0.09633477 -0.008760108
000220 69 8d 21 3c 35 d8 0e be f7 6a 41 3e 4c f1 5c 3e
       0.009860375 -0.13949664 0.1888846 0.21576422
000230 d1 a0 ec be 2c 0a 57 be b3 f6 0d bc 88 53 60 bd
       -0.46216443 -0.20999974 -0.008664775 -0.05476716
000240 a8 ba f8 bc 80 c0 e4 3c 32 06 c7 3c 3f 3c c4 bd
       -0.030362442 0.027923822 0.024294946 -0.095818035
000250 5e 55 12 3e 30 23 c9 bd 4b bf 7d be 8f 7e de bd
       0.14290377 -0.098211646 -0.24780004 -0.10863983
000260 47 df 0c 3e 59 31 f8 bd 3f b4 0e 3d 06 2c 51 3e
       0.13757049 -0.12118787 0.034839865 0.2042695
000270 5e d4 07 3d 82 71 8b bd bc b4 97 3c 9e f1 04 3d
       0.033161514 -0.06808759 0.018518798 0.032456987
000280 68 5c c6 3b df 16 78 39 87 2d bd bd 05 46 04 be
       0.006053496 0.00023659643 -0.09237199 -0.12917335
000290 a7 71 c1 bb f7 9d a9 bd ac 96 8f be cc 24 3c 3b
       -0.005903441 -0.082820825 -0.2804464 0.0028708456
0002a0 85 60 6c be c4 31 1e 3d cc bb 23 bc b7 2b b7 3d
       -0.23083694 0.03862168 -0.009993505 0.08943885
0002b0 8b 03 1d 3d d5 f4 fb 3c d5 c9 b2 3c 04 d7 be 3d
       0.038333457 0.030756393 0.021824757 0.09318355
0002c0 99 60 10 bc b4 20 92 3e f9 72 ee 3d 3f b0 8b bc
       -0.008812093 0.28540576 0.11643023 -0.017051814
0002d0 10 3a c3 3c f5 9a 0e 3c 30 95 8a bb 04 0b 93 be
       0.023831397 0.008703937 -0.0042292103 -0.28719342
0002e0 e8 d2 77 bd 1e 90 75 3d 71 c9 1f bd 05 38 07 be
       -0.06050387 0.059951894 -0.03901047 -0.13204964
0002f0 9f 09 fb bd c3 c9 8f 3c 80 4e ad bd 17 f7 c6 bc
       -0.122576945 0.017552262 -0.08462238 -0.024287743
000300 16 93 aa be ce 11 d3 3c d8 fe 87 bd e8 d3 6b bc
       -0.33315343 0.025765326 -0.066404045 -0.014393784
000310 73 e6 1e 3e 9e ab d2 bd af 3c 68 bd 93 6e 07 bc
       0.15517597 -0.1028664 -0.056698497 -0.008266109
000320 59 4c c5 3c fc a6 58 3d 09 56 69 bd 51 df 9c bd
       0.024084257 0.052893624 -0.056966815 -0.07659782
000330 b2 7e b4 3d af c8 b2 bd dd 88 8c 3c 8f 7e a8 bc
       0.08813228 -0.087296836 0.017155105 -0.02056816
000340 c4 5e 08 3d 26 c3 4c 3d a1 3a 9c bc bb 07 98 bc
       0.0332935 0.049990796 -0.019070925 -0.018558374
000350 a4 61 31 3e 61 e8 62 3b 81 29 66 3d 0a 95 93 be
       0.17322403 0.0034623372 0.056191925 -0.28824645
000360 70 78 82 be 00 78 01 bd 80 02 22 bd ab 01 b1 3d
       -0.25482512 -0.03160858 -0.039553165 0.08642896
000370 9e b9 56 3e a4 07 83 ba 0f 0a 1a be 1a 2d 74 be
       0.20969245 -0.0009996784 -0.150429 -0.2384533
000380 e5 fc e3 3c 85 2a 9a 3b fe db eb bd 3b a1 96 3e
       0.02783055 0.0047047758 -0.115165696 0.29419884
000390 cd 13 39 be e9 51 7d be 75 7e 73 3d 44 5b 83 bd
       -0.1807396 -0.24738277 0.05944677 -0.06413892
0003a0 f3 ed a8 3d 69 4c 4a 3a c2 86 80 3c 3d 66 40 bc
       0.0824851 0.00077170745 0.015689258 -0.0117431255
0003b0 e0 f2 90 3c 12 04 0e be a7 a4 e9 bc f4 b6 08 bd
       0.017693937 -0.1386874 -0.028520895 -0.033377603
0003c0 53 17 30 3e 10 88 32 be 23 40 96 3b e0 88 e5 3c
       0.17196397 -0.17434716 0.0045852824 0.028019369
0003d0 af d3 18 be 91 f0 25 bd 43 e1 70 bd 9c 2a ed 3d
       -0.14924501 -0.040512625 -0.058808576 0.11580393
0003e0 dc 1a 24 3e 5f 72 2e 3e 42 99 5a bb 7e a7 0b 3e
       0.16025871 0.17035817 -0.003335551 0.13638112
0003f0 17 17 71 bc 42 06 24 3c 3e 41 89 3d 50 17 12 bd
       -0.014714978 0.010011258 0.06701897 -0.035666764

last.bias f4 [16]
000000 ce 75 96 bd fa b2 c5 bd 81 f3 87 bd 74 05 a0 b8
       -0.07346688 -0.09653278 -0.066382416 -7.63041e-05
000010 40 2c af bd 97 84 1e bd 4a 27 15 3d b1 af 9a bd
       -0.08553362 -0.038700666 0.036414422 -0.07553042
000020 f3 32 0e 3e a4 b6 19 3d 37 28 c0 ba 53 08 1a bd
       0.13886623 0.037527695 -0.0014660422 -0.037605595
000030 3e 5b 9f bc ba d2 07 be ff f8 dd 3d 8d 46 86 bd
       -0.019452687 -0.1326398 0.10838508 -0.06556425
