log/MUJOCO_ANT_DIR_12_v4/Ant-v3/1/model/model_pf_task_1590.pth (torch, 27411 bytes, 4 tensors)

base.fc0.weight f4 [400, 12]
00000000: b1b1 99bd cadc 91bd 0053 93bd 9a78 8abd
00000010: e379 5d3d 3216 93bd 6094 86bc 0b0e 9dbd
00000020: ac88 90bd eb8e 9abd 8707 dc3a 226c 94bd
00000030: 1e18 8ebd fa80 88bd b183 8fbd aa57 d8bc
00000040: 4973 e43b aad9 36bd 81d2 85bd 06c9 2dbd
00000050: 1887 283c ad86 39bd 43a7 39bc 4281 04bc
00000060: 10d3 6dbd eb3b 91bd 4f62 70bd e4b9 80bd
00000070: 7e20 73bd ee53 3cbd afe3 79bd c516 84bd
00000080: ebec dc3c 6945 74bd d9b1 74bd c4ab 3c3d
00000090: 83a6 58bd e82e 64bd ef52 67bc 9ab3 443d
000000a0: e510 74bd e483 82bd a312 69bd f879 1abd
000000b0: 2a67 69bd 9aff f83b 82aa 83bd 2024 80bd
000000c0: 2880 a4bd 2cf3 aabd 4801 aabb 6874 f6bc
000000d0: 9fc0 fcbc 97ed abbd 9f3d 3dbd 00c6 8ebd
000000e0: 5d60 bebc 692a 693c 1a9a 41bd 911e 16bd
000000f0: c219 94bd b9ec f6bd 6ab2 02be 1519 05bb
00000100: 6762 90bd b8a2 abbd 93a1 91bd 6306 f0bd
00000110: ece6 3e3d 9b89 7ebd 178a ffbd 1a9c fbbd
00000120: 25b6 2ebd b74e 0fbd 52d1 9abd 37e8 31bd
00000130: 28fb e73b 767a 60bd b8d5 1abd de29 39bd
00000140: c243 50bd 872b 2dbd d13f 8abc 21ba 81bd
00000150: 7911 0fbc 3908 40bd f95f 5abd 7fed 7dbc
00000160: e59c d8bc bfff 5ebc d240 32bd 4e92 e7bc
00000170: e6b5 903c 7e5a 8ebd 6348 bdbc fd02 57bc
00000180: 1baf 85bd 1bb1 67bd 4a5c 82bd 0c92 8bbd
00000190: a99c 80bd 148a d43b 1530 8bbd 0842 1cbb
000001a0: ecb7 54bd 2b5e 85bd d3c5 59bd f37e d03d
000001b0: 1c24 f0bd 5294 09be 04eb 06be 7b10 04be
000001c0: dd70 d23c 165b f0bd 0521 81bd b204 80bd
000001d0: 659b 02be fe4d 87bd af50 94bd 0885 05be
000001e0: 820e 8ebd 3960 7dbd 818c 45bd 3b22 b7bd
000001f0: 4408 c2bd 832f b6bd 7b12 48bd 0806 82bd
00000200: 4711 8abc 91f6 2d3b 909c bfbd bf81 843d
00000210: 5003 2dbd b4c4 47bd 14fb 66bd de8a 8e3c
00000220: 6e04 5cbd 5076 58bd 5413 90bd 12aa 5abd
00000230: 069e 3cbd 4221 0ebd 86f4 08bd 2b6d 67bd
00000240: 9eaf b2bd 9ab7 4cbd 11b5 6f3c afc6 35bd
00000250: 2928 4cbd a94e b3bd f184 52bd 1768 a1bd
00000260: 891a 36bd 0af0 45bd fc64 49bd ca60 3c3d
00000270: 5255 35bc f95b adbd 36a1 153c 75a2 66bc
00000280: 4ef6 68bd 332f 87bd 514e b3bb 6d0e a1bd
00000290: 189c 50bc dadf 06bc 5f21 41bd 3333 55bc
000002a0: a759 90bd 43b2 8cbd 99cc d13d 5e71 83bd
000002b0: cfbc c4bd 1706 3ebd 6732 bebd b713 8dbd
000002c0: 0637 90bd e4f8 babd 7a6a b4bd b547 353e
000002d0: 7e3a 173b 3d52 09bd f815 07bd d1c4 88bc
000002e0: 0606 0ebd c750 94bd 8fa6 653c c124 aebc
000002f0: 75f0 53bd 3125 cabc cc5c d2bc fefd 1cbd
00000300: b0a5 0abd d10d d7bd a9c6 e0bd 2a8e 33bd
00000310: 3080 ccbb 9247 cebd e9c5 dabc 5f5d da3c
00000320: e3f7 d7bd fb1d 95bd c6dc 9ebd eba1 e5bd
00000330: 5703 303b 1dc3 2c3d 1719 bfbd 89e0 b5bd
00000340: 3504 3fbd 7253 a4bd 9013 b6bd cc98 0c3a
00000350: 1e95 a4bd ad26 fabc dedd c1bd 67eb a2bd
00000360: 6606 ce3c aaff 0fbd 87a0 0abd f2aa 12bd
00000370: 6274 e8bc 1e43 93bd ffb8 2abd f0ed 83bd
00000380: f8c9 eebc 1d82 36bc e18f d03b 0c64 89bd
00000390: 4054 7bbc cf60 1fbc 19c3 44bd d99c 4cbd
000003a0: efd9 2cbd adbe 1cbc 8f94 2fbd 6929 4dbd
000003b0: da7f 89bb 66f6 44bd 8391 2cbd 5da4 62bd
000003c0: 7a09 6bbc 7a97 01bd 3268 2b3d dd3c b0bc
000003d0: ef54 59bd a0da 6dbd 4932 39bd 8efe 4fbc
000003e0: 7944 7abc cc72 97bc 9ac1 a7bc 8ab0 0a3d
000003f0: 0488 b0bd 07ab b5bd 7ae0 b5bd cf40 babd
-0.07504595 -0.0712219 -0.07193565 -0.06761284 0.05407132 -0.07181968 -0.016428173 -0.07668694
-0.07057318 -0.07546791 0.0016786911 -0.07247187 -0.06938194 -0.06665225 -0.0700754 -0.026408989
0.006971751 -0.044641174 -0.06534291 -0.04242804 0.010286115 -0.045294452 -0.011331382 -0.008087458
-0.058062613 -0.070915066 -0.058687504 -0.06285456 -0.05935716 -0.04597848 -0.06100815 -0.064496554
0.02696844 -0.059636507 -0.05973992 0.046062246 -0.052893173 -0.055708796 -0.014118894 0.048022844
-0.059586424 -0.063728124 -0.05690254 -0.037713975 -0.05698315 0.0075988295 -0.06429006 -0.0625689
-0.08032256 -0.083471626 -0.005188141 -0.030084804 -0.030853568 -0.08394926 -0.046201345 -0.06971359
-0.023239309 0.014231303 -0.047266103 -0.036650244 -0.072314754 -0.1205687 -0.12763372 -0.002030914
-0.07050019 -0.083806455 -0.07110896 -0.11719968 0.046606943 -0.06214295 -0.124775104 -0.122856334
-0.042654175 -0.034987178 -0.07559456 -0.043434348 0.0070795007 -0.054804288 -0.037801474 -0.045205943
-0.05084587 -0.04227784 -0.016876133 -0.063343294 -0.008732193 -0.04688284 -0.053314183 -0.015498518
-0.026442 -0.013610779 -0.04351885 -0.028268006 0.017664861 -0.06950854 -0.023105806 -0.013123271
-0.06527539 -0.056565385 -0.06365259 -0.068149656 -0.062798806 0.0064861868 -0.0679628 -0.0023843069
-0.051933214 -0.06512102 -0.053167176 0.10180464 -0.11725637 -0.13435486 -0.13175589 -0.12896912
0.025688583 -0.11736123 -0.06305126 -0.062508956 -0.12754591 -0.06606673 -0.07241952 -0.13039029
-0.06936361 -0.061859343 -0.048229698 -0.08942076 -0.09474233 -0.08895781 -0.04884575 -0.063488066
-0.016853942 0.002654467 -0.09356034 0.064700596 -0.042239487 -0.048771575 -0.05639179 0.017400201
-0.053715162 -0.052847207 -0.070349365 -0.053384848 -0.04604914 -0.034699686 -0.03343632 -0.056500595
-0.087249026 -0.049979784 0.014630572 -0.044378933 -0.049842987 -0.087552376 -0.051396314 -0.07881182
-0.0444589 -0.048324622 -0.04916857 0.045990743 -0.011067705 -0.08464808 0.009132674 -0.014076819
-0.05687552 -0.066007994 -0.0054719825 -0.078640796 -0.012732528 -0.008232081 -0.047150966 -0.013012695
-0.0704835 -0.06869938 0.10244102 -0.064181075 -0.09606325 -0.046392526 -0.09286957 -0.06888526
-0.07041745 -0.09129503 -0.08809371 0.17703135 0.0023075636 -0.033525694 -0.032979935 -0.016695412
-0.034673713 -0.072419696 0.014016761 -0.02125776 -0.05174299 -0.024675937 -0.025679015 -0.038328163
-0.03384942 -0.10500682 -0.109753914 -0.04383675 -0.006240867 -0.10072245 -0.026705699 0.026655851
-0.105453275 -0.07281109 -0.07756953 -0.11212524 0.002685746 0.042178262 -0.093309574 -0.08880717
-0.04663487 -0.080237284 -0.0889045 0.00053633447 -0.08036254 -0.03053602 -0.09466146 -0.07955056
0.025149535 -0.03515593 -0.033844497 -0.035807557 -0.028375808 -0.07190536 -0.041680332 -0.06441867
-0.02914904 -0.01113942 0.006364808 -0.067085356 -0.015339911 -0.009727671 -0.048037622 -0.04995427
-0.042200025 -0.009566945 -0.042866286 -0.05008832 -0.0041961493 -0.048086546 -0.04213096 -0.05533253
-0.014345521 -0.0316386 0.041847415 -0.021513397 -0.053059515 -0.058069825 -0.04521397 -0.012694968
-0.015275114 -0.018487357 -0.020478059 0.033859767 -0.08619693 -0.088705115 -0.08880706 -0.090943925

base.fc0.bias f4 [400]
00000000: d184 71bd 66e8 2ebc e48c 40bd 85f1 4bbd
00000010: e4f4 7abc 32d8 45bd dbb3 0dbc 53fb 9ebc
00000020: 49c9 d3bd 5c01 efbc 159f 8abd 2bda babc
00000030: ea0d 44bd 12d7 97bc 44b8 153d d6c0 73bc
00000040: ad88 0abd 09ba 2dbd f014 d7bc e529 373b
00000050: a17a 39bd b72f 4dbd 0d48 cebc f61b 43bd
00000060: d1a3 a6bc 9a15 6bbc 6c86 d4bc a6de 9ebc
00000070: 92dc 89bc ae12 26bd 7ce6 d9bc 84fb 733d
00000080: c19a 9fbd 252b 42bd 42b0 57bc a2cd f5bc
00000090: a887 0dbc 4d08 c83b d5ee 26bd 8062 9bbc
000000a0: bdb4 6bbc fece 0ebd 2a97 acbc 701e 1dbc
000000b0: 628a 9abc 79e0 17bc d250 1bbd 6ff1 47bd
000000c0: 9ab0 2bbd a5a2 18bc 86ec 95bc 6ea9 c5bc
000000d0: 51b5 6dbd 0d0c babd caad 31bd dcfb 4eba
000000e0: fe26 17bd 51ab 943a 818a 89bc 00dc 48bd
000000f0: dc36 97bb effe 3cbc fd7b e0bc 354d 4bbc
00000100: 99ae 94bc 05b5 92bc 84ad f2bc f14f f5ba
00000110: 9670 d3bc 4187 30bd be59 a7bc 5942 3ebd
00000120: 2fdf 7ebd e50f 02bd 109d 92bd aa85 f2bb
00000130: 68b1 33bd ee1a 29bc aa3b 09bd 3c12 babc
00000140: a5ef 01bd 49cd 93bb 36fd bbbc 3327 12bd
00000150: 88da c1bc d181 1cbd e0c6 e7bc 809d 46bd
00000160: ca9b 48bc 4304 22bd c204 afbd 695a f2bc
00000170: ca27 da3a 2421 82bc 3bcd 66bd a6cb 6abc
00000180: 35eb 07bd b72a 7fbc 9f4e 91bc 7e86 6cbd
00000190: 83d1 8bbc 9e47 13bd 0ea0 6abc 5789 5c3d
000001a0: 86d9 98bd 8b1a 8c3a f26d c1bc 4b5c a93a
000001b0: 2bca 1eba 6d45 51bd d5c1 a9bc 8e9c 92bd
000001c0: 66a2 02bd ce90 e0bc 8ab8 16bd 04fd 1ebb
000001d0: 04c7 e3bc 73f0 0bbd 96f9 6cbc a355 f9ba
000001e0: 66b8 dfbc af0a bdbc a6c3 d2bc 476a e7bc
000001f0: 1414 7ebc eb71 2cbc 9fee 22bd ed24 4cbd
00000200: 5fd8 24bd a640 62bb f419 87bc e320 edbb
00000210: de3a 32bd 8d41 f8bb 4ae3 d4bc d41c 2bbd
00000220: 852b acbc c4db 94bc 5d96 babc 1602 55bd
00000230: 2f2c 0bbb 4f38 2fbc 7a6f 06bd 04f2 52bc
00000240: f0b8 c5bb baa9 c8b9 005e 80bc 35f6 33bd
00000250: e20e 0cbd 3623 923c 1524 b4bc 4bab 9cbc
00000260: fd1c 6fbd 0ff8 30bc b22e 69bd 91a6 8cbc
00000270: d3c0 66bc 1015 bcbc 7a8e 81bc 32e6 d6bc
00000280: eba3 23bd 0d86 63bd 5085 97bc 512c 8abc
00000290: eec6 043b 119d 9dbc cc6b 9bbd 868a 7d3a
000002a0: 3911 44bc c6f1 32bd 9ee7 7bbc 7952 02bd
000002b0: 8505 1abd 62e2 0bbd 8423 2bbd 3577 07bc
000002c0: 9592 2fbb b8a4 eabc 9361 6cbd 7dd2 4abd
000002d0: 3fd9 99bc 8ab1 f5bc bbf3 98bc 1a91 aebc
000002e0: 7b2c 17bd 036e 82bd a567 7fbc 3422 cfbc
000002f0: 79b8 38bd ebff 97bc 4f56 03bd 9c2f 33bd
00000300: 8a34 23bd 7891 febb 91f4 a0bc 7a60 a3bc
00000310: fb59 61bd 65cf 85bd 3d76 64bd 0b1b f5ba
00000320: 4be5 1b3b eb88 973d e52a 3cbd 4e08 4a3c
00000330: 3b26 0ebc 40c4 99bd ab6f 09bd 3525 b0bc
00000340: 8e46 37bc f5d0 e3bc b3e4 1a3d 02e1 eabc
00000350: e61d 96bc bffb 05bc f44c 90bc 0394 97bc
00000360: 42be 0bbd 7528 13bd 7516 49bd 39aa 01bd
00000370: b739 37bc df21 c8bb 3d9a 2fbd a990 7abc
00000380: 016b c5bb 11df 13ba 28c0 93ba 1f4a c5bc
00000390: 81bf b2bc 9fcd f2bc 5db8 d5bb b9e0 1cbc
000003a0: f52d 60bd f777 73bd 89be 95bd 6b53 94bc
000003b0: bb7e 0fbd 70f2 ca3a d0f9 05bd 4550 d4bc
000003c0: 2782 67bd 7156 d6bc f583 b6bd 8b01 15bc
000003d0: 7958 dd3d 9e89 14bb d062 44bc 245f 85bc
000003e0: deb6 c7bc 7c71 4bbc 907e 40bc 2b89 7dbc
000003f0: 192d b4bc 67b2 cabc a3b3 ebbc 75ec 0dbd
-0.058964554 -0.010675525 -0.047009364 -0.049790878 -0.015317176 -0.048301883 -0.008648838 -0.01940695
-0.103411265 -0.029175453 -0.06768624 -0.022809109 -0.047864832 -0.01853517 0.036552683 -0.014877519
-0.03382175 -0.042413745 -0.026255101 0.0027948555 -0.045282964 -0.050094333 -0.02518084 -0.047634088
-0.020341786 -0.014348412 -0.025943004 -0.019393276 -0.016828809 -0.040545158 -0.026599161 0.059566036
-0.07793189 -0.047404427 -0.013164582 -0.03000528 -0.0086383 0.006104505 -0.04075511 -0.018967867
-0.014386353 -0.034865372 -0.021068174 -0.009589776 -0.018864814 -0.009269827 -0.037918873 -0.048814233
-0.041916467 -0.009316121 -0.01830126 -0.024128642 -0.058034245 -0.0908433 -0.04337863 -0.00078958063
-0.03690242 0.001134256 -0.016789677 -0.049037933 -0.004614694 -0.01153539 -0.027402872 -0.012408544
-0.01814966 -0.017908582 -0.029623754 -0.0018715841 -0.025810521 -0.04309774 -0.020428535 -0.046449993
-0.062224563 -0.03175344 -0.071588635 -0.007401188 -0.04387036 -0.010321362 -0.033504166 -0.022713773
-0.031722683 -0.004510556 -0.022947889 -0.035681915 -0.023663774 -0.03820974 -0.028293073 -0.048490047
-0.012244174 -0.039554846 -0.08545829 -0.029584127 0.0016643938 -0.015884943 -0.056348067 -0.01433078
-0.033183295 -0.015574149 -0.017737685 -0.05774545 -0.017067676 -0.03595697 -0.014320387 0.053841915
-0.07463364 0.0010689063 -0.023611996 0.0012921182 -0.0006057347 -0.0510916 -0.02072231 -0.07158767
-0.031893156 -0.027412798 -0.036797084 -0.0024259696 -0.027804859 -0.034164857 -0.014463803 -0.0019022714
-0.027309608 -0.023076383 -0.025728058 -0.02824892 -0.015507717 -0.010525207 -0.039778348 -0.049839903
-0.04024541 -0.0034523397 -0.016491868 -0.0072365864 -0.04351317 -0.0075761736 -0.025987286 -0.04177554
-0.021016845 -0.018171199 -0.022776777 -0.052003942 -0.0021236052 -0.010694577 -0.032821156 -0.012875084
-0.006034009 -0.0003827343 -0.015669823 -0.043935973 -0.03419388 0.017839056 -0.021989862 -0.019124648
-0.058377255 -0.010801329 -0.056929298 -0.017169269 -0.014084059 -0.022959262 -0.015815008 -0.026232813
-0.039951246 -0.055547763 -0.018496186 -0.016866835 0.0020260173 -0.019239934 -0.0758892 0.00096718257
-0.011966997 -0.043687604 -0.015375046 -0.031816933 -0.03760292 -0.034151442 -0.041781917 -0.008268167
-0.002679025 -0.028642997 -0.05771024 -0.049517144 -0.018780349 -0.029991884 -0.018670907 -0.021309424
-0.036907654 -0.06368639 -0.015588676 -0.025284864 -0.0450978 -0.018554648 -0.032064732 -0.043746576
-0.039845027 -0.007768806 -0.019647868 -0.019943465 -0.055017453 -0.06533698 -0.055776823 -0.0018700076
0.0023787792 0.07399162 -0.045939345 0.012331082 -0.008676107 -0.07508135 -0.03355376 -0.021502117
-0.011186255 -0.0278096 0.03781576 -0.028671745 -0.018324804 -0.008177697 -0.01761482 -0.018503195
-0.03411699 -0.035927255 -0.049093682 -0.031656478 -0.011183194 -0.0061075534 -0.042871702 -0.015293279
-0.0060247188 -0.00056408445 -0.0011272477 -0.024083195 -0.021819832 -0.029639063 -0.006522222 -0.009575062
-0.054731328 -0.05944058 -0.07311732 -0.018106183 -0.03503297 0.0015483629 -0.032708943 -0.025917182
-0.056520607 -0.026164265 -0.089118876 -0.009094606 0.108078904 -0.0022665034 -0.011986449 -0.016280718
-0.02437919 -0.0124171935 -0.011748925 -0.015474598 -0.02199416 -0.024743272 -0.02877218 -0.03464933

last.weight f4 [3, 400]
00000000: 5f20 4cbd 6dff c03b 945f 34bb 8ef6 97bc
00000010: 4643 09bc b217 ac3d 515d 12bb 4448 103c
00000020: 3a34 77bc a8b8 38bd c98f 203d 3618 393c
00000030: 3a84 983a ef27 e1bb 15f2 ee3d 8f20 033c
00000040: 16d7 dabb d8ee 2abd 65de 5f3c c026 8ab9
00000050: 2036 3ebb 4bee 9f3c 7824 953c 6b9c 2cbc
00000060: bbc2 023c 1e7a 8e3b 0a48 fdbc 0208 f53b
00000070: deaf a7ba ef22 433c d2f1 2b3c 6daa e93c
00000080: 832a f6bc 4c5a a7bc 7555 e23b da23 2fbd
00000090: 42e8 b73b 0ad9 8dba e1c7 08bb 115b 153d
000000a0: f1d5 483b 9ba0 f23c e454 6f3c 5c2b 263c
000000b0: f1f0 71bc e104 283c 1a08 393d 3691 e8bc
000000c0: 8134 03bc 072d 4c3a bb10 1f3c 168c 9b3c
000000d0: 5bc0 c9bc 4c51 2f3d 1439 b23c 11a4 c83b
000000e0: d3f7 1ebd 5f4d 8a3b e826 813b 8eea 2c3d
000000f0: d1e7 543b 19f7 73bb 0b15 bf3b 07b6 2bbc
00000100: 8ede 8d3a 4cfc be3b 2221 cb3c b173 8d3a
00000110: 7a3c 34bc 2f1c 30bc a373 2fbc d432 2b3c
00000120: 0a13 e33a 8457 7c3c b387 2a3d fe23 083c
00000130: 176b 90bc a1bd 473d ce6e 0f3c 0806 b73c
00000140: ce02 153c b9d8 e738 4bbf efbb 09c1 b5bc
00000150: 6cdd 12bb 0f92 0c3b d7fb 4b3d 9235 a03c
00000160: e4cf a93a b0b9 5fbc d641 243c 181e 7b3c
00000170: 3d52 08bc ac3f e93a 0eb6 55bd f6bb 1ebb
00000180: 0de6 0f3c 1780 c8bb 1cad 0cbb 1521 b73d
00000190: fd9e 723b 70f2 10bd d668 b83b 8adb 37bd
000001a0: 839b 1dbd fd57 763b 4821 22bd e0ae ccb6
000001b0: f7fb 863a 02bc 87bc 3317 463b 8427 943c
000001c0: 1343 4bbd e5d4 eebb 6a25 24bd eea4 d53b
000001d0: a313 9dbd 820b db3c 0716 293c 5b77 feb9
000001e0: 7900 393c 4829 b8ba fcd0 7abc 83da 2b3c
000001f0: 3184 8836 c402 39bb efa1 0c3c 4d27 773c
00000200: 0adc febc 36b6 1a3b d538 393c 6028 553c
00000210: d4e3 843c 6767 633c fbbd dfbb b8e9 16bc
00000220: 4ea2 2ebc 864c 85bb 34ee 4abc 2efe debc
00000230: 3051 463c 6a0b 0fbc 9e13 ba3b 2f28 803c
00000240: 9bc8 923b fdd3 493c 46e6 3cbc cf9f c8bc
00000250: ad55 363c 773c a33b 87a0 0e3c edf4 723c
00000260: b284 9bba 2606 b1ba 5809 acbc c573 5bb9
00000270: 48eb dd39 72e5 adbc e7d9 82b9 6e9b 653b
00000280: 8f7a 003c 3b02 613c be2d 0b3c 8212 11bd
00000290: 8ffc 383d 7517 48bc b5f0 2b3d 336e 9cba
000002a0: 242b 90bb 4130 b3bc 0189 103c 1658 4cbc
000002b0: 0ba0 ba3b add2 93bc 65d1 7a3c 2ac1 693c
000002c0: b91f 033d 43cd 933c edbe 703d 9483 12bd
000002d0: e97c 8a3c 6f00 ce3c 6447 513c 9498 923c
000002e0: 22ed 1e3c 592e 20bd 1ae9 44bb b190 cab9
000002f0: 813f 45bc 11c7 0bbc ac5d 083a 7ae0 14bd
00000300: 7f46 f43c 3985 243b edfd be3b 9a57 a4bc
00000310: 85e7 2dbc 059b 963c 306b e2bc 8848 6a3b
00000320: 98a9 19ba a7da f33d c739 f83c 1cce 203b
00000330: eaf8 053c 0b9d 383c b5b8 003d 1798 3c3a
00000340: fdbe 503b f2e5 59bd b731 11be 812b cfba
00000350: 09e4 a93b b170 dfba 7cd6 d93b 9fde eeb8
00000360: e06e 793b 09ac d9bc 7740 043d 2148 04bd
00000370: 9a19 d63b e069 6b3b c19d ab3c 60f5 3d3b
00000380: 4596 cc3a ac2d d03b d04b 0c39 a143 0c3b
00000390: c349 1c3c aaee b3bb c18a 96ba 4c77 5abc
000003a0: 4706 b53c 5d08 d93c 92e9 9c3d 5175 dabb
000003b0: 6bf9 ebbc 1672 4d3c fab7 9cbc b12d 643c
000003c0: 0418 91bc a30b ea3b 0bc4 c4bb 7026 203c
000003d0: e339 11bd d8fe bb3b 0188 103c 6a5c eb3a
000003e0: 32c7 c13b e3f4 863c f4f4 d7ba 2e8c ec3b
000003f0: 367d 6a3c 0dd7 4fbd eba0 de3c 9393 4fbc
-0.04983556 0.005889824 -0.002752279 -0.018550184 -0.008377856 0.08402957 -0.0022333453 0.008806292
-0.015088135 -0.045097977 0.039199624 0.011297276 0.0011636086 -0.0068712155 0.11667267 0.008003368
-0.0066784723 -0.041731685 0.013663863 -0.00026350282 -0.002902396 0.019522807 0.018205866 -0.01053534
0.007980998 0.0043480536 -0.03091814 0.0074777612 -0.0012793501 0.011910184 0.010494666 0.028523648
-0.030049568 -0.0204288 0.00690716 -0.0427588 0.005612404 -0.0010822129 -0.002087109 0.0364638
0.0030645097 0.029617598 0.014607642 0.010142174 -0.014766918 0.0102550695 0.045173742 -0.028389554
-0.008008123 0.0007788692 0.009708579 0.018987697 -0.024627855 0.04280214 0.021755733 0.006123074
-0.038810562 0.004220649 0.0039414056 0.042215876 0.0032486806 -0.003722614 0.005831366 -0.01048041
0.0010823773 0.005828416 0.024796072 0.0010791925 -0.011000747 -0.010748907 -0.010708722 0.01044913
0.00173244 0.015401725 0.04163332 0.008309362 -0.01762919 0.04876483 0.008754445 0.022341743
0.009094907 0.00011055306 -0.007316505 -0.022186773 -0.002240981 0.0021449362 0.04980072 0.019556794
0.0012955633 -0.013655111 0.010025462 0.015326999 -0.008320388 0.0017795465 -0.052175574 -0.002422092
0.008782876 -0.006118785 -0.0021465486 0.08941857 0.0037021034 -0.035387456 0.005627732 -0.044887103
-0.038478386 0.0037589066 -0.03958252 -6.100032e-06 0.001029848 -0.016569141 0.003022623 0.018085249
-0.049624514 -0.0072885626 -0.040074743 0.0065199053 -0.07669761 0.026738886 0.010320193 -0.00048535582
0.011291617 -0.0014050389 -0.015308615 0.010489109 4.068505e-06 -0.0028230408 0.00858353 0.015085054
-0.031110782 0.0023607141 0.011305054 0.013010114 0.016221918 0.0138796335 -0.0068280674 -0.009210996
-0.010658814 -0.00406796 -0.012385894 -0.027220812 0.012104318 -0.008730749 0.005678608 0.015644161
0.0044794804 0.012318608 -0.011529511 -0.024490265 0.011128825 0.004981573 0.008705265 0.014828903
-0.0011865108 -0.0013505861 -0.02100055 -0.00020928595 0.00042327703 -0.021227572 -0.00024957882 0.003503527
0.00784172 0.013733442 0.0084947925 -0.03541804 0.045162734 -0.012212624 0.041977603 -0.0011934697
-0.004399674 -0.021873595 0.008821727 -0.012472173 0.005695348 -0.018044794 0.015308713 0.014267245
0.032012675 0.018042212 0.05877583 -0.035770014 0.016905265 0.025146691 0.0127733685 0.01789502
0.009700092 -0.0391067 -0.0030046166 -0.00038636246 -0.012039066 -0.008531348 0.00052019465 -0.03634689
0.029818771 0.002510382 0.00582861 -0.020061303 -0.010614281 0.018384466 -0.027639002 0.0035748798
-0.0005861758 0.11906939 0.030300988 0.0024536913 0.0081770215 0.011267911 0.03142615 0.0007194294
0.003185212 -0.05319781 -0.14179121 -0.0015805812 0.0051846546 -0.0017047134 0.006647883 -0.00011390191
0.0038060471 -0.02657129 0.03228804 -0.03229535 0.0065338137 0.003592126 0.020949246 0.0028985366
0.0015608749 0.0063531008 0.00013379683 0.0021402615 0.009539071 -0.0054910975 -0.0011485444 -0.013334107
0.02209772 0.026493246 0.076617375 -0.0066668172 -0.028805455 0.012539407 -0.019130696 0.013926909
-0.017711647 0.0071425005 -0.0060048155 0.009774789 -0.035455596 0.005737167 0.008821488 0.0017956619
0.0059136385 0.016474193 -0.00164762 0.007218859 0.014312079 -0.050742198 0.027176341 -0.012669462

last.bias f4 [3]
00000000: 2d97 d53c 9887 2a3d 5339 1f3c
0.026073063 0.04163322 0.009718257
