log/MUJOCO_ANT_DIR_12_withnorm_v4/Ant-v3/2/model/model_qf_task_best.pth (torch, 27411 bytes, 4 tensors)

base.fc0.weight f4 [400, 12]
0	0xbd230293	-0.039797377
1	0x3d263682	0.040579326
2	0x3c907010	0.01763156
3	0xbd11390b	-0.03545479
4	0xbd1b3ca5	-0.037899632
5	0x3d3fe038	0.04684469
6	0xbd1e1ef5	-0.03860374
7	0x3c0c247a	0.008553619
8	0x3c458b27	0.012057102
9	0xbd35700a	-0.044296302
10	0xbc94b4a0	-0.018152535
11	0x3b68341a	0.0035431446
12	0x39b2f8cd	0.00034136177
13	0xbcf58aca	-0.029973406
14	0xbcc494a3	-0.023996657
15	0xbd233ea8	-0.039854676
16	0xbc6b27ed	-0.014352781
17	0x3d17ca60	0.037058234
18	0xbd2d0e12	-0.042249747
19	0x3b2cee80	0.0026387274
20	0xbd4a06cb	-0.049322885
21	0xbc56ef93	-0.013118642
22	0x3bb5e59a	0.0055510523
23	0xbc62efe0	-0.013851136
24	0x3c982c87	0.01857592
25	0xbc28f6c7	-0.010312743
26	0xbc66142d	-0.014042896
27	0x3d3094fa	0.043110825
28	0xbcd258a3	-0.02567703
29	0x3d15c432	0.03656406
30	0x3abe7a9a	0.0014532388
31	0xbbd4701a	-0.00648309
32	0x3c8edcc7	0.01743926
33	0x3d28d110	0.041215003
34	0xbc6aa013	-0.014320391
35	0xbc602713	-0.013681191
36	0x3cd4f23a	0.025994409
37	0xbc7b1cd3	-0.015326696
38	0xbcfeca7d	-0.031102413
39	0x3bb7c440	0.0056081116
40	0xbc099f80	-0.008399844
41	0x3c755af3	0.014975297
42	0x3c0916da	0.008367265
43	0x3937c4cd	0.00017525554
44	0x3c3e5207	0.0116162365
45	0x3ac332cd	0.0014892459
46	0x3d1c106f	0.03810161
47	0x3d4afd10	0.049557745
48	0x3ce48377	0.027894719
49	0xbcea0ca7	-0.028570486
50	0x3d1c3f38	0.038146228
51	0xbc8f5753	-0.017497694
52	0x3c93989a	0.018017102
53	0xbc1f0a6d	-0.009707076
54	0x3cfb3dd3	0.030669129
55	0x3ce44287	0.027863754
56	0x3c097c40	0.00839144
57	0x3c26bc1a	0.010176683
58	0xbc26b500	-0.01017499
59	0xbc81e06a	-0.01585408
60	0xbca8a8f7	-0.020588381
61	0xbd3bfc18	-0.045894712
62	0x3d2fcdd0	0.042920887
63	0xbcd65c17	-0.026166959
64	0xbc7ac0cd	-0.015304756
65	0x3cc853e3	0.024454063
66	0xbd320d85	-0.043469924
67	0x3bd28df3	0.006425613
68	0xbd231175	-0.03981157
69	0xbcbecb9a	-0.023290444
70	0x3d3d18ef	0.046166357
71	0x3aa60a67	0.0012667895
72	0xbc2a5a47	-0.0103975
73	0x3c90feea	0.017699677
74	0x3d00f045	0.03147914
75	0xbd3fa6ef	-0.04679006
76	0xbc54eaa7	-0.012995399
77	0x3d1e80f0	0.038697183
78	0xbcec7893	-0.028866088
79	0x3d1d8525	0.038457055
80	0xbcce7f83	-0.025207287
81	0xbcfcfd0d	-0.030882383
82	0xbd49f498	-0.04930553
83	0xbc8f6407	-0.017503751
84	0x3d04e34d	0.032443333
85	0xbb599d00	-0.0033205152
86	0xbca643c3	-0.020295983
87	0x3d2eda45	0.042688627
88	0xbd400633	-0.046880912
89	0xbd24f0c2	-0.040268667
90	0x3c45cc4d	0.012072635
91	0x3d11253f	0.03543591
92	0x3d065735	0.03279801
93	0xbcc00457	-0.02343957
94	0xbc98e73a	-0.018664945
95	0x3bd61567	0.006533313
96	0x3d01fa63	0.031732928
97	0xbd32b6f7	-0.04363152
98	0xbd084c1a	-0.0332757
99	0x3cf84e87	0.030310882
100	0x3d4cb033	0.049972724
101	0xba09db9a	-0.00052588584
102	0x3c8557fa	0.016277302
103	0xbd1aeec3	-0.037825357
104	0x3c76f220	0.015072376
105	0x3b3c8a9a	0.0028769136
106	0x3d2f29c8	0.042764455
107	0x3b74ea9a	0.0037371279
108	0xbc94a58d	-0.018145347
109	0xbd3e75ad	-0.046498943
110	0xbce9ce0d	-0.028540635
111	0xbcd5228a	-0.026017446
112	0xbc2a27a0	-0.010385424
113	0xbcb4b0dd	-0.022056991
114	0xbc962bad	-0.018331373
115	0x3d1f90f8	0.038956612
116	0x3d05e338	0.032687396
117	0xbcf4afc3	-0.029868966
118	0xbd36e252	-0.04464943
119	0x3caab830	0.02083978
120	0xbcc6a463	-0.024248308
121	0x3c8412ad	0.016122187
122	0x3d3d02ea	0.046145357
123	0xbd0ecd1a	-0.03486357
124	0x3c995fcd	0.01872244
125	0xbce14740	-0.027499795
126	0x3c63842d	0.013886494
127	0xbc987a80	-0.0186131
128	0xbce501e7	-0.027955009
129	0xbccabf7a	-0.024749506
130	0x3b4d2fb3	0.0031308949
131	0x3aca8367	0.0015450538
132	0xbd116ba8	-0.03550306
133	0xbd2ef90b	-0.042717975
134	0x3c61d000	0.013782501
135	0x3cf1e4bd	0.029528016
136	0xbbe31100	-0.006929517
137	0x3ce1ce83	0.027564293
138	0xbc8f2a9d	-0.017476374
139	0xbd0d699a	-0.034524538
140	0xbce8bc2a	-0.028410036
141	0xbc20151a	-0.009770656
142	0x3c7674a0	0.015042454
143	0xbca0c827	-0.01962669
144	0x3c153313	0.009106415
145	0x3cf3eaf7	0.029775126
146	0x3d1a56e5	0.037680525
147	0xbccfce40	-0.025366902
148	0xbd0222c0	-0.03177142
149	0xbd16dde0	-0.03683269
150	0x3bac614d	0.0052606226
151	0xbc7bbba0	-0.0153645575
152	0x3caaaebd	0.020835275
153	0x3c49b653	0.012311536
154	0x39549b33	0.00020275712
155	0xbbe0794d	-0.0068503977
156	0x3ac5d967	0.0015094698
157	0x3c9514da	0.01819842
158	0xbc0d9bda	-0.008643115
159	0x3d0ef3ed	0.034900595
160	0xbc9c33d3	-0.01906768
161	0x3d009180	0.03138876
162	0x3d269125	0.040665764
163	0x3c9d6890	0.019214898
164	0xbd4a5f13	-0.049407076
165	0xbcc8e243	-0.024521952
166	0x3d068ef3	0.03285117
167	0xbc1c8227	-0.009552515
168	0xbcc041ca	-0.02346887
169	0xbd19bfef	-0.037536558
170	0x3cf26d70	0.0295932
171	0x3cb89b77	0.022535069
172	0xbcb4e45d	-0.022081548
173	0xbd1f39d0	-0.038873494
174	0x3d0ca5eb	0.03433792
175	0x3c5310d3	0.012882429
176	0x3d2cee2d	0.04221933
177	0x3b4ed0cd	0.003155756
178	0xbc18fd73	-0.009337771
179	0x3a022f9a	0.00049661996
180	0xbc18c0a7	-0.009323276
181	0xbd3acce3	-0.04560555
182	0x3d1e8d82	0.03870917
183	0xbb80dc8d	-0.0039325417
184	0x3d338f85	0.043838043
185	0x3ca95fbd	0.020675534
186	0xbc933903	-0.017971521
187	0xbc5c79c7	-0.013456768
188	0x3b38064d	0.0028079927
189	0xbc85594a	-0.016277928
190	0x3d0c0782	0.034186848
191	0x3cf01500	0.029306889
192	0x3bba74cd	0.0056901933
193	0xbca15f53	-0.019698774
194	0x3d4c856b	0.049931925
195	0x3d18983b	0.037254553
196	0x3d16901b	0.036758523
197	0xbd23047a	-0.03979919
198	0xbceda780	-0.029010534
199	0x3d2c8005	0.042114276
200	0x3bbcc2e7	0.005760539
201	0xbb96bc40	-0.004600078
202	0x3d075573	0.033040475
203	0x3caba8d0	0.02095452
204	0xbb553800	-0.00325346
205	0x3cf4947d	0.029855961
206	0x3ce67090	0.028129846
207	0xbbdba933	-0.0067035197
208	0x3cf80e93	0.030280387
209	0x3cf921cd	0.030411625
210	0x3d0a9eb7	0.03384277
211	0xbb320700	-0.0027164817
212	0x3d3fdcba	0.04684136
213	0xbd1bed2f	-0.038067993
214	0xbd311532	-0.043233104
215	0xbd27bab3	-0.040949535
216	0x3d0bfec7	0.03417852
217	0xbd350828	-0.04419723
218	0xbcae3697	-0.021266265
219	0xbc2e1593	-0.010625261
220	0xbd0fdd8b	-0.03512339
221	0x3921e4cd	0.00015439391
222	0x3d2b2f4f	0.041793164
223	0xbb8cde8d	-0.004298991
224	0xbd3f47b7	-0.046699252
225	0x3c35d907	0.011099107
226	0xbd215355	-0.039386112
227	0xbb41bae7	-0.0029560865
228	0x3b029a33	0.0019928336
229	0xbd00091d	-0.03125869
230	0x3d105d22	0.03524507
231	0x3d368588	0.04456094
232	0xbd3d7195	-0.0462509
233	0x3a837967	0.0010030688
234	0xbd2d197f	-0.042260643
235	0xbd096f85	-0.03355362
236	0xbd1faf7a	-0.038985707
237	0xbc4b244d	-0.0123987915
238	0x3b0ac99a	0.0021177293
239	0x3d17def5	0.037077863
240	0x3cdcde00	0.026961327
241	0x3d2a47ef	0.041572507
242	0xbceddee0	-0.02903694
243	0x3a8198cd	0.0009887457
244	0xbd037e8f	-0.032103118
245	0xbc242cf3	-0.010020482
246	0xbd10728b	-0.035265487
247	0xbc7a76ba	-0.015287096
248	0xbc9ed597	-0.019388957
249	0xbc103a8d	-0.008803022
250	0x3d069f88	0.032866985
251	0xbd4b28ea	-0.049599566
252	0x3d19853f	0.03748059
253	0x3d018192	0.03161771
254	0xbc0c039a	-0.008545781
255	0x3c67d78d	0.014150512

base.fc0.bias f4 [400]
0	0x3dcccccd	0.1
1	0x3dcccccd	0.1
2	0x3dcccccd	0.1
3	0x3dcccccd	0.1
4	0x3dcccccd	0.1
5	0x3dcccccd	0.1
6	0x3dcccccd	0.1
7	0x3dcccccd	0.1
8	0x3dcccccd	0.1
9	0x3dcccccd	0.1
10	0x3dcccccd	0.1
11	0x3dcccccd	0.1
12	0x3dcccccd	0.1
13	0x3dcccccd	0.1
14	0x3dcccccd	0.1
15	0x3dcccccd	0.1
16	0x3dcccccd	0.1
17	0x3dcccccd	0.1
18	0x3dcccccd	0.1
19	0x3dcccccd	0.1
20	0x3dcccccd	0.1
21	0x3dcccccd	0.1
22	0x3dcccccd	0.1
23	0x3dcccccd	0.1
24	0x3dcccccd	0.1
25	0x3dcccccd	0.1
26	0x3dcccccd	0.1
27	0x3dcccccd	0.1
28	0x3dcccccd	0.1
29	0x3dcccccd	0.1
30	0x3dcccccd	0.1
31	0x3dcccccd	0.1
32	0x3dcccccd	0.1
33	0x3dcccccd	0.1
34	0x3dcccccd	0.1
35	0x3dcccccd	0.1
36	0x3dcccccd	0.1
37	0x3dcccccd	0.1
38	0x3dcccccd	0.1
39	0x3dcccccd	0.1
40	0x3dcccccd	0.1
41	0x3dcccccd	0.1
42	0x3dcccccd	0.1
43	0x3dcccccd	0.1
44	0x3dcccccd	0.1
45	0x3dcccccd	0.1
46	0x3dcccccd	0.1
47	0x3dcccccd	0.1
48	0x3dcccccd	0.1
49	0x3dcccccd	0.1
50	0x3dcccccd	0.1
51	0x3dcccccd	0.1
52	0x3dcccccd	0.1
53	0x3dcccccd	0.1
54	0x3dcccccd	0.1
55	0x3dcccccd	0.1
56	0x3dcccccd	0.1
57	0x3dcccccd	0.1
58	0x3dcccccd	0.1
59	0x3dcccccd	0.1
60	0x3dcccccd	0.1
61	0x3dcccccd	0.1
62	0x3dcccccd	0.1
63	0x3dcccccd	0.1
64	0x3dcccccd	0.1
65	0x3dcccccd	0.1
66	0x3dcccccd	0.1
67	0x3dcccccd	0.1
68	0x3dcccccd	0.1
69	0x3dcccccd	0.1
70	0x3dcccccd	0.1
71	0x3dcccccd	0.1
72	0x3dcccccd	0.1
73	0x3dcccccd	0.1
74	0x3dcccccd	0.1
75	0x3dcccccd	0.1
76	0x3dcccccd	0.1
77	0x3dcccccd	0.1
78	0x3dcccccd	0.1
79	0x3dcccccd	0.1
80	0x3dcccccd	0.1
81	0x3dcccccd	0.1
82	0x3dcccccd	0.1
83	0x3dcccccd	0.1
84	0x3dcccccd	0.1
85	0x3dcccccd	0.1
86	0x3dcccccd	0.1
87	0x3dcccccd	0.1
88	0x3dcccccd	0.1
89	0x3dcccccd	0.1
90	0x3dcccccd	0.1
91	0x3dcccccd	0.1
92	0x3dcccccd	0.1
93	0x3dcccccd	0.1
94	0x3dcccccd	0.1
95	0x3dcccccd	0.1
96	0x3dcccccd	0.1
97	0x3dcccccd	0.1
98	0x3dcccccd	0.1
99	0x3dcccccd	0.1
100	0x3dcccccd	0.1
101	0x3dcccccd	0.1
102	0x3dcccccd	0.1
103	0x3dcccccd	0.1
104	0x3dcccccd	0.1
105	0x3dcccccd	0.1
106	0x3dcccccd	0.1
107	0x3dcccccd	0.1
108	0x3dcccccd	0.1
109	0x3dcccccd	0.1
110	0x3dcccccd	0.1
111	0x3dcccccd	0.1
112	0x3dcccccd	0.1
113	0x3dcccccd	0.1
114	0x3dcccccd	0.1
115	0x3dcccccd	0.1
116	0x3dcccccd	0.1
117	0x3dcccccd	0.1
118	0x3dcccccd	0.1
119	0x3dcccccd	0.1
120	0x3dcccccd	0.1
121	0x3dcccccd	0.1
122	0x3dcccccd	0.1
123	0x3dcccccd	0.1
124	0x3dcccccd	0.1
125	0x3dcccccd	0.1
126	0x3dcccccd	0.1
127	0x3dcccccd	0.1
128	0x3dcccccd	0.1
129	0x3dcccccd	0.1
130	0x3dcccccd	0.1
131	0x3dcccccd	0.1
132	0x3dcccccd	0.1
133	0x3dcccccd	0.1
134	0x3dcccccd	0.1
135	0x3dcccccd	0.1
136	0x3dcccccd	0.1
137	0x3dcccccd	0.1
138	0x3dcccccd	0.1
139	0x3dcccccd	0.1
140	0x3dcccccd	0.1
141	0x3dcccccd	0.1
142	0x3dcccccd	0.1
143	0x3dcccccd	0.1
144	0x3dcccccd	0.1
145	0x3dcccccd	0.1
146	0x3dcccccd	0.1
147	0x3dcccccd	0.1
148	0x3dcccccd	0.1
149	0x3dcccccd	0.1
150	0x3dcccccd	0.1
151	0x3dcccccd	0.1
152	0x3dcccccd	0.1
153	0x3dcccccd	0.1
154	0x3dcccccd	0.1
155	0x3dcccccd	0.1
156	0x3dcccccd	0.1
157	0x3dcccccd	0.1
158	0x3dcccccd	0.1
159	0x3dcccccd	0.1
160	0x3dcccccd	0.1
161	0x3dcccccd	0.1
162	0x3dcccccd	0.1
163	0x3dcccccd	0.1
164	0x3dcccccd	0.1
165	0x3dcccccd	0.1
166	0x3dcccccd	0.1
167	0x3dcccccd	0.1
168	0x3dcccccd	0.1
169	0x3dcccccd	0.1
170	0x3dcccccd	0.1
171	0x3dcccccd	0.1
172	0x3dcccccd	0.1
173	0x3dcccccd	0.1
174	0x3dcccccd	0.1
175	0x3dcccccd	0.1
176	0x3dcccccd	0.1
177	0x3dcccccd	0.1
178	0x3dcccccd	0.1
179	0x3dcccccd	0.1
180	0x3dcccccd	0.1
181	0x3dcccccd	0.1
182	0x3dcccccd	0.1
183	0x3dcccccd	0.1
184	0x3dcccccd	0.1
185	0x3dcccccd	0.1
186	0x3dcccccd	0.1
187	0x3dcccccd	0.1
188	0x3dcccccd	0.1
189	0x3dcccccd	0.1
190	0x3dcccccd	0.1
191	0x3dcccccd	0.1
192	0x3dcccccd	0.1
193	0x3dcccccd	0.1
194	0x3dcccccd	0.1
195	0x3dcccccd	0.1
196	0x3dcccccd	0.1
197	0x3dcccccd	0.1
198	0x3dcccccd	0.1
199	0x3dcccccd	0.1
200	0x3dcccccd	0.1
201	0x3dcccccd	0.1
202	0x3dcccccd	0.1
203	0x3dcccccd	0.1
204	0x3dcccccd	0.1
205	0x3dcccccd	0.1
206	0x3dcccccd	0.1
207	0x3dcccccd	0.1
208	0x3dcccccd	0.1
209	0x3dcccccd	0.1
210	0x3dcccccd	0.1
211	0x3dcccccd	0.1
212	0x3dcccccd	0.1
213	0x3dcccccd	0.1
214	0x3dcccccd	0.1
215	0x3dcccccd	0.1
216	0x3dcccccd	0.1
217	0x3dcccccd	0.1
218	0x3dcccccd	0.1
219	0x3dcccccd	0.1
220	0x3dcccccd	0.1
221	0x3dcccccd	0.1
222	0x3dcccccd	0.1
223	0x3dcccccd	0.1
224	0x3dcccccd	0.1
225	0x3dcccccd	0.1
226	0x3dcccccd	0.1
227	0x3dcccccd	0.1
228	0x3dcccccd	0.1
229	0x3dcccccd	0.1
230	0x3dcccccd	0.1
231	0x3dcccccd	0.1
232	0x3dcccccd	0.1
233	0x3dcccccd	0.1
234	0x3dcccccd	0.1
235	0x3dcccccd	0.1
236	0x3dcccccd	0.1
237	0x3dcccccd	0.1
238	0x3dcccccd	0.1
239	0x3dcccccd	0.1
240	0x3dcccccd	0.1
241	0x3dcccccd	0.1
242	0x3dcccccd	0.1
243	0x3dcccccd	0.1
244	0x3dcccccd	0.1
245	0x3dcccccd	0.1
246	0x3dcccccd	0.1
247	0x3dcccccd	0.1
248	0x3dcccccd	0.1
249	0x3dcccccd	0.1
250	0x3dcccccd	0.1
251	0x3dcccccd	0.1
252	0x3dcccccd	0.1
253	0x3dcccccd	0.1
254	0x3dcccccd	0.1
255	0x3dcccccd	0.1

last.weight f4 [3, 400]
0	0xba9579e6	-0.0011404126
1	0x3aac8d1e	0.0013164615
2	0xbae94585	-0.0017797208
3	0x3a195ca4	0.00058502913
4	0xba8d6944	-0.0010788818
5	0x3a43b4c5	0.00074655964
6	0xb8f51be8	-0.00011687708
7	0x3b10f782	0.0022120182
8	0x3b233eb7	0.0024909207
9	0xbb119b33	-0.002221775
10	0xba82f84d	-0.0009992212
11	0xbb403945	-0.002933101
12	0x3a6ef742	0.0009115824
13	0xb7736b85	-1.45089625e-05
14	0xba8973ea	-0.0010486816
15	0x3b0a6870	0.0021119379
16	0xb9ac6256	-0.00032879662
17	0x3aab1b31	0.0013054368
18	0x3b2c7c46	0.002631919
19	0xbb2b7da5	-0.002616742
20	0x39e18d8d	0.00043020808
21	0x3a918291	0.0011101534
22	0x3ae8759c	0.0017735246
23	0xbade5212	-0.0016961715
24	0xbb3fa51d	-0.0029242702
25	0x3b431718	0.0029768404
26	0x3a6b1c92	0.0008968796
27	0x3b22beb1	0.00248329
28	0xba48f7ac	-0.00076663005
29	0xbb15570d	-0.0022787482
30	0x3b0e2dfe	0.0021694894
31	0x371ed062	9.466052e-06
32	0x3abd5de0	0.0014447533
33	0xba6a623c	-0.00089410297
34	0x3ae4f01c	0.0017466578
35	0xbb2f4cfa	-0.0026748762
36	0xbb109570	-0.0022061728
37	0x3a8508e0	0.001014974
38	0xba155eb2	-0.00056980096
39	0xbb085d61	-0.0020807611
40	0xb9fedebd	-0.00048612608
41	0x3a9e7d40	0.0012091771
42	0x395e4c21	0.0002119993
43	0x3aa78eaf	0.0012783612
44	0xb93ee140	-0.00018203724
45	0x3b2adcd3	0.0026071563
46	0xbb12bce1	-0.0022390413
47	0x3acddaf9	0.0015705518
48	0xba058650	-0.00050935615
49	0xbb1cc6ac	-0.0023922129
50	0x3b176a63	0.0023104183
51	0xbb1993d9	-0.0023434071
52	0xba37d039	-0.00070119236
53	0x3b01facb	0.0019833322
54	0x3ac935aa	0.0015351076
55	0xbae96954	-0.001780788
56	0x3b20f602	0.0024560695
57	0x3b441e8b	0.0029925432
58	0x3b01b6b8	0.0019792747
59	0x39a7fee5	0.00032042633
60	0x3a212717	0.00061474874
61	0x38141b64	3.531146e-05
62	0xbb26283a	-0.0025353567
63	0xbb098796	-0.0020985357
64	0x3ae9ee84	0.0017847572
65	0x3a91a74a	0.0011112478
66	0xbae2a911	-0.0017292817
67	0x3aa0308f	0.0012221503
68	0x3a0e6479	0.0005431842
69	0x39987369	0.00029077686
70	0x3aea6f8d	0.0017886028
71	0xbb37ebf3	-0.002806422
72	0x38608894	5.353296e-05
73	0x3a85890f	0.0010187941
74	0xba9b9b30	-0.0011871811
75	0x3aa2b784	0.0012414311
76	0xbac70157	-0.0015182894
77	0x39c479f4	0.00037474895
78	0xba7e1344	-0.0009692202
79	0xbb17bced	-0.002315338
80	0xbb3ec865	-0.0029111144
81	0x3a81ad0a	0.0009893489
82	0xbb125e9d	-0.0022334226
83	0x3aad9fa1	0.0013246426
84	0x3aed137a	0.001808747
85	0x3acf2051	0.0015802478
86	0x3a821cde	0.0009926816
87	0xbaa468fe	-0.0012543497
88	0xb98f3d81	-0.0002732091
89	0x3a0a17db	0.0005267837
90	0xbb21bb58	-0.0024678316
91	0x3abce4e4	0.0014411476
92	0xba92b6b1	-0.0011193362
93	0x3a78271d	0.00094662776
94	0x39f00b0a	0.00045784592
95	0x3b00850f	0.001961056
96	0x3b430e0f	0.0029763018
97	0x3b01ea98	0.0019823667
98	0xba033227	-0.00050047267
99	0xbb136676	-0.0022491491
100	0x3a5e436b	0.0008478674
101	0x3afc8a9a	0.0019267381
102	0xba161077	-0.00057244994
103	0xbb3de78c	-0.0028977124
104	0xbad9d212	-0.0016618392
105	0x3a85ffd9	0.0010223343
106	0xbb0771e4	-0.002066725
107	0xba17d1f6	-0.00057914795
108	0x39ae85ae	0.00033287465
109	0x3a6ba31d	0.00089888443
110	0x3b2a5a90	0.002599392
111	0xbb34deea	-0.0027598687
112	0x3b2c5b4f	0.0026299541
113	0x387169bb	5.7557347e-05
114	0xbb359e06	-0.0027712598
115	0x3b197aee	0.002341922
116	0x3b1eab45	0.0024210971
117	0x3b2fcdc6	0.0026825531
118	0x3ae0f02c	0.001716142
119	0x3a62e196	0.0008654831
120	0xbad21f80	-0.0016031116
121	0x3b178c95	0.0023124565
122	0x3a889550	0.0010420475
123	0xbb1b194b	-0.0023666199
124	0xbafdae2a	-0.0019354273
125	0x3acec593	0.0015775434
126	0xb9f862c1	-0.00047375823
127	0x39d1ef58	0.0004004191
128	0xba1da32f	-0.0006013391
129	0xba2525fe	-0.0006299912
130	0x3aa6dedc	0.0012731212
131	0xb9f7ae39	-0.00047241317
132	0x3b3e21ec	0.0029011918
133	0xba4b5d17	-0.0007757707
134	0xbb2322e6	-0.0024892627
135	0xba43fd58	-0.0007476411
136	0x3aa3eab1	0.0012505857
137	0xb8df045a	-0.00010634279
138	0xbae040dd	-0.0017109175
139	0xbaf54ea1	-0.001871545
140	0xb99bbf71	-0.0002970654
141	0x3a766fbf	0.0009400807
142	0x3b181507	0.0023205893
143	0x3af08c11	0.001835229
144	0xbaa43750	-0.0012528691
145	0x3b17051c	0.0023043817
146	0x39ad2e6f	0.00033031727
147	0x3b1fd9d0	0.00243913
148	0xb9285010	-0.00016051554
149	0xbb314cde	-0.0027053873
150	0x3ad605c2	0.001632862
151	0x3b32beb5	0.0027274315
152	0x3b0e8455	0.0021746357
153	0xbaf73996	-0.0018861766
154	0xbb392c78	-0.0028255265
155	0xbb3815f3	-0.0028089255
156	0x3b38109e	0.0028086076
157	0x3b3f9278	0.002923159
158	0x3af4d0a7	0.0018677906
159	0xbb2be5f9	-0.0026229604
160	0xbaba09dd	-0.0014193613
161	0x3b30b6d5	0.0026964445
162	0xb9fa7b4c	-0.0004777558
163	0xbacd7611	-0.0015675445
164	0xbabfac00	-0.0014623404
165	0xbb09b7e9	-0.002101416
166	0x3a7e4f87	0.00097011816
167	0xb9d7eeb8	-0.00041185855
168	0xb8a4452f	-7.833016e-05
169	0xbaf16683	-0.0018417392
170	0x399ce283	0.00029923403
171	0x3973ec8b	0.00023262405
172	0xbb305e61	-0.0026911723
173	0x3ab454c2	0.001375817
174	0x3a9a1416	0.0011755254
175	0x3b186794	0.0023255097
176	0x3b107fed	0.0022048906
177	0xb7b1451f	-2.1132231e-05
178	0x3a7d8f5c	0.00096725463
179	0xbb34c51d	-0.002758331
180	0x396f7796	0.00022837365
181	0x3b37dd35	0.0028055434
182	0x3a531692	0.00080523745
183	0x3b244a99	0.0025068878
184	0x3a3b901b	0.0007154957
185	0x3b092808	0.0020928401
186	0xbb13b3d2	-0.0022537601
187	0x39ca93ae	0.00038638472
188	0x3a899907	0.0010497876
189	0x37467333	1.1828542e-05
190	0x3a551b9a	0.0008129418
191	0xb965c160	-0.0002191118
192	0x3ab55d5e	0.001383703
193	0xbb2e6041	-0.0026607665
194	0xbaf3a040	-0.0018587187
195	0x39ebb415	0.00044956864
196	0x3add9c82	0.0016907605
197	0x3a000d5c	0.0004884803
198	0xb81385a2	-3.5171986e-05
199	0x39a253c3	0.00030961455
200	0xb929560c	-0.00016149151
201	0xba92caa0	-0.0011199303
202	0xba9141dd	-0.0011082251
203	0x3b3d9f8f	0.0028934216
204	0x3a91fd1d	0.0011138056
205	0xb9ee0c9c	-0.00045404292
206	0x3a79fe7f	0.0009536519
207	0xb890deb8	-6.90794e-05
208	0x3b1d3d6d	0.0023992911
209	0xbb2e6f48	-0.0026616622
210	0x37da89ba	2.6051759e-05
211	0xba2f222f	-0.0006680814
212	0xba910c55	-0.0011066297
213	0x3ac126c2	0.0014736282
214	0xba473a42	-0.00075999286
215	0xbae156eb	-0.0017192041
216	0x38d61cee	0.00010209704
217	0x3b15bd12	0.002284829
218	0xba9871e2	-0.0011630619
219	0xbb412dc5	-0.0029476744
220	0xbb272bdc	-0.002550832
221	0xb89aafcf	-7.376039e-05
222	0x3a6964f6	0.0008903289
223	0x3921aefa	0.0001541934
224	0x3a826e69	0.0009951118
225	0xbab07801	-0.0013463498
226	0xbb294247	-0.0025826858
227	0xba82f49b	-0.0009991111
228	0xbb42c984	-0.0029722163
229	0xba5fdda6	-0.0008539803
230	0x3a294283	0.00064567494
231	0xbb425c9f	-0.0029657257
232	0xb81a3df4	-3.677416e-05
233	0xbb15c250	-0.0022851415
234	0xba6a3e79	-0.0008935701
235	0x3b1bef11	0.0023793618
236	0xbb00247c	-0.0019552996
237	0x3a720f17	0.0009233816
238	0x3a209869	0.00061262265
239	0x3b313828	0.0027041528
240	0x3abf43c5	0.001459234
241	0x3a803b7d	0.0009783354
242	0x3a8c0b74	0.0010684566
243	0xb9fb4c62	-0.0004793136
244	0xba6f9348	-0.0009139073
245	0x3b30f8a5	0.0027003672
246	0x3a69359c	0.0008896233
247	0x3b115e06	0.0022181286
248	0x3b186b0d	0.0023257167
249	0xbab740b1	-0.0013981072
250	0xba550c4a	-0.00081271364
251	0xba808311	-0.0009804686
252	0xbb13298d	-0.0022455186
253	0x3b2caea8	0.002634922
254	0x3b36663f	0.002783194
255	0xbaed07b1	-0.0018083957

last.bias f4 [3]
0	0x3b441fb6	0.0029926128
1	0xba652a6b	-0.00087419775
2	0x3a5fbe48	0.0008535129
