log/MUJOCO_ARMT_ANT_DIR_12_v3/Ant-v3/1/model/model_qf2_task_best.pth (torch, 27411 bytes, 4 tensors)

base.fc0.weight f4 [400, 12]
-0.0016322136 -0.019581402 -0.037995487 -0.04285677 -0.017728508 -0.03420001 -0.027578032 -0.031812876
-0.011086166 0.0054869354 0.04195537 -0.0047177016 0.027199805 -0.019256664 0.008981037 0.009733182
0.035914015 -0.019862223 0.0028434456 -0.002838558 0.0073767602 -0.049593043 -0.021887535 -0.019941343
-0.025401128 0.033575095 -0.018168915 0.018556846 0.044091053 -0.0070519745 0.048415065 -0.027339274
0.0124147115 -0.048732396 0.0062960624 0.011618698 -0.03530131 -0.00026332735 -0.004999292 0.038468778
-0.0048842314 0.016244693 -0.049086362 0.022018457 -0.030506385 0.019784136 -0.01246903 -0.013141418
0.03887424 0.0058296085 0.008321255 -0.010400265 -0.0421634 -0.0071673156 0.017898405 -0.02306739
-0.013342327 -0.0064661265 0.03446799 0.02630189 -0.019153232 -0.041212894 0.008454258 0.023822665
-0.0020357072 0.0017557442 -0.0069800974 -0.041310646 -0.038765997 -0.04807482 -0.01897173 -0.009411985
-0.024984574 0.038496967 -0.024543827 -0.03018192 -0.021142328 -0.0004088819 0.031612433 0.02907529
0.044963725 0.044181895 -0.031523883 0.014670354 -0.0348058 0.008373499 0.04487403 0.007120228
-0.04118965 0.048083127 0.0421075 -0.017794508 0.038182337 -0.044127505 0.010351372 0.044837948
0.03956458 0.04652534 -0.010663099 -0.029500728 -0.0028773427 0.031869847 -0.044157725 0.012687045
0.035930287 0.010997921 0.034900285 -0.0036502182 -0.035792064 -0.0021667243 0.03381018 0.03230774
-0.026941514 -0.0058254423 0.027107513 0.018766254 -0.044869233 -0.026694788 0.017792046 0.032768883
0.018232793 0.007674402 0.039202273 0.00787164 0.039758798 -0.022185285 0.03257948 -0.039818384
0.03127488 -0.00016483665 0.022856051 0.016451532 0.021742975 0.012283522 -0.02388369 -0.002953124
-0.00450207 0.049757022 0.0428338 0.02803709 -0.009557957 -0.0029464008 0.021559084 0.033802237
0.02754022 -0.011957741 0.008654219 0.0062827766 0.04182259 -0.0034891188 0.042453706 -0.023633843
-0.0027339817 -0.0031801283 -0.007085198 0.038357604 -0.03420387 -0.027049458 -0.020563966 -0.025649523
0.04164892 -0.013409239 -0.019610478 0.02085253 -0.040497113 -0.0187145 -0.040772207 -0.031892944
0.035807993 -0.025907481 0.043369778 0.03152333 -0.03193548 0.009432084 0.019119818 -0.04786087
0.003604448 0.019964833 -0.037232496 0.0055960775 -0.027987903 -0.0056530894 0.042657148 0.048033666
-0.019712543 0.020872027 0.031533904 -0.04030795 -0.035526343 0.03719434 -0.038386084 0.004034692
-0.007353729 0.045787882 0.046778288 0.022986412 -0.032598592 -0.014651162 -0.03527978 0.010071195
-0.02701025 0.03464795 -0.010246867 -0.015457851 -0.0043262243 0.04808097 0.01939699 0.042390894
-0.009437961 0.030233592 -0.026723672 -0.024370676 -0.037268486 0.026510054 0.049892206 0.03309824
0.013211966 0.00061523914 -0.026915211 0.04603712 0.036002588 -0.01417572 -0.017610282 -0.03353533
0.027591532 -0.0026984632 0.04650387 -0.017622327 0.019673366 -0.03213588 0.0018783748 -0.0023996474
0.039915204 0.01051513 -0.021429056 0.041724086 0.047891587 -0.0014329077 0.01732536 -0.02774706
0.0120843 0.01732027 0.0097213155 -0.015248972 -0.042191338 0.041563123 0.016157633 0.043465883
0.030724097 0.015206403 0.016553486 0.044605892 -0.03444278 0.041839387 0.03595273 -0.016505135
00000000: 00f0 d5ba 2d69 a0bc 28a1 1bbd 958a 2fbd
00000010: 603b 91bc 4f15 0cbd 53eb e1bc 384e 02bd
00000020: c0a2 35bc c0cb b33b 65d9 2b3d f396 9abb
00000030: 20d2 de3c 27c0 9dbc 3325 133c ed77 1f3c
00000040: 931a 133d 1ab6 a2bc 1a59 3a3b 1a07 3abb
00000050: c0b8 f13b 1322 4bbd 7d4d b3bc 075c a3bc
00000060: 0716 d0bc 0a86 093d fad6 94bc 8704 983c
00000070: d298 343d 4014 e7bb e04e 463d 9df6 dfbc
00000080: 1367 4b3c 9f9b 47bd 334f ce3b 5a5c 3e3c
00000090: 1b98 10bd 330f 8ab9 1ad1 a3bb 7091 1d3d
000000a0: e70b a0bb 9713 853c c80e 49bd 0d60 b43c
000000b0: 87e8 f9bc 5712 a23c e74a 4cbc 1a4f 57bc
000000c0: 983a 1f3d 4d06 bf3b e055 083c e065 2abc
000000d0: 88b3 2cbd cddb eabb ad9f 923c d3f7 bcbc
000000e0: c799 5abc cde1 d3bb 4f2e 0d3d 1077 d73c
000000f0: 3de7 9cbc dace 28bd ba83 0a3c c027 c33c
00000100: 8069 05bb 0021 e63a 4db9 e4bb 5a35 29bd
00000110: 18c9 1ebd 1aea 44bd 9a6a 9bbc ba34 1abc
00000120: 73ac ccbc ffae 1d3d 2310 c9bc 1340 f7bc
00000130: ad32 adbc 335f d6b9 0a7c 013d 4d2f ee3c
00000140: e22b 383d 13f8 343d 301f 01bd ed5b 703c
00000150: 8790 0ebd 0031 093c d5cd 373d cd50 e93b
00000160: 7ab6 28bd d0f2 443d ea78 2c3d cac5 91bc
00000170: 1565 1c3d 0bbf 34bd cd98 293c ffa7 373d
00000180: 780e 223d 5b91 3e3d 47b4 2ebc 83ab f1bc
00000190: cd91 3cbb f589 023d bbde 34bd 53dd 4f3c
000001a0: a32b 133d a030 343c 9af3 0e3d 8038 6fbb
000001b0: b39a 12bd 9aff 0dbb 8b7c 0a3d 1f55 043d
000001c0: 73b4 dcbc 5ae3 bebb 9310 de3c b0bb 993c
000001d0: cdc8 37bd 07af dabc a0c0 913c aa38 063d
000001e0: f05c 953c 8d79 fb3b 9092 203d 0df8 003c
000001f0: 1fda 223d eabd b5bc 1072 053d 9a18 23bd
00000200: 171a 003d 00d8 2cb9 9d3c bb3c 5dc5 863c
00000210: 531e b23c d340 493c baa7 c3bc 3389 41bb
00000220: 1a86 93bb 05ce 4b3d 7f72 2f3d 0aae e53c
00000230: fa98 1cbc 6718 41bb ad9c b03c 3774 0a3d
00000240: 079c e13c 67ea 43bc 6dca 0d3c c0df cd3b
00000250: 2a4e 2b3d b3a9 64bb f0e3 2d3d c39b c1bc
00000260: 9a2c 33bb b369 50bb f32a e8bb dd1c 1d3d
00000270: 5b19 0cbd d396 ddbc c375 a8bc f31e d2bc
00000280: 0f98 2a3d 6db2 5bbc 27a6 a0bc edd2 aa3c
00000290: 4de0 25bd 274f 99bc c200 27bd 2da2 02bd
000002a0: 67ab 123d ed3b d4bc 82a4 313d 9b1e 013d
000002b0: c7ce 02bd 0789 1a3c 2aa1 9c3c c209 44bd
000002c0: 9a38 6c3b 4a8d a33c 1a81 18bd 4d5f b73b
000002d0: e346 e5bc 8d3d b9bb 43b9 2e3d f3be 443d
000002e0: 337c a1bc d0fb aa3c b229 013d f319 25bd
000002f0: 1284 11bd 1859 183d ba3a 1dbd 7335 843b
00000300: 8df7 f0bb 138c 3b3d 979a 3f3d 004e bc3c
00000310: 1a86 05bd 6d0b 70bc 8881 10bd a701 253c
00000320: 9a44 ddbc 02eb 0d3d 7ae2 27bc ed42 7dbc
00000330: 00c3 8dbb 8df0 443d 70e6 9e3c 13a2 2d3d
00000340: ada1 1abc 70ac f73c 9aeb dabc 03a5 c7bc
00000350: d7a6 18bd 9d2b d93c c55b 4c3d 0592 073d
00000360: 0077 583c 0048 213a 4a7d dcbc 6b91 3c3d
00000370: 7377 133d 4741 68bc 7043 90bc 585c 09bd
00000380: a307 e23c b3d8 30bb d87a 3e3d b35c 90bc
00000390: 0a2a a13c eaa0 03bd cd33 f63a 6743 1dbb
000003a0: 207e 233d a747 2c3c fd8b afbc e0e6 2a3d
000003b0: f829 443d 67d0 bbba eaed 8d3c cd4d e3bc
000003c0: 3afd 453c 3de3 8d3c 2746 1f3c d3d6 79bc
000003d0: d3d0 2cbd 183e 2a3d 035d 843c 4809 323d
000003e0: 1ab1 fb3c 4724 793c 2d9b 873c abb4 363d
000003f0: df13 0dbd c75f 2b3d 2b43 133d c735 87bc

base.fc0.bias f4 [400]
0.1 0.1 0.1 0.1 0.1 0.1 0.1 0.1
0.1 0.1 0.1 0.1 0.1 0.1 0.1 0.1
0.1 0.1 0.1 0.1 0.1 0.1 0.1 0.1
0.1 0.1 0.1 0.1 0.1 0.1 0.1 0.1
0.1 0.1 0.1 0.1 0.1 0.1 0.1 0.1
0.1 0.1 0.1 0.1 0.1 0.1 0.1 0.1
0.1 0.1 0.1 0.1 0.1 0.1 0.1 0.1
0.1 0.1 0.1 0.1 0.1 0.1 0.1 0.1
0.1 0.1 0.1 0.1 0.1 0.1 0.1 0.1
0.1 0.1 0.1 0.1 0.1 0.1 0.1 0.1
0.1 0.1 0.1 0.1 0.1 0.1 0.1 0.1
0.1 0.1 0.1 0.1 0.1 0.1 0.1 0.1
0.1 0.1 0.1 0.1 0.1 0.1 0.1 0.1
0.1 0.1 0.1 0.1 0.1 0.1 0.1 0.1
0.1 0.1 0.1 0.1 0.1 0.1 0.1 0.1
0.1 0.1 0.1 0.1 0.1 0.1 0.1 0.1
0.1 0.1 0.1 0.1 0.1 0.1 0.1 0.1
0.1 0.1 0.1 0.1 0.1 0.1 0.1 0.1
0.1 0.1 0.1 0.1 0.1 0.1 0.1 0.1
0.1 0.1 0.1 0.1 0.1 0.1 0.1 0.1
0.1 0.1 0.1 0.1 0.1 0.1 0.1 0.1
0.1 0.1 0.1 0.1 0.1 0.1 0.1 0.1
0.1 0.1 0.1 0.1 0.1 0.1 0.1 0.1
0.1 0.1 0.1 0.1 0.1 0.1 0.1 0.1
0.1 0.1 0.1 0.1 0.1 0.1 0.1 0.1
0.1 0.1 0.1 0.1 0.1 0.1 0.1 0.1
0.1 0.1 0.1 0.1 0.1 0.1 0.1 0.1
0.1 0.1 0.1 0.1 0.1 0.1 0.1 0.1
0.1 0.1 0.1 0.1 0.1 0.1 0.1 0.1
0.1 0.1 0.1 0.1 0.1 0.1 0.1 0.1
0.1 0.1 0.1 0.1 0.1 0.1 0.1 0.1
0.1 0.1 0.1 0.1 0.1 0.1 0.1 0.1
00000000: cdcc cc3d cdcc cc3d cdcc cc3d cdcc cc3d
00000010: cdcc cc3d cdcc cc3d cdcc cc3d cdcc cc3d
00000020: cdcc cc3d cdcc cc3d cdcc cc3d cdcc cc3d
00000030: cdcc cc3d cdcc cc3d cdcc cc3d cdcc cc3d
00000040: cdcc cc3d cdcc cc3d cdcc cc3d cdcc cc3d
00000050: cdcc cc3d cdcc cc3d cdcc cc3d cdcc cc3d
00000060: cdcc cc3d cdcc cc3d cdcc cc3d cdcc cc3d
00000070: cdcc cc3d cdcc cc3d cdcc cc3d cdcc cc3d
00000080: cdcc cc3d cdcc cc3d cdcc cc3d cdcc cc3d
00000090: cdcc cc3d cdcc cc3d cdcc cc3d cdcc cc3d
000000a0: cdcc cc3d cdcc cc3d cdcc cc3d cdcc cc3d
000000b0: cdcc cc3d cdcc cc3d cdcc cc3d cdcc cc3d
000000c0: cdcc cc3d cdcc cc3d cdcc cc3d cdcc cc3d
000000d0: cdcc cc3d cdcc cc3d cdcc cc3d cdcc cc3d
000000e0: cdcc cc3d cdcc cc3d cdcc cc3d cdcc cc3d
000000f0: cdcc cc3d cdcc cc3d cdcc cc3d cdcc cc3d
00000100: cdcc cc3d cdcc cc3d cdcc cc3d cdcc cc3d
00000110: cdcc cc3d cdcc cc3d cdcc cc3d cdcc cc3d
00000120: cdcc cc3d cdcc cc3d cdcc cc3d cdcc cc3d
00000130: cdcc cc3d cdcc cc3d cdcc cc3d cdcc cc3d
00000140: cdcc cc3d cdcc cc3d cdcc cc3d cdcc cc3d
00000150: cdcc cc3d cdcc cc3d cdcc cc3d cdcc cc3d
00000160: cdcc cc3d cdcc cc3d cdcc cc3d cdcc cc3d
00000170: cdcc cc3d cdcc cc3d cdcc cc3d cdcc cc3d
00000180: cdcc cc3d cdcc cc3d cdcc cc3d cdcc cc3d
00000190: cdcc cc3d cdcc cc3d cdcc cc3d cdcc cc3d
000001a0: cdcc cc3d cdcc cc3d cdcc cc3d cdcc cc3d
000001b0: cdcc cc3d cdcc cc3d cdcc cc3d cdcc cc3d
000001c0: cdcc cc3d cdcc cc3d cdcc cc3d cdcc cc3d
000001d0: cdcc cc3d cdcc cc3d cdcc cc3d cdcc cc3d
000001e0: cdcc cc3d cdcc cc3d cdcc cc3d cdcc cc3d
000001f0: cdcc cc3d cdcc cc3d cdcc cc3d cdcc cc3d
00000200: cdcc cc3d cdcc cc3d cdcc cc3d cdcc cc3d
00000210: cdcc cc3d cdcc cc3d cdcc cc3d cdcc cc3d
00000220: cdcc cc3d cdcc cc3d cdcc cc3d cdcc cc3d
00000230: cdcc cc3d cdcc cc3d cdcc cc3d cdcc cc3d
00000240: cdcc cc3d cdcc cc3d cdcc cc3d cdcc cc3d
00000250: cdcc cc3d cdcc cc3d cdcc cc3d cdcc cc3d
00000260: cdcc cc3d cdcc cc3d cdcc cc3d cdcc cc3d
00000270: cdcc cc3d cdcc cc3d cdcc cc3d cdcc cc3d
00000280: cdcc cc3d cdcc cc3d cdcc cc3d cdcc cc3d
00000290: cdcc cc3d cdcc cc3d cdcc cc3d cdcc cc3d
000002a0: cdcc cc3d cdcc cc3d cdcc cc3d cdcc cc3d
000002b0: cdcc cc3d cdcc cc3d cdcc cc3d cdcc cc3d
000002c0: cdcc cc3d cdcc cc3d cdcc cc3d cdcc cc3d
000002d0: cdcc cc3d cdcc cc3d cdcc cc3d cdcc cc3d
000002e0: cdcc cc3d cdcc cc3d cdcc cc3d cdcc cc3d
000002f0: cdcc cc3d cdcc cc3d cdcc cc3d cdcc cc3d
00000300: cdcc cc3d cdcc cc3d cdcc cc3d cdcc cc3d
00000310: cdcc cc3d cdcc cc3d cdcc cc3d cdcc cc3d
00000320: cdcc cc3d cdcc cc3d cdcc cc3d cdcc cc3d
00000330: cdcc cc3d cdcc cc3d cdcc cc3d cdcc cc3d
00000340: cdcc cc3d cdcc cc3d cdcc cc3d cdcc cc3d
00000350: cdcc cc3d cdcc cc3d cdcc cc3d cdcc cc3d
00000360: cdcc cc3d cdcc cc3d cdcc cc3d cdcc cc3d
00000370: cdcc cc3d cdcc cc3d cdcc cc3d cdcc cc3d
00000380: cdcc cc3d cdcc cc3d cdcc cc3d cdcc cc3d
00000390: cdcc cc3d cdcc cc3d cdcc cc3d cdcc cc3d
000003a0: cdcc cc3d cdcc cc3d cdcc cc3d cdcc cc3d
000003b0: cdcc cc3d cdcc cc3d cdcc cc3d cdcc cc3d
000003c0: cdcc cc3d cdcc cc3d cdcc cc3d cdcc cc3d
000003d0: cdcc cc3d cdcc cc3d cdcc cc3d cdcc cc3d
000003e0: cdcc cc3d cdcc cc3d cdcc cc3d cdcc cc3d
000003f0: cdcc cc3d cdcc cc3d cdcc cc3d cdcc cc3d

last.weight f4 [3, 400]
-0.0020205274 -0.0015076837 0.00073762034 -0.0020044188 0.0021589776 0.0021824234 0.0027039496 0.0022749894
-0.002288336 0.0018643802 -0.000526351 0.001686557 -0.0010989822 -0.0019563665 -0.0016699556 -6.849647e-05
-0.0028180121 0.002617812 0.0024421106 -0.0014409024 -0.001326387 0.0028687099 -0.00023326135 0.00052591966
0.00043799257 -0.0009896324 0.0022173356 -0.0022409328 -0.0021925496 0.0018507106 0.001971912 0.00042153883
-2.2769094e-05 -0.0011587103 0.0021865002 -4.1119696e-05 -0.0008662813 -0.0029030463 -0.002480419 -0.0028623398
-0.002128549 0.0002536937 -0.0028120955 0.0018023426 0.00035589017 -0.00030432595 0.0025649576 -0.0020621677
0.00096062315 -0.0018750572 0.0020258299 0.0015196839 0.0028208173 -0.002416371 -0.002020901 -0.00025676715
0.00083232526 -0.0029002293 -0.0024296076 0.0014270797 -0.0023026397 0.0023271139 -0.0025229456 -0.0014897747
-0.0024882613 -0.00027578545 0.0002867993 0.0028120268 -0.0023968332 0.0028253174 0.0010130417 0.0021995907
-0.00043241464 0.0017891154 0.0016707741 0.0020711496 -0.002919902 -0.00047379005 0.0008831173 -0.0022177866
-0.002964358 0.002635055 0.00086526346 -0.0009821109 0.002297946 -0.002399649 -0.0013482096 -0.0009030597
0.0005796722 0.0029379483 0.0008304323 0.0017069929 0.00075570383 -0.0019115113 0.0018612328 -0.0020093033
-0.0022188446 0.0023161815 0.00022399951 -0.0027950013 -0.001604045 0.0017572353 -0.0009944708 0.00015517295
0.0009917088 0.0021140857 -0.0008937042 0.00066168845 -0.0010573618 -0.0005686895 0.0027229504 0.0015342596
0.0018943155 -0.0016343043 -5.4815413e-05 -0.0006317908 0.00075129676 -0.001181011 -0.0015706973 -0.0012276435
-0.002478556 -0.0025141092 -0.0012726024 0.00025878096 -0.00015712524 -0.00033739864 0.0020302113 -0.0010657675
-0.002989135 -0.00203844 -0.00011735344 -0.0011012839 0.0016239928 0.0010389329 0.0010600173 0.001075344
-0.002495135 -0.0009911546 0.0014822463 -0.0022445226 0.00017865229 -0.0006545434 0.0006150252 0.002342642
-0.0011966132 -0.0021976293 0.0013935893 0.0018881958 -0.00061775174 0.0019488609 -0.002838872 -0.0010826415
-0.00070582726 0.0005198243 0.002165597 -0.0017531429 0.0011776658 -0.00048837875 0.0019085115 0.000257334
-0.002030297 -0.0028543628 -0.00090275216 -0.0025503482 -0.0015600672 0.0026637956 0.00039745367 -0.0010613004
-0.0012998178 -0.0014224706 0.0009359522 -0.0024479334 0.00030790185 0.0015891208 0.0021218914 -0.0019236632
-0.0014929225 0.0009994422 -3.7873506e-05 -0.00036368752 -0.00058770383 -0.002462206 0.00021019041 0.002940534
-1.0271073e-05 -0.00059526303 -0.0028071746 0.0011814187 -0.0017117583 -0.0022652457 0.00033566094 0.0006181312
0.0011181232 -0.0021761702 -0.0013153867 -0.000877269 0.0028734005 2.5560737e-05 0.00074037374 -0.0010056553
0.0019716038 -0.0027870415 0.0024692405 0.0016220588 -0.00065355777 0.0013792916 0.0005474342 0.0029447365
0.0011291903 -0.0021756364 -0.0025310451 0.00090542436 0.0027230447 0.0008596802 0.0004498769 -0.00067100074
-0.00027323913 -0.0009817558 0.00092317484 -0.0021809514 -0.00087973237 0.0003827945 0.0013250059 -0.0018359045
0.0015918667 0.00032371367 0.0025190664 0.0027929787 -0.0021375732 0.00076551246 0.0026690601 -0.0007386038
0.0024772 -0.0013196612 -0.0019563613 -0.00021953773 0.0024357052 0.002943889 -0.0029144324 -0.00245198
-0.00039779843 0.0020429753 0.0027609312 -0.0021552716 0.0026876922 0.0003125968 0.0013438561 -0.0029394315
-0.00047813702 -0.0018107085 -0.00048253656 -0.0011404742 0.0005816724 -0.0022850505 0.0011793466 0.0019305757
00000000: d36a 04bb 789d c5ba dd5c 413a 915c 03bb
00000010: a27d 0d3b fd06 0f3b bf34 313b fd17 153b
00000020: e8f7 15bb 385e f43a d1fa 09ba 760f dd3a
00000030: b90b 90ba 6236 00bb 69e2 daba c3a5 8fb8
00000040: 66ae 38bb 998f 2b3b d10b 203b a9dc bcba
00000050: 2ada adba f700 3c3b 9e97 74b9 dfdd 093a
00000060: 5ea2 e539 8eb6 81ba b850 113b 9ddc 12bb
00000070: e1b0 0fbb 8b93 f23a 323b 013b fc01 dd39
00000080: 4200 bfb7 dedf 97ba 634b 0f3b f077 2cb8
00000090: 2717 63ba 0941 3ebb 868e 22bb 1896 3bbb
000000a0: 207f 0bbb 3102 8539 224b 38bb 953c ec3a
000000b0: c596 ba39 f08d 9fb9 d918 283b 6f25 07bb
000000c0: 54d2 7b3a 7bc4 f5ba c9c3 043b 2130 c73a
000000d0: 76dd 383b fa5b 1ebb 1871 04bb b49e 86b9
000000e0: 6730 5a3a c611 3ebb 0d3a 1fbb d90c bb3a
000000f0: e2e7 16bb 7e82 183b 0158 25bb 8b44 c3ba
00000100: 1912 23bb 4c97 90b9 8d5d 9639 fb49 383b
00000110: 3014 1dbb f628 393b 0ac8 843a 0227 103b
00000120: b6b5 e2b9 c080 ea3a e0fd da3a 20bc 073b
00000130: d45b 3fbb 0667 f8b9 0081 673a 4958 11bb
00000140: ad45 42bb e3b0 2c3b d9d2 623a 2cba 80ba
00000150: 2399 163b 6e43 1dbb 68b6 b0ba 50bb 6cba
00000160: 25f5 173a 988a 403b 5eb1 593a 2dbd df3a
00000170: 6d1a 463a ad8b faba 9cf4 f33a 84ae 03bb
00000180: 096a 11bb 14cb 173b 69e1 6a39 572c 37bb
00000190: d23e d2ba 0853 e63a e758 82ba ecb5 2239
000001a0: 3afc 813a 798c 0a3b 7947 6aba 2975 2d3a
000001b0: 2d97 8aba 1b14 15ba 8773 323b 3619 c93a
000001c0: ae4a f83a 2736 d6ba 9ae9 65b8 c39e 25ba
000001d0: acf2 443a 27cc 9aba dbdf cdba e1e8 a0ba
000001e0: 456f 22bb c1c3 24bb 73cd a6ba feac 8739
000001f0: fcc1 24b9 e1e4 b0b9 4b0d 053b 39b1 8bba
00000200: 5de5 43bb 5997 05bb a61b f6b8 f558 90ba
00000210: 28dc d43a ce2c 883a 47f0 8a3a 8ff2 8c3a
00000220: 6b85 23bb a1e9 81ba ef47 c23a d718 13bb
00000230: 9c54 3b39 aa95 2bba a439 213a 0387 193b
00000240: add7 9cba 1a06 10bb 19a9 b63a 567d f73a
00000250: 9ef0 21ba ec70 ff3a 5e0c 3abb 6ce7 8dba
00000260: 4407 39ba d144 083a b0ec 0d3b b7c9 e5ba
00000270: e85b 9a3a 8b06 00ba 0527 fa3a c9ea 8639
00000280: bb0e 05bb 4310 3bbb aca6 6cba be23 27bb
00000290: 2b7b ccba 1393 2e3b 5461 d039 551b 8bba
000002a0: a65e aaba 3172 baba b05a 753a 826d 20bb
000002b0: e36d a139 0c4a d03a 6e0f 0b3b 6d23 fcba
000002c0: 2bae c3ba b7ff 823a 5eda 1eb8 50ad beb9
000002d0: 2310 1aba f65c 21bb 8f66 5c39 f9b5 403b
000002e0: ec51 2cb7 6d0b 1cba 93f8 37bb d5d9 9a3a
000002f0: 145d e0ba 8474 14bb a6fb af39 150a 223a
00000300: fd8d 923a 149e 0ebb 0e69 acba 87f8 65ba
00000310: a94f 3c3b 446b d637 a415 423a 31d0 83ba
00000320: 0636 013b cca6 36bb fbd2 213b 439b d43a
00000330: 8553 2bba 59c9 b43a b081 0f3a 7bfc 403b
00000340: 5701 943a 1f95 0ebb e4df 25bb 005a 6d3a
00000350: 1c75 323b 295c 613a 75dd eb39 19e6 2fba
00000360: 8941 8fb9 42ae 80ba 3701 723a 4bee 0ebb
00000370: d79d 66ba cfb1 c839 d2ab ad3a bca2 f0ba
00000380: 2fa6 d03a 1db8 a939 ec16 253b 680a 373b
00000390: 8716 0cbb acac 483a 66eb 2e3b dd9e 41ba
000003a0: 8558 223b 7bf8 acba 4c36 00bb b633 66b9
000003b0: 5aa0 1f3b 43ee 403b 1000 3fbb 66b1 20bb
000003c0: 9a8f d0b9 70e3 053b bdf0 343b 753f 0dbb
000003d0: fe23 303b 08e4 a339 5424 b03a 7aa3 40bb
000003e0: 77ae fab9 4c55 edba f6fc fcb9 f77b 95ba
000003f0: 607b 183a c9c0 15bb 4e94 9a3a 5f0b fd3a

last.bias f4 [3]
0.0024433255 0.0014802174 -0.002476445
00000000: 3320 203b db03 c23a da4b 22bb
