log/MUJOCO_ARMT_ANT_DIR_12_v3/Ant-v3/1/model/model_pf_task_best.pth (torch, 27411 bytes, 4 tensors)

base.fc0.weight f4 [400, 12]
0	0xbe959d7e	-0.2922172
1	0xbebbbc59	-0.36667135
2	0x3d9ea1c5	0.07745699
3	0xbe726fb4	-0.23675424
4	0xbd04ca5a	-0.03241954
5	0x3f6fafb2	0.93627465
6	0x3f8a1f23	1.0790752
7	0x400bef5a	2.1864839
8	0xbecf441e	-0.40481657
9	0x3e889e23	0.2668315
10	0x3e972c09	0.29525784
11	0x3df2e909	0.11860854
12	0xbe9577b5	-0.29192892
13	0xbed24a7b	-0.4107245
14	0x3ca0c6d4	0.019626059
15	0xbe9d13d8	-0.30679202
16	0xbe04aca9	-0.1295649
17	0x3f50d47a	0.81574214
18	0x3f6691b2	0.90066063
19	0x3fc1ef08	1.5151072
20	0xbecceba5	-0.40023533
21	0x3ef0aa88	0.47005105
22	0x3e3fffcf	0.18749927
23	0x3e36fb8f	0.178694
24	0x3fd18e57	1.6371564
25	0x3e977ace	0.2958588
26	0x3ea9717c	0.33094394
27	0x3e4d283b	0.20034878
28	0xbe331541	-0.17488576
29	0xbe489416	-0.1958774
30	0xbe73ef1f	-0.23821686
31	0xbe8ef316	-0.27919835
32	0xbe9d4e04	-0.30723584
33	0xbdbc99e8	-0.09209043
34	0xbea9ce4d	-0.33165208
35	0x3f717299	0.9431549
36	0x3f2ce6c4	0.6753962
37	0x3fb5b713	1.4196495
38	0x3eb7ee0e	0.3592381
39	0x3f324987	0.69643444
40	0x3dd33122	0.10312106
41	0xbea4cf72	-0.32189518
42	0xbeafccc1	-0.34335902
43	0xbec0b239	-0.37635973
44	0xbd8c601a	-0.068542674
45	0xbea8163f	-0.32829472
46	0xbec01d21	-0.37522224
47	0x3e33c4c1	0.17555524
48	0xbe9ced53	-0.30649814
49	0xbe8b4e28	-0.27208066
50	0x3e05ce06	0.13066873
51	0xbe07a63e	-0.1324701
52	0x3bd383f1	0.0064549376
53	0x3f5645fc	0.8370054
54	0x3f5e87e2	0.8692609
55	0x3f3d9b04	0.7406466
56	0xbe9cfe5c	-0.3066281
57	0xbda2d5da	-0.07950945
58	0x3e4b0f0d	0.1982996
59	0xbda27207	-0.07931905
60	0x3fb63ee2	1.423794
61	0x3f922016	1.1416042
62	0x3ebdbfeb	0.37060484
63	0x3f17a582	0.5923692
64	0x3beec4a6	0.007286626
65	0xbe681fac	-0.22668332
66	0xbe8c0d63	-0.27353963
67	0xbebe64c7	-0.37186262
68	0xbe9378c6	-0.2880308
69	0xbe917154	-0.28406775
70	0xbeb9466f	-0.3618655
71	0x3f11847d	0.56842786
72	0xbea46f75	-0.32116285
73	0xbea33779	-0.3187826
74	0xbd97e7f8	-0.074172914
75	0xbe5c80bf	-0.21533488
76	0xbe2e1894	-0.17001563
77	0x3f188469	0.5957704
78	0x3f35eb51	0.7106219
79	0x3f7a819f	0.97854036
80	0xbea396ac	-0.3195089
81	0x3eb9b7a6	0.36272925
82	0x3e318a5c	0.17337936
83	0x3d4a0245	0.04931857
84	0xbe7a780c	-0.24459857
85	0xbeb16869	-0.3464997
86	0x3dd87c6f	0.10570609
87	0xbe44251e	-0.19154784
88	0xbd5be70a	-0.053687133
89	0x3f67d3be	0.9055747
90	0x3f95179d	1.1647831
91	0x3ff5d161	1.9204522
92	0xbeb7d4f6	-0.35904664
93	0x3e4d5520	0.20052004
94	0x3d4d56e9	0.050131712
95	0x3e374f43	0.1790133
96	0xbe8c0194	-0.27344954
97	0xbe808772	-0.25103337
98	0x3cbf7971	0.023373337
99	0xbe8d473c	-0.2759341
100	0x3cb13ca9	0.02163537
101	0x3f1e38fa	0.6180569
102	0x3f1608a4	0.58606935
103	0x3f0efaf7	0.5585169
104	0xbe8d979a	-0.27654725
105	0xbdd060e0	-0.101747274
106	0x3ed2056b	0.4101976
107	0xbe37e8a6	-0.17959842
108	0xbe95d67f	-0.2926521
109	0xbe96d7cc	-0.29461515
110	0xbcc61798	-0.024181172
111	0xbe5aeaf9	-0.21378697
112	0x3d783859	0.060600612
113	0x3f17b422	0.59259236
114	0x3f104f7f	0.563713
115	0x3f22e351	0.6362811
116	0xbe85eeec	-0.26158845
117	0xbdb4e466	-0.08832626
118	0x3f36f216	0.71463144
119	0xbe8f3927	-0.2797329
120	0xbea84936	-0.32868356
121	0xbea6cfe9	-0.32580498
122	0x3c80404e	0.015655663
123	0xbe4859fa	-0.19565573
124	0xbe00c157	-0.12573753
125	0x3f35d3de	0.7102641
126	0x3f56be5e	0.8388423
127	0x3fa2ae5b	1.2709459
128	0xbea46401	-0.32107547
129	0x3e7d1290	0.24714112
130	0x3e12fab7	0.14353453
131	0x3d274383	0.04083587
132	0x3f70d745	0.94078475
133	0x3fa4685c	1.2844348
134	0x3e8567e2	0.2605582
135	0x3f1dbbdb	0.6161477
136	0x3c4f6b48	0.012659855
137	0xbea0f95b	-0.31440243
138	0xbeb6573a	-0.35613424
139	0xbeb39573	-0.35074958
140	0xbe3529c7	-0.17691718
141	0xbe8a7d09	-0.2704852
142	0xbeb50ea4	-0.35362732
143	0x3e946ed0	0.28990793
144	0xbe98365a	-0.29728967
145	0xbe9666e9	-0.2937539
146	0x3e9f1dfc	0.31077564
147	0x3e7f5312	0.24934033
148	0x3f47ad57	0.7799887
149	0x3ee9c792	0.45660073
150	0x3dea51d5	0.114413895
151	0xbe3820d4	-0.17981273
152	0x3f066716	0.52501047
153	0xbe97a282	-0.2961617
154	0x3f37509a	0.71607363
155	0xbe77ba73	-0.24192218
156	0xbeae3bef	-0.340301
157	0xbeacf534	-0.33780825
158	0x3e5bcba8	0.21464407
159	0x3d34a392	0.044101305
160	0x3f00806a	0.50195944
161	0x3f33f3e1	0.70294005
162	0x3ee22770	0.44170713
163	0x3e3decff	0.18547438
164	0x3e0f82c0	0.14014721
165	0xbe8ae863	-0.27130422
166	0x3fbfb72c	1.4977775
167	0xbe93e1d3	-0.28883228
168	0x3fa16b05	1.2610785
169	0x3fa0ea5a	1.2571518
170	0x3ef1d053	0.4722925
171	0x3f31c04b	0.6943404
172	0x3d63b946	0.055596612
173	0xbe455b40	-0.1927309
174	0xbe6804c1	-0.22658063
175	0xbeb316db	-0.34978375
176	0xbea08dfd	-0.31358328
177	0xbe8dd3b8	-0.2770059
178	0xbeb198fe	-0.34687036
179	0x3f0a8292	0.54105484
180	0xbed79233	-0.4210373
181	0xbeac5465	-0.33658138
182	0x3eb2ffbf	0.34960744
183	0x3eb37af9	0.35054758
184	0x3f78fc4f	0.9725999
185	0x3ef6b00a	0.48181182
186	0x3dfaade4	0.12240198
187	0xbde674bb	-0.11252733
188	0x3f4cff49	0.80077034
189	0xbed5623c	-0.4167651
190	0x3f3606b6	0.7110399
191	0xbe96b397	-0.2943389
192	0x3d2d13a9	0.042255078
193	0xbd929475	-0.07157222
194	0x3d762220	0.060091138
195	0xbd4cf77a	-0.0500407
196	0xbe14c325	-0.14527567
197	0xbe152f09	-0.14568724
198	0xbd659665	-0.05605163
199	0xbe12ded9	-0.14342822
200	0xbe280175	-0.16406806
201	0x3d2d360d	0.042287875
202	0xbe2557e7	-0.16146813
203	0x3d4ed04c	0.050491616
204	0x3ed6ce85	0.41954437
205	0x3f8b309a	1.0874207
206	0x3ee32ee7	0.4437172
207	0x3f6589fd	0.8966368
208	0x3e7a9adf	0.24473141
209	0xbe7636e0	-0.2404437
210	0xbe95e9af	-0.2927985
211	0xbea8f983	-0.33002862
212	0xbd431099	-0.04762325
213	0xbeb45456	-0.35220593
214	0xbeb4a956	-0.35285443
215	0x3e2b43a0	0.16725016
216	0x3f8b00c8	1.0859613
217	0x3eee6877	0.46564075
218	0x3e986483	0.29764184
219	0x3e90fc93	0.283177
220	0xbd87db54	-0.066336304
221	0xbe6b0321	-0.22950412
222	0xbe5f32da	-0.21796742
223	0xbe930bcd	-0.2871994
224	0xbe820699	-0.2539566
225	0xbd200533	-0.03906746
226	0xbe9452ee	-0.2896952
227	0x3f2ce245	0.6753276
228	0x3f4d6697	0.80234665
229	0x3fb7b14a	1.4350979
230	0x3e9e1d3f	0.30881688
231	0x3f1f9a7b	0.62345093
232	0x3d40cced	0.047070432
233	0xbead634c	-0.3386482
234	0xbec7ad93	-0.38999614
235	0xbeb810fc	-0.35950458
236	0xbe060789	-0.13088812
237	0xbeab40b3	-0.334478
238	0xbeca390b	-0.39496645
239	0x3e84d5a4	0.25944245
240	0xbe6f9364	-0.23396069
241	0xbeaa3e0b	-0.3325046
242	0x3f0813b5	0.5315507
243	0xbd9ea0d3	-0.077455185
244	0x3ea10eab	0.31456503
245	0x40298e20	2.6492996
246	0x3f902a4c	1.1262908
247	0x3ebe3e6b	0.37156996
248	0xbea8632a	-0.32888156
249	0xbe45548c	-0.19270533
250	0x3e07764d	0.13228722
251	0xbc861b70	-0.016370505
252	0xbd27ba56	-0.04094919
253	0xbe8cb308	-0.2748034
254	0x3e66ca35	0.22538073
255	0xbda039a2	-0.078234926

base.fc0.bias f4 [400]
0	0x3ecbd17a	0.39808255
1	0x3ec9e7ce	0.39434665
2	0x3ea60da2	0.32432276
3	0x3ebe39ef	0.37153575
4	0x3e92ae51	0.28648618
5	0x3eb7d6ac	0.3590597
6	0x3e9ec459	0.31009176
7	0x3eaf19d8	0.34199405
8	0x3e7a3cbb	0.2443723
9	0x3e8db09f	0.27673814
10	0x3e9f63e8	0.3113091
11	0x3eb2bcf9	0.349098
12	0x3e906ab1	0.282064
13	0x3ea6c24f	0.3257012
14	0x3eb0a9d2	0.34504563
15	0x3ec5644c	0.38553083
16	0xbd78efa5	-0.060775418
17	0x3eb03759	0.34417227
18	0x3e8fb705	0.2806932
19	0x3ec5efed	0.3865961
20	0x3ea4d5ec	0.3219446
21	0x3eedd302	0.4645005
22	0x3ec98865	0.39361873
23	0x3e83183e	0.25604433
24	0x3ea74e3b	0.32676873
25	0x3ebe9c36	0.37228554
26	0x3e9fc2c7	0.3120329
27	0x3b48ced2	0.0030640853
28	0x3e30f98f	0.17282699
29	0x3edf8d1d	0.43662348
30	0x3ebf749a	0.37393647
31	0x3eaecd4c	0.34141004
32	0x3ebd9658	0.37028766
33	0x3eb363c6	0.3503706
34	0x3eaba28e	0.33522457
35	0x3eb79841	0.35858348
36	0x3ea2628e	0.31715816
37	0x3e914a1b	0.2837685
38	0x3eaace56	0.33360547
39	0x3eac0952	0.3360086
40	0x3e957535	0.29190984
41	0xbc4c6d0f	-0.0124771735
42	0x3ed3c6a5	0.4136249
43	0x3e133325	0.14374979
44	0xbc982ff3	-0.018577551
45	0x3ecd5995	0.40107408
46	0x3ec7bca1	0.390111
47	0x3e7c2fe0	0.24627638
48	0x3ee0a93e	0.43879122
49	0x3ea75b07	0.32686636
50	0x3e559aef	0.20859884
51	0x3e9b7ac6	0.30367106
52	0x3eb066cf	0.34453437
53	0x3edb277e	0.42803568
54	0x3e9803a9	0.29690292
55	0x3eb0fa8f	0.3456616
56	0x3ec0ad2a	0.37632114
57	0x3dd6636b	0.10468181
58	0x3e954530	0.29154348
59	0x3ed70325	0.41994587
60	0x3e80a92d	0.2512907
61	0x3e95f4fe	0.29288477
62	0x3ea16540	0.3152256
63	0x3e904bcb	0.28182825
64	0x3eba6a2f	0.36409137
65	0x3ea3b8e6	0.31977004
66	0x3eba22e4	0.36354744
67	0x3e9998f1	0.29999498
68	0xbc9a0e61	-0.018805685
69	0x3e9b70a8	0.30359387
70	0x3ecd6b6e	0.40121025
71	0x3eb475b1	0.3524604
72	0x3eb5db61	0.35518935
73	0x3eb0e240	0.34547615
74	0x3eb95fe6	0.36205977
75	0x3e9472bb	0.28993782
76	0xbaa7432a	-0.0012761105
77	0x3ed4720c	0.4149326
78	0xbd988680	-0.07447529
79	0x3e81aea4	0.25328553
80	0x3eaed164	0.34144127
81	0xbbc8dad8	-0.006129604
82	0x3e9e32e5	0.30898204
83	0x3ed1dc28	0.40988278
84	0x3ea3fdf4	0.32029688
85	0x3ee0d064	0.4390899
86	0x3eb6a776	0.35674638
87	0x3eac92dc	0.33705795
88	0x3eabf030	0.33581686
89	0x3eb43d20	0.35202885
90	0x3e97101a	0.29504472
91	0x3e6a69a8	0.22891867
92	0x3eb73e2d	0.35789624
93	0x3e8528cc	0.26007688
94	0x3e82ec85	0.25571075
95	0x3eba892c	0.3643278
96	0xbd5d146d	-0.053974558
97	0x3e9df7a1	0.30852988
98	0x3eb1a848	0.346987
99	0xbd0315b8	-0.032003134
100	0x3e896858	0.2683742
101	0x3ea086e9	0.31352928
102	0x3ea7bf5f	0.32763192
103	0x3e8e7727	0.2782528
104	0x3ebdb3fd	0.37051383
105	0x3ecee39a	0.4040802
106	0x3ec66d3c	0.38755214
107	0x3eb138de	0.346137
108	0x3e74b0b5	0.23895533
109	0x3e5fd154	0.21857196
110	0x3e898910	0.26862383
111	0x3e48917b	0.19586746
112	0x3e8e96b8	0.27849364
113	0x3ea59ed1	0.3234773
114	0x3ea69724	0.32537186
115	0x3eb46848	0.3523581
116	0x3e7b67aa	0.24551263
117	0x3ea6d799	0.32586363
118	0x3ebbe46a	0.36697704
119	0xbcefdc5c	-0.02927988
120	0x3ec8f75e	0.39251226
121	0x3eaad90a	0.33368713
122	0x3d278d9a	0.040906526
123	0x3e75ff54	0.24023181
124	0x3eaf8d7b	0.3428763
125	0x3e9ac87e	0.30231088
126	0x3e550114	0.20801193
127	0x3e8267dc	0.25469863
128	0x3ecd5bb6	0.40109032
129	0xbd1f6d2b	-0.03892247
130	0x3ec5f49b	0.38663182
131	0x3eba71c6	0.36414927
132	0x3ebf865f	0.37407205
133	0x3ed7e726	0.4216854
134	0x3eb2e62f	0.3494124
135	0x3e890b67	0.26766512
136	0x3ebec942	0.37262923
137	0x3e871a1d	0.2638711
138	0x3eb6fc1e	0.35739225
139	0x3e7734e1	0.24141265
140	0x3e823724	0.25432694
141	0x3ec72aeb	0.3889993
142	0x3ea04c38	0.3130815
143	0x3ed4630e	0.41481823
144	0xbd30c3c2	-0.04315544
145	0x3e834e64	0.25645745
146	0x3eab881d	0.33502284
147	0x3ed1e792	0.40996987
148	0x3e949592	0.29020363
149	0x3ebf9060	0.37414837
150	0x3e662406	0.2247468
151	0x3ec2f73f	0.3807926
152	0x3ea898a4	0.32928956
153	0x3ec9dd7b	0.3942679
154	0x3e988742	0.29790694
155	0xbd8ac66a	-0.06776126
156	0x3ebd5593	0.3697935
157	0x3e9b34db	0.30313763
158	0x3e94e10b	0.29077944
159	0x3e86b424	0.2630931
160	0x3ec360e5	0.38159862
161	0x3eae0021	0.33984473
162	0x3ec27b67	0.37984774
163	0x3dbea0d3	0.093080185
164	0x3ea17a24	0.31538498
165	0x3eaf2471	0.3420749
166	0x3ec06c07	0.37582418
167	0xbc8825f8	-0.016619667
168	0x3e9921b9	0.2990854
169	0x3ea10911	0.3145223
170	0x3e8c1194	0.2735716
171	0x3edf56a0	0.43620777
172	0x3eb68b01	0.35652927
173	0x3ea71491	0.32632878
174	0x3e9079fc	0.28218067
175	0x3e9be746	0.30449885
176	0x3e6bcf47	0.23028289
177	0x3e9c9ecb	0.305899
178	0x3eb7d0d4	0.3590151
179	0x3e935da7	0.2878239
180	0x3e97e6ed	0.2966837
181	0x3e404bcc	0.18778914
182	0x3e94ed1d	0.29087153
183	0x3ea4d7ce	0.32195896
184	0x3e956b47	0.2918341
185	0x3e8c0233	0.27345428
186	0x3ea0477e	0.31304544
187	0x3ea5386a	0.32269603
188	0x3eaf3cbd	0.34226027
189	0x3e4063bb	0.18788044
190	0x3ec09bd8	0.376189
191	0xbd52e059	-0.051483486
192	0x3ec5a9a3	0.38605985
193	0x3e8c3018	0.27380443
194	0x3e9826ea	0.2971719
195	0x3ee782f2	0.4521709
196	0x3e946195	0.289807
197	0x3ec8539f	0.39126298
198	0x3efd3ec2	0.49461943
199	0x3eb0c0ed	0.3452219
200	0xbd8eb119	-0.069673724
201	0x3e705afb	0.23472206
202	0x3e97118a	0.2950557
203	0x3ec53cd2	0.38522965
204	0x3e8d073b	0.2754458
205	0x3e910aa4	0.2832843
206	0x3e9c9661	0.3058348
207	0x3ea4ebcd	0.32211152
208	0x3eb23726	0.348077
209	0x3ec98290	0.39357424
210	0x3ea431ee	0.32069343
211	0x3e82851d	0.25492182
212	0x3e8c56d5	0.27409998
213	0x3e9e47d2	0.3091417
214	0x3eda8d84	0.42686093
215	0x3e9351ec	0.2877344
216	0x3ea7f025	0.32800403
217	0x3ec45483	0.38345727
218	0x3ecc1bc8	0.39864945
219	0x3ea6927c	0.32533634
220	0x3ed43e18	0.41453624
221	0x3e41930e	0.18903753
222	0x3e215c56	0.1575788
223	0x3eb0397d	0.3441886
224	0x3e878271	0.26466706
225	0x3eb6128c	0.35561025
226	0x3ebb6a6a	0.36604625
227	0xbe406ef5	-0.18792327
228	0x3ec1cb8e	0.37850612
229	0xbdb11a0d	-0.08647547
230	0x3e5532fc	0.2082023
231	0x3ec6d39d	0.38833323
232	0xbc1045dc	-0.008805718
233	0x3ec10996	0.37702626
234	0xbd2fc127	-0.042908814
235	0x3ea07c67	0.3134491
236	0x3e8191bc	0.253065
237	0x3ed404f1	0.4141002
238	0x3ea1f27a	0.31630307
239	0x3e764b50	0.24052167
240	0x3ed53789	0.41643932
241	0x3eaa5180	0.33265305
242	0x3ec758a3	0.38934812
243	0x3e9ca97b	0.30598053
244	0x3ecb0e5b	0.3965939
245	0x3ea8af81	0.329464
246	0x3eb22104	0.34790814
247	0xbd33921e	-0.04384052
248	0x3ecf78fc	0.4052199
249	0x3e608e92	0.21929386
250	0x3eb05667	0.3444092
251	0x3ee59533	0.44840392
252	0x3ed05981	0.40693286
253	0x3e9e1767	0.3087723
254	0x3ec0371d	0.37542048
255	0x3e14fd20	0.14549685

last.weight f4 [3, 400]
0	0x3f28b75c	0.65904784
1	0x3f36d7cb	0.71423024
2	0x3eb56957	0.3543193
3	0x3d2058a3	0.03914703
4	0x3ebe97e5	0.3722526
5	0x3e514ed8	0.20440233
6	0x3f05980e	0.5218514
7	0x3f1b40c4	0.606457
8	0x3eab400e	0.33447307
9	0x3e82ab62	0.2552138
10	0x3f097aa6	0.5370277
11	0x3dc47f93	0.09594645
12	0xbd3d0968	-0.04615155
13	0x3da5652d	0.080759384
14	0x3e475053	0.19464235
15	0xbdccb7e2	-0.0999601
16	0x3d26cd12	0.040722914
17	0x3d450b2b	0.048106354
18	0x3e794b4a	0.24345127
19	0x3d9f3f2b	0.0777572
20	0x3ee1c6d2	0.44097
21	0x3f8ff38a	1.1246197
22	0x3d89f008	0.067352355
23	0x3e9a2334	0.30104983
24	0x3e5c5fdd	0.21520944
25	0x3ed962eb	0.4245828
26	0x3f39f2a6	0.7263588
27	0x3ae5061d	0.0017473135
28	0x3d1fda8f	0.039026793
29	0x3d531b80	0.051539898
30	0x3f28e758	0.65978
31	0x3f275ffa	0.65380824
32	0x3d17c793	0.037055563
33	0x3e7f3aee	0.24924824
34	0x3e21c2aa	0.15796915
35	0x3f2a0ba0	0.6642399
36	0x3f3dfd8a	0.74214995
37	0x3e84d56f	0.25944087
38	0x3ea0c2b3	0.31398544
39	0x3f2ac515	0.66706973
40	0x3e985d06	0.2975847
41	0x3b1525d5	0.0022758145
42	0x3d8c331d	0.068456866
43	0x3e111e82	0.14171794
44	0x3c970bb7	0.018438203
45	0x3e6a1aa9	0.22861733
46	0x3db97cb6	0.0905699
47	0x3d00f528	0.0314838
48	0x3f9f11c7	1.24273
49	0xbe3bed16	-0.1835216
50	0xbe6d0c0d	-0.23149128
51	0xbebafa72	-0.365192
52	0x3f63ebc5	0.8903163
53	0x3ea61b0b	0.32442507
54	0x3e0e6ea9	0.13909401
55	0x3e84feef	0.2597575
56	0x3e951217	0.29115364
57	0x3cdd6f71	0.027030678
58	0xbe8bb106	-0.27283496
59	0x3d43bcb3	0.04778738
60	0x3e7124b2	0.23549154
61	0x3e241bc6	0.1602622
62	0x3f0cbf1e	0.5497912
63	0xbde9efb9	-0.114226766
64	0x3e313fb2	0.17309454
65	0xbebae062	-0.36499316
66	0x39ba7d36	0.00035569974
67	0x3da50fff	0.08059692
68	0x372d5aea	1.0332771e-05
69	0x3f06656e	0.5249852
70	0x3f434100	0.7627106
71	0x3e0a01fc	0.1347732
72	0x3f869d3c	1.0516734
73	0x3f604ddd	0.8761881
74	0x3f21a28f	0.6313867
75	0x3f0dc610	0.55380344
76	0x3c20c79c	0.009813216
77	0x3db63b86	0.08898072
78	0x3db91523	0.09037235
79	0x3f5efe65	0.87106925
80	0xbe9e2af7	-0.30892155
81	0x3ba7dae6	0.0051225303
82	0x3e27d075	0.16388114
83	0x3cab6bb7	0.020925386
84	0x3f21e9c8	0.63247347
85	0x3dc6aa02	0.09700395
86	0xbd36a1a1	-0.044587735
87	0x3f5346ca	0.8252989
88	0x3f38f986	0.7225574
89	0x3da7778f	0.08177101
90	0x3f1d38d1	0.6141482
91	0xbda3fdd4	-0.08007398
92	0x3dbde444	0.09272054
93	0x3eea5dcc	0.45774686
94	0x3e731b26	0.23740825
95	0x3f27d179	0.65554005
96	0x3ba726de	0.005101069
97	0x3ed73a0e	0.4203648
98	0x3d2d14f8	0.042256325
99	0x3c10bfcf	0.008834793
100	0xbe463c3f	-0.1935892
101	0x3da3c147	0.07995849
102	0x3d9735c7	0.07383304
103	0x3e9fa061	0.31177047
104	0x3f9f8e95	1.2465388
105	0x3c2e7042	0.010646882
106	0x3c158a37	0.009127191
107	0xbe07b5d8	-0.13252962
108	0x3c2796b4	0.0102288015
109	0x3e4b61be	0.19861504
110	0x3d730fd4	0.059341267
111	0x3edc01a4	0.42970002
112	0x3f0bb263	0.5456907
113	0x3db75caf	0.08953225
114	0x3f102e7b	0.56320924
115	0xbd3847bb	-0.044990283
116	0x3edf79fe	0.4364776
117	0xbe2cf591	-0.16890551
118	0x3dbcdb77	0.09221547
119	0x3d134fad	0.035964657
120	0x3ce95ca6	0.028486561
121	0x3bcb290b	0.006199961
122	0x3d953708	0.07285887
123	0xbc5c8972	-0.013460504
124	0x3f6c31c8	0.9226346
125	0x3f059853	0.52185553
126	0x3bd06584	0.006359758
127	0x3f4ef6b1	0.8084517
128	0x3f24b69c	0.6434114
129	0x3c9fe46e	0.019518103
130	0x3f27cc77	0.65546364
131	0xbeaf35de	-0.34220785
132	0x3d427a27	0.047479775
133	0x3cfd03a3	0.030885523
134	0x3f61012f	0.8789243
135	0x3e1450b9	0.14483918
136	0x3f27576b	0.65367764
137	0xbe23ff36	-0.16015324
138	0xbe9db2f9	-0.30800608
139	0x3d2f6417	0.042820062
140	0xbe3a0b08	-0.1816827
141	0x3f2fe678	0.6871104
142	0xbe431a86	-0.19053087
143	0xbd9490d4	-0.07254186
144	0x3d753efe	0.059874527
145	0x3f1d0a93	0.6134426
146	0x3cfbfee1	0.030761184
147	0x3f96a8b9	1.177024
148	0xbe3d68a0	-0.18496943
149	0x3d73c878	0.059517354
150	0xbe0618a7	-0.13095342
151	0x3dd5c876	0.104386255
152	0xbd014f02	-0.03156949
153	0x3f4bcb14	0.7960675
154	0x3d1a6be7	0.03770056
155	0x3cf91655	0.030406157
156	0x3f79dcc7	0.97602504
157	0x3f2f3b2b	0.6844966
158	0xbeabbe79	-0.33543757
159	0x3e5dd1c7	0.21662055
160	0x3f2f5df5	0.6850274
161	0x3f221521	0.6331349
162	0x3e0c71aa	0.13715234
163	0x3e3deb38	0.1854676
164	0x3d11b024	0.03556837
165	0x3e015979	0.12631787
166	0xbe31f938	-0.17380226
167	0x3c7262d8	0.014794074
168	0xbe7450e3	-0.23858981
169	0x3d6e4cff	0.058178898
170	0xbe982adb	-0.29720196
171	0x3f768f95	0.9631284
172	0x3db8f9ba	0.090320066
173	0x3e931556	0.28727216
174	0x3daa3763	0.083113454
175	0xbe85aa44	-0.26106465
176	0x3efc667a	0.49296933
177	0x3f1ebb8e	0.62004936
178	0xbbda0472	-0.006653362
179	0x3df9ca55	0.12196795
180	0xbdd77f5a	-0.10522337
181	0xbe1db553	-0.15401201
182	0x3f0159c5	0.505276
183	0xbea9b16a	-0.3314317
184	0x3cf910ea	0.030403573
185	0x3d948fef	0.07254016
186	0xbd40a410	-0.047031462
187	0x3e801e82	0.25023276
188	0x3f7c6785	0.9859546
189	0x3ecb9e3a	0.39769155
190	0x3d37198c	0.044702098
191	0x3cafc8fe	0.021458145
192	0xbe8bc698	-0.27299953
193	0x3e6fad51	0.23405959
194	0xbddca610	-0.107738614
195	0x3fa36706	1.2765815
196	0x3e838368	0.25686193
197	0x3dd10ebb	0.10207888
198	0xbbb071ce	-0.0053846603
199	0x3f32b572	0.69808114
200	0x3d186feb	0.03721611
201	0x3ec3b4c4	0.3822385
202	0x3e3104a5	0.17286928
203	0x3e84e6a8	0.25957227
204	0x3e0f08aa	0.13968149
205	0x3f04db9e	0.5189761
206	0xbe04a7c5	-0.12954624
207	0x3eb88769	0.3604081
208	0x3da1dbe4	0.07903269
209	0x3deea2c4	0.11652139
210	0x3e9c29e3	0.30500707
211	0xbbb533cb	-0.005529856
212	0x3d3fc36e	0.046817236
213	0xbcbd0080	-0.023071527
214	0x3ce3d66d	0.027812207
215	0x3be8891e	0.007096424
216	0x3e4d672f	0.20058893
217	0x3f799b14	0.97502255
218	0x3f7c0b37	0.9845461
219	0x3f5a3d35	0.85249645
220	0x3d015edf	0.031584617
221	0xbe0688c8	-0.13138115
222	0xbd46c0af	-0.0485236
223	0xbd974a38	-0.07387203
224	0x3f0a9f7c	0.54149604
225	0x3f013f5e	0.50487316
226	0x3f0d3b95	0.5516904
227	0x3d843c71	0.06456841
228	0xbc42e209	-0.011894711
229	0x3d1127b7	0.035438266
230	0x3eb4e9e7	0.35334703
231	0x3f2172e7	0.6306595
232	0x3ae64ea4	0.0017571044
233	0x3e0d7cd5	0.13817151
234	0x3ca267e3	0.019824928
235	0x3ee3bca1	0.4447985
236	0x3f2c446b	0.672919
237	0x3f8bfc07	1.0936288
238	0x3dcdf706	0.100568816
239	0x3e745af9	0.23862828
240	0x3f244e26	0.64181745
241	0x3f49c027	0.78808826
242	0x3e72e8fa	0.23721686
243	0xbe862c00	-0.26205444
244	0x3f8f1678	1.1178732
245	0x3e86ff23	0.2636653
246	0x3d129f64	0.035796538
247	0x3dcb5642	0.09928562
248	0xbdf2de5a	-0.118588164
249	0xbd836ef6	-0.064176485
250	0x3cf9f616	0.03051285
251	0x3e87e8d6	0.26544827
252	0xbe499c74	-0.19688588
253	0x3f07404a	0.5283247
254	0xbd3d1a5b	-0.046167713
255	0x3d06723e	0.032823794

last.bias f4 [3]
0	0x3e86c29b	0.26320347
1	0x3dfbd49f	0.12296414
2	0xbe71979d	-0.23592992
