log/MUJOCO_ARMT_ANT_DIR_12_v2/Ant-v3/1/model/model_pf_task_finish.pth (torch, 27411 bytes, 4 tensors)

base.fc0.weight f4 [400, 12]
00000000: 33b0 203d 3714 0abf 678d 91be d7e1 20be
00000010: 229d e3be 6430 e03e ed3b a93e 93be 8b3e
00000020: c18b 15bf 3695 50bf eab2 3140 13fb a43c
00000030: f18f 7c3e 6a9b 0dbe 3380 7dbe 63d6 75be
00000040: e90a 0640 367c 3d40 bff3 4740 69e7 5040
00000050: d789 e33f 2fca 2bbd fd75 21be b506 883e
00000060: dea9 2d3d db18 36be e9da 73be 9a63 37be
00000070: c2e4 8c3e 5941 4f3f 8cd8 703f 3941 6f3f
00000080: 41b5 da3e 6cc8 16be e88c b9bd a0bf 753c
00000090: e858 933e 8d03 093f fae4 533f a2d7 bb3f
000000a0: 3325 d93e 204e c1be 0f6d bdbe 0be9 bdbe
000000b0: a412 bebe 2759 78bd 34b1 b8be 155e 503e
000000c0: 1fc5 37be 3f89 3abe b750 35be 3c83 3abe
000000d0: f084 893d 4988 5f3e d6ea 973e 8fbc 8d3e
000000e0: 7804 523f b8c9 3dbe e477 34be 85de 98bd
000000f0: 35e2 5e3f be4e 783f 61bd dc3d 98e1 d83d
00000100: 784b 253f 3f90 6ebe 0c14 71be 54cf 68be
00000110: c6e0 06bf 97ff 49bd 996b 9ebe 929f ce3f
00000120: 77dc c03e 2995 033f 7e6d 3b3e 52fe 823e
00000130: 14a1 48be 3706 a8be d042 8fbe caa0 9dbe
00000140: 8843 edbe 3325 1cbd bc52 f0be fdee e73e
00000150: 0480 1c3f f1ab 673f 8db0 16be d271 1bbe
00000160: c16f 1dbe 8d32 15be a4ed 14be 338b 1bbe
00000170: d355 16be 8a01 1dbe 8696 1bbe 4e79 6f3f
00000180: 7c45 b93d 7880 86be c3b5 b23c 7699 17be
00000190: 656f febe 7873 aa3e 87e7 6abc 2e56 af3e
000001a0: fd41 c7be d19a 2bbf cabe 5f40 be6b 883c
000001b0: 9ae4 92bd 9e01 a5bd bae6 8bbd 745c 86bd
000001c0: c8ee 87bd 0e03 78bd b26f 63bd 9e47 8c3c
000001d0: 3103 89bd 804c 8cbd 99c3 4dbd 7b9d 9dbd
000001e0: 32c3 8ebe 1a43 90be ab7b 8ebe 7c52 90be
000001f0: 2a9e 8dbe eeb1 c0bd d6e6 88bd ac6d bb3c
00000200: b769 383f 24fb 8d3f 430d 8fbe 7110 8dbe
00000210: 200a e5bc 5a7d 46bd 40f7 8dbd 2aac 02bd
00000220: 9a23 54bd 443e 6bbd e8d2 8bbd 797c 7cbd
00000230: faeb 7bbd b9b3 13bd f551 41bd 20da 7dbd
00000240: 254c e23c 87cb e4be 2cb1 7fbb e767 50be
00000250: 1802 21bf 040a b73e 7552 c2be 87e1 5b3e
00000260: 5a8e 03bf 270e 21bf 106a f13f 859e cabc
00000270: bb03 a9be 02bb a1bd 721e aabe e654 9abe
00000280: d977 883e 0548 99be 45e4 abbe 2d16 9cbe
00000290: 1462 4a3f e210 1840 af74 aabe 33b7 33bd
000002a0: f59b c63e 8c0d 163f c358 17bd d926 bf3d
000002b0: 2258 303f 626f 44be 4fb6 29be 326a 11be
000002c0: 0990 ccbe 9c32 9bba 8755 c4be 8a2f 923f
000002d0: 5156 90bc 1519 aabc c7df 7cbd 0a6a bebc
000002e0: 47c3 56bc 0f7e 583c 0413 81bc 93e0 7ebd
000002f0: 4ed8 83bd ea3d eebb b5dc 86bd c5cd 87bb
00000300: 4541 5a3e a07c 033f 36e8 1b3f e333 663f
00000310: 869e cc3e dcbc e2be 4467 a7be 71e7 e1be
00000320: 7cbe b5be b29e 373e 9f4a cbbe 7352 433e
00000330: 2d41 c83f 91c2 f13f debd 0b3f 334a a73e
00000340: 49d1 49bd b964 b0be 8c7c ecbe 004d edbe
00000350: 8142 c9be f77f a0bd 57b6 bcbe daee 773f
00000360: 7634 6abe 8ad4 66be aada 6cbe a58e 6bbe
00000370: 9181 923e 4704 69be 1a6c 6abe b257 53bc
00000380: 1459 3a3f 1550 c83f d235 67be 3043 0fbe
00000390: 7565 0fbd 2c88 6bbc f06e 55bd 24d7 59bd
000003a0: cdd3 1bbd 3bc2 32bd a123 3dbd cade 86bd
000003b0: 1342 63bd fc56 46bd 37be 01bd 94f5 98bd
000003c0: b98c a53f 2977 ac3f f0bd 903e e0fb 4e3e
000003d0: 32fc 2d3f 318e 7abe 8bf7 6cbe 0856 31be
000003e0: 68cf d9be 51a5 2b39 0ff5 9abe 94d7 cd3f
000003f0: 102f 09be 0db4 cdbd 53eb acbe 36ed 90be
0.039230537 -0.53937095 -0.28428194 -0.15711151 -0.4445582 0.4378692 0.33053532 0.27293834
-0.5841637 -0.8147768 2.776545 0.020139253 0.24664284 -0.13828817 -0.24755935 -0.24007563
2.094416 2.9607062 3.124252 3.2641242 1.777644 -0.041940864 -0.15767665 0.26567617
0.042398326 -0.17782919 -0.23813976 -0.17909089 0.27518278 0.8095909 0.94080424 0.93458897
0.4271641 -0.14724892 -0.09060079 0.0149993 0.28778768 0.53521043 0.82771266 1.4675181
0.42411193 -0.37754917 -0.36997268 -0.3709186 -0.37123597 -0.060631897 -0.36072695 0.2034839
-0.1794629 -0.18216418 -0.17706572 -0.18214124 0.06714809 0.21829332 0.29671353 0.2768292
0.8203807 -0.18533981 -0.1762386 -0.07464317 0.87063915 0.9699515 0.10778309 0.105899036
0.6456828 -0.23297213 -0.23542804 -0.2273534 -0.5268673 -0.049316015 -0.30941465 1.6142447
0.376682 0.51399475 0.18303487 0.25584656 -0.19592696 -0.32817242 -0.2798066 -0.30786735
-0.46340585 -0.038121413 -0.4693812 0.4529952 0.61132836 0.90496737 -0.14715786 -0.15180138
-0.15374662 -0.14570065 -0.14543778 -0.15189819 -0.14681177 -0.15332618 -0.15194139 0.9354447
0.09046456 -0.2626989 0.021815186 -0.14804634 -0.49694362 0.3329122 -0.014337427 0.34245437
-0.38917533 -0.67033106 3.4960198 0.016652938 -0.071725085 -0.08056949 -0.06831117 -0.06560603
-0.06637341 -0.06054979 -0.055526443 0.017123993 -0.06690062 -0.06850529 -0.050235365 -0.07696053
-0.27883297 -0.28176194 -0.27828726 -0.2818793 -0.27659732 -0.094089374 -0.066846535 0.022879444
0.7203631 1.1092267 -0.27939805 -0.27551606 -0.02795893 -0.04845939 -0.06931925 -0.03190247
-0.051791765 -0.057432428 -0.068273365 -0.061642144 -0.06150434 -0.03606007 -0.0471973 -0.0619756
0.0276242 -0.4468653 -0.0039015515 -0.20352136 -0.6289382 0.3574983 -0.37953535 0.2147275
-0.51389086 -0.6291222 1.8860493 -0.024733791 -0.3301066 -0.07896997 -0.33226353 -0.30142897
0.26653937 -0.2993776 -0.33572593 -0.3048567 0.79055905 2.3760304 -0.33292148 -0.043875884
0.3879086 0.5861442 -0.036949884 0.093335815 0.6888448 -0.19183114 -0.16573451 -0.14200667
-0.3995364 -0.0011840644 -0.38346502 1.1420758 -0.017619284 -0.020763913 -0.06173685 -0.023243923
-0.013108081 0.013213648 -0.015756138 -0.06222589 -0.06437741 -0.0072705643 -0.06585065 -0.0041444027
0.21313961 0.5136204 0.609012 0.8992292 0.39964694 -0.44284713 -0.32695973 -0.44121888
-0.3549689 0.17931631 -0.3970537 0.1907442 1.564489 1.8887502 0.5458659 0.32673797
-0.049271856 -0.34451845 -0.46188772 -0.4634781 -0.3930855 -0.07836907 -0.36857864 0.96848834
-0.22871575 -0.22542015 -0.23130289 -0.23003633 0.28614476 -0.22755538 -0.228928 -0.012899326
0.7279217 1.5649439 -0.22579125 -0.13990474 -0.035008866 -0.014375728 -0.05210775 -0.05318369
-0.038043786 -0.043642264 -0.046176556 -0.065854624 -0.055482935 -0.0484228 -0.031675544 -0.07468715
1.293357 1.3473865 0.2826991 0.2021327 0.67962945 -0.24468304 -0.23141305 -0.17317975
-0.4254105 0.00016369416 -0.3026509 1.6081414 -0.13396859 -0.100441076 -0.33773288 -0.28305978

base.fc0.bias f4 [400]
00000000: 34db 493f 7546 533f 0083 1c3f 2340 a33e
00000010: 1a6f 8f3d 6f17 053f 331a e93e dee4 0c3e
00000020: 9160 3d3f 4110 b4bc 14df 873e 01d3 e03c
00000030: 4d56 103f 936e 863e 613e e93e 7411 66bc
00000040: c2c0 de3e 1c94 e83e 2303 5f3e 540e 623c
00000050: 73f6 013f 91f7 f13e 6a4c 09bd 2645 82bc
00000060: 591a ba3e 38ec 513e b822 823e ef63 7d3e
00000070: 0b9f 16be f14c 5c3e 4958 063f c1ce fc3e
00000080: 46e8 543f 58e9 0f3f f88f 363f aa72 2c3a
00000090: 54b5 0bbe bf56 f33e 3576 4d3e eee4 d63e
000000a0: 0bcb db3e f504 40bd aa9e bc3e d460 863e
000000b0: cd49 8e3e 2f54 173c ce11 843e f1da a13e
000000c0: 5fbe 653e 0801 9f3e 02a1 cd3e b35b e3bc
000000d0: 1e3a ac3e c008 e4bc f130 393f edf9 663e
000000e0: 8999 5f3f 8f08 0cbd 2101 ce3d 317f debb
000000f0: 47d4 2ebc 12ef 353f d70e b83e 3b30 853e
00000100: c2e9 b53e 8755 893e eae1 8c3e 5cec f93e
00000110: 6d4b 0b3f a3c9 9bbd 4543 533e 011a 923e
00000120: 59fc 633e c40d c83c 8f25 dd3e 1532 093e
00000130: afea 3b3e 48d6 963e 7f1f 573f 0cb5 a43e
00000140: 332c a03e c03f 19bc dcf5 773e 218a 903e
00000150: d883 503f d96d 203d 9fd1 59bd 6394 0a3f
00000160: 7ff8 a43e e0d4 d33e 3417 e5bc 9d13 523f
00000170: aae6 9c3e a255 87bd 5d32 e83e 747d 4c3e
00000180: 96d2 6e3e 8dc8 2ebc 31cc b43a 65da af3e
00000190: 1bee f73e ffe0 1f3d 166d 97bc a770 98be
000001a0: efc7 603f 244c cf3d 5199 3a3e 9904 5a3f
000001b0: 21c2 873e 5370 a3bc 7f23 c53e 9401 6b3e
000001c0: 3b5b 333e 50d7 01be dfe9 743e a295 8f3e
000001d0: de52 533e 8d0d 2abd e997 c6bc d89c e53e
000001e0: 095f 873e d47e 323f 85b0 64bd 0c57 243b
000001f0: 4681 de3e ef88 bf3e 2ce4 c73e 7cd8 403e
00000200: bed1 323f cfe9 6e3d dc00 8dbe 9dcc f53e
00000210: 476e cf3b 8fcd 3d3e 516b a43e d7fd 3a3f
00000220: 61b5 703d 8564 3ebe 61dd 063f 0a20 ee3d
00000230: a1f1 2c3f 3689 df3e bcf9 823c d129 a3bd
00000240: ad8e f23e c5a2 833b 6163 64bb 03a7 2b3f
00000250: c6dc 043f 10a4 343f a4ae 413f e590 d53e
00000260: 7dcc 9e3e 9f4d 50be 2241 fa3e e0ee 9a3e
00000270: 1177 1f3e c7c0 1f3d 1336 453f 0fad d7bc
00000280: ec35 473e 8e9f 883e 4ed0 a03c e20f 4d3e
00000290: 926c 353f cb07 40bd 6f78 d13c 0221 6d3e
000002a0: a874 103e 398d 863e bdd0 803e 092a c9bd
000002b0: 7fe3 f33e df20 5d3e 9b05 9d3e e088 963e
000002c0: c201 873e f7c4 303f caf2 b3bd 49aa 123f
000002d0: f977 cc3c f52c d8bd b120 7b3e e5f3 173e
000002e0: a707 d33e e01b c13e 945a bdbd a5fc a2bd
000002f0: 044b 983e 20f5 363f 98d7 743e 5843 6d3d
00000300: 3860 263d ac86 993e 92b0 24bc 9b18 db3d
00000310: 242a bd3e ae52 81bd 04c8 b33e 995c ad3e
00000320: 8c44 803e d71a 123f 2f5c 41bd 687e ab3e
00000330: ae2e 673e 05cb 7e3e 55db 343e e829 95bd
00000340: 3300 243f f370 a43e f86a 7e3e d28f 293f
00000350: 322a c23e 9eeb 643c f1cd 7c3e d320 883e
00000360: 5857 acbc 3ee1 82bd 0e98 793e c9de 133e
00000370: e5e9 423f 234d 823e 337b 43bd c511 333e
00000380: aae8 68bd 4c5d 173f b73e 9a3e b2f0 e63b
00000390: 23b6 063f 2b80 123f 8ccf 23bc 6493 19bd
000003a0: 1bd5 903e 3b12 873e cc6b fbbd ea71 503e
000003b0: ec1b ba3e 59f3 9d3e a30c 5b3f e328 043f
000003c0: 2ebe 1f3f 2191 5a3f c59f 2d3f 88b5 483e
000003d0: 1166 613e 818a 48bd f473 8e3e c4d6 273f
000003e0: 058c 54bd ca10 1b3f a6be 3a3e 58a2 1ebd
000003f0: 0c33 723e acd6 a23e 32e6 ad3e 3fce 5d3e
0.788501 0.82529384 0.6113739 0.3188487 0.07003613 0.5198888 0.455278 0.13759181
0.73975474 -0.021980407 0.26537383 0.027444365 0.56381685 0.26256236 0.45555404 -0.014042247
0.43506438 0.45425498 0.2177854 0.013797361 0.50766677 0.4725919 -0.03352014 -0.015902113
0.36348227 0.20500267 0.25417113 0.24745153 -0.14709108 0.21513726 0.5247846 0.4937649
0.8316692 0.5621543 0.7131343 0.00065783656 -0.1364339 0.4752712 0.20064624 0.41971534
0.42928347 -0.046879727 0.368398 0.2624575 0.2779068 0.0092363795 0.25794834 0.31612352
0.22435902 0.31055474 0.40161902 -0.027753687 0.3363809 -0.027836204 0.72340304 0.22556277
0.8734365 -0.03418785 0.10058809 -0.0067900647 -0.010670728 0.7106792 0.35948822 0.2601336
0.35529906 0.26823065 0.2751611 0.4881314 0.54411966 -0.076068185 0.2063113 0.28535464
0.22264232 0.024420626 0.43192717 0.13398011 0.18351243 0.2946036 0.84032434 0.32169378
0.3128372 -0.009353578 0.24214882 0.28230384 0.8145118 0.03916726 -0.053178426 0.5413267
0.32220837 0.41373348 -0.027965166 0.8206118 0.30644733 -0.0660813 0.45350924 0.19969732
0.2332252 -0.010667932 0.0013793764 0.3434631 0.48423848 0.039032932 -0.018484633 -0.29773447
0.87805074 0.101219445 0.18222548 0.85163265 0.26515296 -0.019951021 0.38503644 0.22949821
0.1751527 -0.12679791 0.2391734 0.28043848 0.2063708 -0.04151683 -0.024242358 0.44846225
0.26439694 0.69724774 -0.055832405 0.0025076298 0.43458003 0.3740916 0.3904127 0.18832582
0.6985129 0.058328446 -0.27539718 0.4800767 0.0063302848 0.18535446 0.32113126 0.7304358
0.058766726 -0.18593033 0.5268155 0.11627205 0.67556196 0.4365937 0.015988223 -0.0796696
0.47374478 0.0040172064 -0.0034849274 0.67051715 0.51899374 0.7056284 0.75657105 0.41712108
0.31015387 -0.2034211 0.48877817 0.30260372 0.15572764 0.039002206 0.77035636 -0.026327638
0.19454163 0.2668423 0.019630577 0.2002559 0.7086879 -0.046882432 0.025570123 0.23157123
0.14107001 0.2627962 0.25159255 -0.09822471 0.47634503 0.2159457 0.3066834 0.29401302
0.2636853 0.69050545 -0.08786543 0.57291085 0.024959551 -0.1055545 0.2452419 0.14839132
0.41216776 0.3771658 -0.09245792 -0.07958344 0.29744732 0.7146778 0.23910367 0.057925552
0.040619105 0.2998556 -0.010051863 0.106980525 0.36946213 -0.06314598 0.35113537 0.3385971
0.25052297 0.57072204 -0.047207054 0.33494878 0.225764 0.24882133 0.17661794 -0.072833836
0.64062804 0.32117423 0.24845493 0.6623508 0.37922817 0.013972191 0.24687935 0.26587543
-0.021037742 -0.06390618 0.2437441 0.14440455 0.76138145 0.25449476 -0.047724914 0.17487247
-0.05686251 0.59126735 0.30125973 0.007047736 0.5262167 0.5722682 -0.0099982135 -0.03749408
0.28287587 0.26381096 -0.1227642 0.20355955 0.36349428 0.30849722 0.8556616 0.5162489
0.62399566 0.853777 0.67821914 0.19600499 0.22011591 -0.048960213 0.2782284 0.6556208
-0.051891346 0.60572493 0.18236789 -0.03872904 0.23652285 0.31804407 0.33964688 0.21660708

last.weight f4 [3, 400]
00000000: 5cc3 35be c5f9 97bf d5ef 06bf 5ef7 edbe
00000010: a65b 9abe 5e3d 39bf 50e3 0cbf d9f3 0cbf
00000020: 921d 13be 7978 52bc 456a a5be 8037 143b
00000030: a0a1 0ebe 927e bbbe 93a7 25bf a2e0 56bd
00000040: 8e8d 11bf 4ec7 36bf 34f0 c3be 84b0 94bb
00000050: 35f2 45bf c5ae 75be 5eef f5bc 0489 32bd
00000060: f4ec 03bf c14b c9be ecb7 d5be 2593 ebbe
00000070: 7f31 2fbe ab89 d9be 4bfb 77bf 2694 10bf
00000080: cdb7 70bf 4031 32bf ea3f 8ebf ea7c 86bc
00000090: 70b5 51bd 1f3a 41bf daeb bfbe 1f76 38bf
000000a0: 651e 15bf 1f11 96be b30b 0dbf 62c0 f1be
000000b0: 80ec fbbe 2af9 a9bc f0a4 d2be e1ba d1be
000000c0: dc6d b7be 5df7 e5be cca7 fabe 640f 22bd
000000d0: 6766 b5be e9a4 27bd 5d5a 32bf d755 ccbe
000000e0: 9c0f 7dbf 8743 eebb 406e 04bd 1eff 5abe
000000f0: e14f 86bc e814 28be 899f 32bf 5728 b2be
00000100: 1287 02bf 85c9 c0be fd3a c9be ad64 25bf
00000110: 13ec cabe f263 28bd 7d8f cfbe 325c b6be
00000120: d2a6 cfbe a329 6cbb 0a92 08bf 6c84 d1be
00000130: 0754 e3be 0b28 c2be a654 66bf 3252 a8be
00000140: 1932 fabe c376 91bb b129 c4be 66a9 c9be
00000150: 5541 9bbf c302 1abd 47e4 97bd c418 37bf
00000160: 33ea efbe a465 25bf 0601 27bd f5df 91bf
00000170: 705f f6be 0a06 1f3b a7e8 40bf 39d0 a6be
00000180: 19db bebe 4d26 9dbc 1b48 d6bb fcbe c5be
00000190: b5bb fbbd b6c9 ccbd 1acc d2bc e552 4abe
000001a0: cccf 7ebf 5898 03bf 799c 55be f8ee 88bf
000001b0: df6b 01bf 8b90 27bc bd65 febe 3654 3fbe
000001c0: 04d4 d8be e89c d7bd 62cb d8be 50df 0cbf
000001d0: 73b6 d2be 3ae7 babb a594 223d 8562 12bf
000001e0: a508 fcbe 9547 33bf 3b92 1bbd 567f 1c3c
000001f0: d24f 0fbf 3d5e 14bf 5a51 16bf 32e0 debe
00000200: 6f51 3bbf a582 46bd 4a61 6abe 1ca7 32be
00000210: 8e50 9c3c 850a b3be 632f 57bd 0774 26be
00000220: 9910 16be a402 54be 08de 30be a05f babe
00000230: 7566 4ebe 7051 1fbf 1000 18bb 5388 dcbc
00000240: bb2f 46bf 50a9 11bd 398c b2bd 4d91 41bf
00000250: f093 98bd 64dd 27bf bef5 5abf 7d98 0cbf
00000260: 5132 c9be 01b4 fabd e4cc 27bf 1770 f0be
00000270: df9a d4be 02be 8cbb 5013 73bf 42e7 cebc
00000280: 5b6b d7be a44d c3be 2fb9 37bb f982 dbbe
00000290: 7818 54bf 13da 69bd 8989 723c 6b30 b2be
000002a0: 5820 d6be bf70 f6be 4d6e eebe 7ecc bcbe
000002b0: c00d 25bf da93 c4be 0553 eebe f0fc bfbe
000002c0: 3c3b d0be 606a 12be 5019 16bc e13e d5be
000002d0: 63b4 60be 889f 26bc 3fe7 a6be 2b6b b4be
000002e0: 8735 30bf 149f c5be 8f9b 5bbe e5d5 48bd
000002f0: e8a8 d3be 1467 10be 7ebb aebe 4a27 06bf
00000300: 7719 cfbe 94fe 0cbf f58f d2bc 1581 18bf
00000310: 05f3 3bbf ca44 59be f441 39bf c9b6 03bf
00000320: 4aa5 e3be 2400 39bf 84f9 4cbc aa23 09bf
00000330: a886 eebe 3978 e2be be29 a3be 1592 35be
00000340: 5332 09bf b4e7 0fbf 2636 d0be f9a2 80bf
00000350: 4d3d f9be dfe5 4bbd ae58 c5be d950 c7be
00000360: f7f6 47bd 975c f7b9 2334 c6be 0a57 ecbe
00000370: f144 43bf bb32 acbe 25cf 27be e39d cbbe
00000380: 2a62 62bc 4fd5 b6bd 073e 06bf 8ed8 99bb
00000390: 8ca0 3bbe 2c09 febd 8290 c6ba f76e 8bbc
000003a0: 4893 0fbf 4b2b dfbe d1bf 5dbc acc9 c8be
000003b0: b4c0 0bbf adce febe 671e 98bf 7d63 fdbe
000003c0: 9215 20be 259a 92bf 256c 2ebf 68d1 cabe
000003d0: 9056 d1be 82c2 dfbc 7987 fbbe c615 33bf
000003e0: 708e b7be 0117 38bf 2d00 f6be 107e 16bd
000003f0: 9385 aebe 2a76 dabe db5d ccbe 9606 cbbe
-0.17750305 -1.1873099 -0.52709705 -0.4647779 -0.30148047 -0.72359264 -0.5503435 -0.5505958
-0.14366749 -0.012846106 -0.3230764 0.0022616088 -0.13928843 -0.36620003 -0.6470882 -0.05246032
-0.5685662 -0.71397865 -0.38269198 -0.004537644 -0.77322704 -0.2399245 -0.030021366 -0.0435877
-0.51533437 -0.39315608 -0.41741884 -0.460107 -0.17108725 -0.42487845 -0.9686782 -0.56476057
-0.9403046 -0.696064 -1.1113255 -0.016416986 -0.051198423 -0.7547931 -0.37484628 -0.7205524
-0.58249503 -0.29309937 -0.55095977 -0.4721709 -0.49203873 -0.020748693 -0.41141462 -0.4096289
-0.35826004 -0.44915286 -0.48956144 -0.03956546 -0.3542969 -0.040928755 -0.69669133 -0.3990924
-0.98851943 -0.0072712335 -0.032331705 -0.21386382 -0.016395511 -0.16414225 -0.6977468 -0.34796402
-0.5098735 -0.37653747 -0.39302817 -0.64606744 -0.39633235 -0.04111094 -0.4053916 -0.35617214
-0.4055696 -0.003603556 -0.5334784 -0.40921342 -0.44400045 -0.37921175 -0.89972913 -0.3287521
-0.48866346 -0.0044392063 -0.38313058 -0.39387053 -1.2129313 -0.03760029 -0.07416587 -0.71522164
-0.46858367 -0.64608216 -0.04077246 -1.1396471 -0.48119688 0.0024265074 -0.75355 -0.32580736
-0.37276533 -0.019183302 -0.0065393574 -0.38622272 -0.12291662 -0.09999411 -0.025732089 -0.19758184
-0.9953582 -0.51404333 -0.20860471 -1.0697927 -0.50555223 -0.010227333 -0.49686995 -0.18684468
-0.42349255 -0.10527974 -0.4234267 -0.5502825 -0.41154823 -0.005703834 0.03969254 -0.5718158
-0.49225345 -0.700311 -0.037981253 0.009551844 -0.5598117 -0.57956296 -0.5871788 -0.43530422
-0.7317113 -0.048464436 -0.22888675 -0.1744656 0.01908138 -0.34968963 -0.052535426 -0.16255198
-0.14654769 -0.20704132 -0.17272198 -0.3640108 -0.20156272 -0.6223364 -0.0023193397 -0.026920473
-0.7741658 -0.03556186 -0.087181516 -0.75612336 -0.07450092 -0.6557219 -0.8553122 -0.5492018
-0.392962 -0.12241364 -0.65547013 -0.46960518 -0.41524407 -0.0042951116 -0.94951344 -0.025256757
-0.42074093 -0.38145173 -0.0028033962 -0.42873362 -0.82849836 -0.057092737 0.014803299 -0.34802565
-0.4182155 -0.48132893 -0.46568528 -0.36874765 -0.64474106 -0.38394052 -0.46547714 -0.37497663
-0.40670192 -0.14298391 -0.009161308 -0.41649535 -0.21943812 -0.010169871 -0.32598302 -0.35238013
-0.68831676 -0.3859793 -0.2144606 -0.04903211 -0.41339803 -0.14101821 -0.3412742 -0.524037
-0.40449116 -0.55075955 -0.02570341 -0.59571964 -0.73417693 -0.21217647 -0.7236626 -0.51450783
-0.44462043 -0.7226584 -0.012510661 -0.53570044 -0.4658711 -0.44232348 -0.31867784 -0.17731507
-0.53592414 -0.56212926 -0.40666312 -1.0049735 -0.4867958 -0.04977977 -0.3854422 -0.3892887
-0.04881951 -0.00047180496 -0.38711652 -0.46160156 -0.7627707 -0.33632454 -0.16387613 -0.39768896
-0.013817349 -0.08927404 -0.52438396 -0.004695005 -0.18322963 -0.12404093 -0.0015149268 -0.017020686
-0.5608411 -0.43587717 -0.013534502 -0.39216363 -0.54590917 -0.49767056 -1.1884278 -0.49489966
-0.15633228 -1.1453291 -0.68133765 -0.3961289 -0.40886354 -0.027314428 -0.49126795 -0.699551
-0.3585086 -0.719101 -0.4804701 -0.036741316 -0.34086284 -0.42668277 -0.39915356 -0.39653462

last.bias f4 [3]
00000000: 7afc 3dbf 039c 213d 527d ab3e
-0.74213374 0.039455425 0.3349405
