log/MUJOCO_ARMT_ANT_DIR_12_v2/Ant-v3/1/model/model_pf_state_finish.pth (torch, 848933 bytes, 6 tensors)

base.fc0.weight f4 [400, 111]
0	0xbe51bf36	-0.20483097
1	0xbd7d3059	-0.061813686
2	0xbfa49def	-1.2860698
3	0xbfe6a612	-1.8019431
4	0x3fb26c45	1.3939291
5	0x3e79442d	0.24342413
6	0xbd49ec0f	-0.04929739
7	0xbf2b5709	-0.6692968
8	0x3e44b99f	0.19211434
9	0x3e5a2f4f	0.2130711
10	0x3f3da94c	0.7408645
11	0xbde472a0	-0.111546755
12	0xbeb7e8ed	-0.35919896
13	0xbe5eab7f	-0.21745108
14	0xbebbfb67	-0.36715242
15	0x3d3b8659	0.04578242
16	0xbede6cc9	-0.4344237
17	0xbb29df83	-0.0025920577
18	0x3dfa6123	0.122255586
19	0x3dae87c7	0.08521991
20	0x3dcce8ca	0.100053385
21	0x3d2578a5	0.04039826
22	0x3cbd1c0f	0.023084668
23	0x3ce3bff1	0.027801486
24	0xbc97b2ca	-0.01851787
25	0xbcc15eac	-0.023604713
26	0xbd85b3cc	-0.06528434
27	0xbccdf2e3	-0.025140231
28	0x3d145a5f	0.036218997
29	0xbc06ccf3	-0.008227575
30	0xbd2c49c3	-0.042062532
31	0x3cd17d1a	0.025572348
32	0xbccdf48d	-0.025141025
33	0xbc9d53b7	-0.019204957
34	0xbcb94500	-0.02261591
35	0x3d1492e2	0.03627289
36	0xbd3abc03	-0.04558946
37	0xbd13c305	-0.036074657
38	0xbb30cf33	-0.002697897
39	0xbd2771c8	-0.040879995
40	0x3cecbccd	0.028898621
41	0xbd0eb793	-0.03484304
42	0xbd4ab215	-0.04948624
43	0xbbceab67	-0.006307054
44	0xbd0b4c8b	-0.034008544
45	0x3c10fc07	0.0088491505
46	0xbc83095d	-0.015995676
47	0x3d285798	0.04109916
48	0xbcf51c5d	-0.029920751
49	0xbc7aa2d3	-0.015297609
50	0xbcd42a33	-0.025899028
51	0x3a9b5fcd	0.0011854112
52	0x3d03c208	0.032167464
53	0xbd40465d	-0.046942104
54	0xbc81b490	-0.01583317
55	0x3c7724a0	0.015084416
56	0xbd234408	-0.0398598
57	0xbd009e7d	-0.031401146
58	0xbb9c73b3	-0.0047745346
59	0x3c159aa7	0.00913111
60	0xbc03393a	-0.008009249
61	0x3ca6ac90	0.020345956
62	0x3cd75183	0.026283985
63	0xbd466722	-0.0484382
64	0xbcadf537	-0.021235092
65	0x3cf6f657	0.03014676
66	0xbcd93cad	-0.02651819
67	0x3d41c875	0.04731031
68	0xbd139a65	-0.036035914
69	0xbcbaa6ca	-0.02278461
70	0xbd19fc93	-0.03759439
71	0xbd2326cb	-0.039831918
72	0x3d023e63	0.031797778
73	0xbd22909a	-0.039688684
74	0x3bcb02f3	0.00619542
75	0xbba6614d	-0.005077517
76	0x3b6b56b3	0.003590983
77	0xbcb56dbd	-0.022147054
78	0x3d29abfb	0.04142378
79	0xbc64f627	-0.013974703
80	0xbd009d3d	-0.031399954
81	0x3cc0ee17	0.02355103
82	0xbd3d747a	-0.04625366
83	0x3c755080	0.014972806
84	0xbd4ca873	-0.049965333
85	0xbc83f993	-0.016110217
86	0xbd06883b	-0.032844763
87	0xbd02142a	-0.03175751
88	0x3cecc927	0.02890451
89	0x3d1e40bb	0.03863595
90	0xbcb8e867	-0.022571756
91	0x3c195f8d	0.00936116
92	0xbc588993	-0.013216394
93	0x3d48c2fd	0.04901408
94	0x3c1e3ada	0.009657586
95	0xbd3d6140	-0.046235323
96	0xbd0c8d7a	-0.03431461
97	0xbcad0add	-0.021123344
98	0xbd043d10	-0.032284796
99	0x3cc4ea7d	0.024037594
100	0x3d15f97d	0.036614884
101	0xbd38ac68	-0.045086294
102	0xbd42be2d	-0.047544647
103	0x3d3b84f7	0.045781102
104	0x3c0fe0d3	0.00878163
105	0xbd2fb89f	-0.042900678
106	0xbc1393ba	-0.009007389
107	0xbb51ebcd	-0.0032031417
108	0x3bde440d	0.0067830146
109	0x3c8ccd7d	0.017187828
110	0x3d4ac097	0.049500074
111	0xbcd45dc6	-0.02592362
112	0xbf809824	-1.004643
113	0xbf8a8cdc	-1.0824237
114	0xc00d4a84	-2.207673
115	0xbfe42a63	-1.7825435
116	0xbd9eba5a	-0.077503875
117	0xbe98b70a	-0.29827148
118	0x3e2140a6	0.15747318
119	0x3ee965a9	0.45585373
120	0xbfd02efa	-1.6264336
121	0x3e3cfa0a	0.18454757
122	0x3d1710e1	0.03688133
123	0xbea0de5d	-0.3141965
124	0xbb93009d	-0.004486157
125	0xbe1dd771	-0.15414216
126	0xbdd980b8	-0.10620254
127	0xbc40e614	-0.011773605
128	0xbdc30bfe	-0.09523772
129	0x3d870e00	0.06594467
130	0xbc9e3852	-0.019313965
131	0x3ad5320e	0.0016265528
132	0x3d42469a	0.047430612
133	0x3cacd24a	0.021096367
134	0x3d74be1a	0.059751607
135	0xbd2096f6	-0.039206468
136	0x3a528b94	0.0008031663
137	0xbc5ad307	-0.013355977
138	0x3c0800fa	0.008301014
139	0x3c880ad3	0.016606724
140	0x3b992e5a	0.004674715
141	0xbcff4167	-0.031159116
142	0xbc90d1d0	-0.017678171
143	0x3d398f55	0.045302708
144	0xbb6b999a	-0.0035949708
145	0x3cc8c287	0.02450682
146	0xbccc5ae0	-0.024945676
147	0x3d07de0b	0.03317074
148	0x3d2ff512	0.042958327
149	0xbc8ac6ea	-0.016940553
150	0xbc1cb6b3	-0.009565043
151	0xbd0529b0	-0.03251046
152	0x3d200843	0.03907038
153	0x3c429480	0.0118762255
154	0x3c48da3a	0.0122590605
155	0xbcd1e683	-0.025622612
156	0xbc400880	-0.011720777
157	0xba9dabcd	-0.001202935
158	0x3cae2130	0.02125606
159	0x3b3a2780	0.0028404891
160	0x3d22fbf8	0.039791077
161	0xbc87ffd3	-0.016601479
162	0xbd2f2dcb	-0.04276828
163	0x3d2799a3	0.040918004
164	0xbd319652	-0.043356247
165	0xbcf2b353	-0.029626524
166	0x3ca9e923	0.020741051
167	0xbcc8e2c7	-0.024522198
168	0xbd27afa8	-0.040939003
169	0xbc5d83ba	-0.013520176
170	0x3b3d0800	0.002884388
171	0xbd48c0ff	-0.04901218
172	0xbc9a1c4d	-0.018812323
173	0x3d05db9b	0.032680135
174	0x3cdf8dfd	0.027289385
175	0x3d1e2853	0.038612675
176	0x3c9419d3	0.01807872
177	0x3ce40e8a	0.027838964
178	0x3c862c77	0.016378624
179	0x3bb0bc73	0.0053935586
180	0xbc689807	-0.014196402
181	0xbccd8023	-0.025085514
182	0xbb87685a	-0.0041323127
183	0xbaa01ccd	-0.0012215615
184	0xbd2edda8	-0.042691857
185	0x3bd84f0d	0.0066012205
186	0x3cc159ed	0.02360245
187	0x3c8cd2ea	0.017190415
188	0x3cb54f67	0.022132589
189	0xbd399135	-0.045304496
190	0xbbc189da	-0.0059063258
191	0xbd364a0d	-0.044504214
192	0xbd0ed758	-0.034873337
193	0xbcec82c3	-0.028870946
194	0x3d22f11d	0.039780725
195	0xbd016428	-0.031589657
196	0x3cb56627	0.022143437
197	0x3d0c580f	0.034263667
198	0xbca91f57	-0.020644827
199	0xbba22400	-0.004948139
200	0xbb499980	-0.003076166
201	0x3cb82317	0.02247767
202	0xbcb44853	-0.022007143
203	0x3c9a104a	0.018806595
204	0x3c86f3b7	0.016473634
205	0x3d126f92	0.035750933
206	0x3be39ccd	0.0069461823
207	0xbd020593	-0.031743597
208	0xbbd66780	-0.0065431
209	0xbcdc4c33	-0.026891803
210	0xbb8493cd	-0.0040459395
211	0x3c4db76d	0.012555939
212	0xbd412cf5	-0.047162015
213	0x3cf6001d	0.03002935
214	0xbd340bb5	-0.043956477
215	0x3c814a1a	0.015782405
216	0xbc2de6d3	-0.010614115
217	0xbd03a7d2	-0.032142468
218	0x3cb2dc13	0.021833455
219	0x3c5da6f3	0.013528573
220	0x3d471062	0.04859961
221	0xbb2953b3	-0.0025837242
222	0x402021c6	2.5020614
223	0xbd0fa85a	-0.035072662
224	0x3df28866	0.11842422
225	0x3eaa4d56	0.33262128
226	0x3df7f0bd	0.12106464
227	0xbeda10d9	-0.4259098
228	0xbcaaffcb	-0.020873925
229	0xbe949f7c	-0.29027927
230	0x3e3a008d	0.18164273
231	0x3ea0d9f7	0.31416294
232	0x3e9ff7a2	0.31243616
233	0xbd804447	-0.06263023
234	0xbeb15071	-0.34631684
235	0x3ebe0de0	0.3711996
236	0x3d82f992	0.06395258
237	0x3e8f2551	0.27958158
238	0x3c8bad57	0.017050428
239	0xbe04e7f2	-0.12979105
240	0xbd61c326	-0.05511775
241	0xbd012020	-0.031524777
242	0x3b3b6c79	0.002859859
243	0xbd005083	-0.031326782
244	0x3c8eec20	0.017446578
245	0x3bfcd60c	0.007715946
246	0x3cdcb7ca	0.026943106
247	0xbb667d7b	-0.0035170007
248	0x3c9296e1	0.01789421
249	0x3d041942	0.03225065
250	0xbc702133	-0.014656353
251	0xbd2b59b3	-0.04183359
252	0xbd0b91e5	-0.034074683
253	0xbd30c040	-0.043152094
254	0x3c8cb61d	0.017176682
255	0x3b7f20e7	0.0038929523

base.fc0.bias f4 [400]
0	0xbf40d663	-0.7532713
1	0xbe06451e	-0.13112304
2	0xbf5e161d	-0.8675249
3	0xbf4d60c9	-0.8022581
4	0xbfbba174	-1.4658647
5	0x3e9ae9ea	0.30256587
6	0xbfa1dde2	-1.2645838
7	0xbee58850	-0.4483056
8	0xbc2889aa	-0.010286728
9	0x3e9e0365	0.30861965
10	0x3dd4e704	0.10395625
11	0x3d8dbe9b	0.06921121
12	0xbc6f2f83	-0.01459873
13	0xbf2b8cc9	-0.67011696
14	0xbedd2946	-0.43195552
15	0xbeb28139	-0.34864214
16	0x3e1f3af4	0.15549833
17	0xbf9069a9	-1.1282245
18	0xbf892f71	-1.0717603
19	0xbe846632	-0.2585922
20	0xbf850af9	-1.0393974
21	0x3f5fe42a	0.87457526
22	0xbe1b4127	-0.15161572
23	0xbf9a1798	-1.203845
24	0xbf142b9f	-0.5787906
25	0x3c62b2a7	0.013836539
26	0x3ea4dea3	0.32201108
27	0x3f47bc37	0.7802157
28	0x3f154f40	0.5832405
29	0xbfc85864	-1.5651975
30	0xbee3e85b	-0.4451321
31	0xbea95d63	-0.3307906
32	0xbfa8fa9f	-1.3201483
33	0xbf095ae5	-0.5365432
34	0x3e783ffa	0.24243155
35	0x3e1b8d22	0.15190557
36	0x3f8ca025	1.0986372
37	0xbf5c05ea	-0.85946524
38	0xbf86b373	-1.0523514
39	0xbf7730be	-0.9655875
40	0xbe0d3b72	-0.13792208
41	0xbc92db36	-0.017926794
42	0xbf8bd480	-1.0924225
43	0x3ed4b3c8	0.41543412
44	0xbf0f1a78	-0.55899763
45	0xbf229fcc	-0.6352508
46	0xbf2949b5	-0.66128093
47	0x3e3544fe	0.177021
48	0xbf332dd1	-0.69991785
49	0xbf5617b9	-0.8362995
50	0xbf986960	-1.1907158
51	0xbe53a32b	-0.20667712
52	0x3de3efc6	0.111297175
53	0xbeeb0a4c	-0.45906293
54	0xbf797a47	-0.97452205
55	0xbee99a32	-0.45625454
56	0xbe990881	-0.298893
57	0xbe4d9826	-0.20077571
58	0xbf81f0ef	-1.0151652
59	0xbfa0c2d8	-1.2559462
60	0xbf85c1bb	-1.0449747
61	0x3e8db99d	0.27680674
62	0xbf248c38	-0.64276457
63	0xbf81958d	-1.0123764
64	0xbf606e64	-0.8766844
65	0xbf7f0c6d	-0.99628335
66	0xbe8f9148	-0.28040528
67	0xbef82f91	-0.4847379
68	0x3fa961ba	1.3232949
69	0xbfc3526c	-1.5259528
70	0x3e83f388	0.25771737
71	0x3d459c52	0.04824478
72	0xbeffe627	-0.4998028
73	0x3f50327f	0.8132705
74	0xbf504663	-0.813574
75	0xbf0b8b1c	-0.5450914
76	0xbf94d502	-1.1627505
77	0xbf8a108c	-1.07863
78	0xbf4bf805	-0.7967532
79	0xbfa3cd19	-1.2796966
80	0x3f33395a	0.70009387
81	0x3f50a5d3	0.8150303
82	0x3f03bd64	0.5146086
83	0xbef30562	-0.47465044
84	0x3d7d0bf6	0.061778985
85	0xbf433b2f	-0.7626218
86	0xbf83c1bb	-1.0293497
87	0xbefe8111	-0.49707845
88	0xbeb5bcfb	-0.35495743
89	0x3e2e13da	0.1699976
90	0x3e46f595	0.1942962
91	0xbf5687c9	-0.8380094
92	0xbc8e3ae0	-0.017362058
93	0xbf648535	-0.8926576
94	0xbee499bb	-0.44648537
95	0xbec9e781	-0.39434436
96	0xbf34180e	-0.70349205
97	0xbd03557e	-0.032063954
98	0xbeeda3a8	-0.46413922
99	0xbf637516	-0.88850534
100	0xbf7d9bb8	-0.9906573
101	0x3eb63d59	0.3559368
102	0xbf4e5f2c	-0.8061397
103	0xbfabfa85	-1.3435827
104	0x3f05a463	0.5220396
105	0xbf87d6b2	-1.0612395
106	0x3e819648	0.25309968
107	0xbec64f7b	-0.38732514
108	0x3dc0f5f2	0.0942191
109	0xbf642a5f	-0.89127153
110	0xbedfa05d	-0.43677035
111	0x3ecf78e3	0.40521917
112	0x3ef9dd55	0.48801675
113	0xbf93ea01	-1.1555787
114	0xbf1b3d85	-0.60640746
115	0x3e2c844b	0.16847341
116	0xbe2c09d0	-0.16800618
117	0xbf7b39a1	-0.9813481
118	0xbf2503e8	-0.64459085
119	0x3ee1b381	0.44082263
120	0x3cf433c5	0.029809842
121	0xbf0cafa9	-0.54955536
122	0xbf81e14f	-1.0146884
123	0xbf99a544	-1.200356
124	0xbfbe0344	-1.4844747
125	0xbf79be81	-0.9755631
126	0xbe3003c0	-0.1718893
127	0xbf8532b9	-1.0406104
128	0xbf668635	-0.90048534
129	0x3f04aacb	0.5182311
130	0xbf8bafcd	-1.0913025
131	0x3ec7054f	0.38871238
132	0xbf3f76fe	-0.7479094
133	0xbf8dbd2f	-1.1073359
134	0x3dc4e523	0.09614017
135	0x3e3885f4	0.18019849
136	0xbf1364a0	-0.57575417
137	0xbdf49928	-0.11943275
138	0xbf3c7507	-0.7361607
139	0x3e823bba	0.25436193
140	0xbf48bf8e	-0.7841729
141	0xbea4f9a0	-0.322217
142	0xbf693e17	-0.91110367
143	0xbfbc4d05	-1.4711004
144	0xbf4c6572	-0.79842293
145	0xbda5e565	-0.08100394
146	0x3d081214	0.033220366
147	0xbf1ce978	-0.61293745
148	0x3f30ccd7	0.6906256
149	0xbf0a8237	-0.5410494
150	0xbeae89a6	-0.34089392
151	0x3c47582a	0.012167016
152	0x3f0777b4	0.5291703
153	0xbf52dbe9	-0.82366806
154	0xbf0d37ca	-0.5516325
155	0xbe303ab8	-0.172099
156	0x3eb5f81b	0.35540852
157	0x3d67e45e	0.056614272
158	0x3f84ac9a	1.0365174
159	0xbea015e5	-0.31266704
160	0xbe69905c	-0.22808975
161	0x3e366446	0.17811689
162	0xbf569d89	-0.8383413
163	0xbf3397a8	-0.70153284
164	0xbea3ff1a	-0.32030565
165	0x3dff5c34	0.12468758
166	0xbfc2fdf2	-1.5233748
167	0xbecd4f72	-0.40099674
168	0xbc9adf4b	-0.018905303
169	0xbf6b7fca	-0.91991866
170	0x3f4380a4	0.76368165
171	0xbf3b371d	-0.7313097
172	0x3dba27a3	0.09089591
173	0xbf57c1d9	-0.84280163
174	0x3eae8184	0.34083188
175	0xbe62cc3f	-0.22148226
176	0x3e8b5971	0.27216676
177	0xbf8b80b3	-1.0898651
178	0x3e9981f8	0.2998197
179	0x3dac23bf	0.084052555
180	0x3f48e25d	0.784704
181	0xbd3a9495	-0.045551855
182	0x3e860d24	0.261819
183	0x3ed53b23	0.4164668
184	0x3f584323	0.8447744
185	0xbe9ccf1a	-0.30626756
186	0xbf1c73bf	-0.61114115
187	0xbed53bf4	-0.41647303
188	0xbf995242	-1.1978228
189	0xbed0497a	-0.40681058
190	0xbe69c2ad	-0.22828169
191	0xbf21663e	-0.63046634
192	0xbf4ee0bc	-0.8081167
193	0x3d1a4ec4	0.037672773
194	0xbf9bdee0	-1.2177391
195	0xbe9a30b2	-0.30115277
196	0xbed0cc12	-0.40780693
197	0xbfaf7bf6	-1.3709705
198	0xbf865e43	-1.0497516
199	0xbe36edc4	-0.17864138
200	0xbf21b4c9	-0.6316648
201	0xbe13bb1c	-0.14426845
202	0xbfbff92f	-1.499792
203	0xbe8c541c	-0.2740792
204	0x3e9521d7	0.2912738
205	0x3ec1fcb0	0.37888098
206	0xbbdc0809	-0.006714825
207	0x3f936ab8	1.1516943
208	0xbe4d56c6	-0.20052633
209	0xbf15bf57	-0.58495086
210	0x3ef9c979	0.48786524
211	0x3eaffe96	0.3437392
212	0xbf3c7db8	-0.7362933
213	0xbf54ada8	-0.8307748
214	0xbecc7f59	-0.3994091
215	0xbe8b01e3	-0.27149877
216	0xbf5e894c	-0.8692825
217	0xbf1ad024	-0.6047385
218	0xbe870d11	-0.26377156
219	0xbe958a82	-0.29207236
220	0xbf0df6e7	-0.5545487
221	0xbec3c453	-0.3823572
222	0x3dd11061	0.10208202
223	0xbf295fd1	-0.6616183
224	0xbe06d436	-0.1316689
225	0xbf38abea	-0.7213732
226	0x3f813d15	1.0096766
227	0xbf8c49a3	-1.0959972
228	0xbe7249c2	-0.23660949
229	0xbf373012	-0.71557724
230	0xbef63edd	-0.48094836
231	0xbf63d080	-0.8899002
232	0x3e9c5009	0.30529812
233	0x3e962e62	0.29332262
234	0xbef3ff9d	-0.47655955
235	0xbe404748	-0.18777192
236	0xbf9cb7e2	-1.2243617
237	0x3e192921	0.14957096
238	0xbf1a4639	-0.602634
239	0xbf1f8698	-0.6231475
240	0xbf2d2294	-0.6763089
241	0xbf2be881	-0.6715165
242	0x3ed5c71a	0.41753465
243	0xbf60fbbf	-0.87884134
244	0xbf7832f7	-0.96952766
245	0xbeb534d5	-0.3539187
246	0xbfaf528e	-1.3697069
247	0xbfa872a7	-1.3159989
248	0xbfb36407	-1.4014901
249	0xbe74a635	-0.23891528
250	0xbefff0e2	-0.49988467
251	0x3f22a1a9	0.63527924
252	0xbfa03565	-1.2516295
253	0xbf04ca9d	-0.51871663
254	0xbf282e6c	-0.65695834
255	0x3eb553d4	0.35415518

base.fc1.weight f4 [400, 400]
0	0x3d034263	0.032045733
1	0x3cd5bcda	0.026091028
2	0xbceca6e0	-0.028888166
3	0xbd24bbae	-0.040218048
4	0xbd3f5e69	-0.046720896
5	0xbcab9d12	-0.02094892
6	0x3d06972a	0.032859005
7	0x39bd9d2f	0.00036166
8	0x393bf4a8	0.00017924851
9	0xbd2630a4	-0.04057373
10	0x3c3f25ce	0.011666728
11	0xbccf900f	-0.025337247
12	0xbcf57175	-0.029961327
13	0x3ca8db08	0.020612255
14	0x3cedb6fa	0.029017914
15	0xbc821635	-0.01587973
16	0xbd9049f2	-0.07045354
17	0x3c6ba645	0.014382903
18	0xbd09e93d	-0.0336697
19	0x3be19767	0.0068845036
20	0x3c68acf9	0.014201396
21	0x3c6b8d3f	0.014376937
22	0xbd51c223	-0.051210534
23	0xbbb62d64	-0.00555961
24	0xbd0522ef	-0.03250402
25	0xbd0253c4	-0.031818166
26	0xbd8a59a3	-0.06755378
27	0x3c4e48ca	0.012590596
28	0x3c353613	0.011060256
29	0xbd62fb72	-0.05541558
30	0x3c776f36	0.015102198
31	0xbbf69508	-0.00752509
32	0x3cb5622e	0.022141542
33	0xbcc31eeb	-0.023818454
34	0x3cc4e25f	0.024033723
35	0xbd6a1036	-0.057144366
36	0x3bcdc9bf	0.0062801535
37	0x3cd8eeda	0.02648108
38	0x3bed1f4f	0.0072363983
39	0x3c1af532	0.009457873
40	0x3ce5338b	0.02797868
41	0xbaadc87a	-0.0013258599
42	0x3c535bfa	0.012900347
43	0xbc908363	-0.017640775
44	0xbc3cc127	-0.0115206605
45	0xbd594220	-0.053041577
46	0xbbbf65bd	-0.0058409856
47	0x3c0382de	0.008026807
48	0xbc9d9e00	-0.01924038
49	0xbd227090	-0.03965813
50	0xbd6244f3	-0.055241536
51	0x3cd9c983	0.026585346
52	0x3c202914	0.009775419
53	0x3934839e	0.00017215169
54	0xbd122bd4	-0.03568633
55	0xbc65e8cd	-0.014032555
56	0xbd5d30f8	-0.05400178
57	0x3ce99fd0	0.028518587
58	0x3b4fc9b3	0.0031705915
59	0xbaa1f3b9	-0.001235596
60	0xbd089c73	-0.033352327
61	0xbcd0a13f	-0.025467513
62	0xbcd2cde1	-0.025732936
63	0xbcdaf5fb	-0.02672862
64	0x3c99e7f0	0.018787354
65	0xbd28b1d8	-0.04118523
66	0xbd305433	-0.04304905
67	0xbd928a31	-0.07155264
68	0xbc51df1f	-0.012809544
69	0xbd0ef6cf	-0.034903344
70	0x3c559631	0.013036297
71	0x3bab6a26	0.0052311597
72	0x3c7e16a7	0.01550833
73	0xbc9e7a0c	-0.019345306
74	0xbc77ffc4	-0.015136663
75	0x39aa7801	0.00032514337
76	0xbd05a8d3	-0.032631706
77	0xbc2fb01c	-0.01072314
78	0xbd07a9af	-0.033120807
79	0x3d023c94	0.031796053
80	0x3cdefcb4	0.027220108
81	0x3c8be111	0.017075093
82	0xbc9bef7f	-0.0190351
83	0x3c658937	0.014009765
84	0x3b6de7cb	0.003630149
85	0xbcc16625	-0.023608277
86	0x3d0f8c8c	0.035046145
87	0x3c05d545	0.008168523
88	0x3b49258c	0.0030692546
89	0x3d284a14	0.04108627
90	0xbd4d18a6	-0.050072335
91	0xbce8f3e3	-0.028436607
92	0x3d11c946	0.03559234
93	0x3d24a257	0.04019388
94	0xbb03412a	-0.0020027854
95	0xbc680708	-0.014161833
96	0xbd07339e	-0.03300821
97	0xbca5189c	-0.020153336
98	0xbd6b7607	-0.057485607
99	0x3c483c26	0.012221372
100	0xbd245ea2	-0.04012931
101	0xbd10706f	-0.035263475
102	0xbd288ce4	-0.04114999
103	0xbc88c0d4	-0.01669351
104	0xbca3e103	-0.020004755
105	0xbc69be2a	-0.01426653
106	0xbd689fc6	-0.056792997
107	0x3c9e491c	0.01932197
108	0xbac286d8	-0.0014841212
109	0x3b61869e	0.0034412513
110	0xbd596a79	-0.053080056
111	0xbd82acfa	-0.06380649
112	0x3c8379b5	0.016049245
113	0xbb1dae1e	-0.002406008
114	0xbc1bbce3	-0.009505483
115	0xba5adff5	-0.0008349412
116	0x3d0f9e35	0.035062987
117	0xbcf4eb93	-0.029897487
118	0xbb30c50b	-0.0026972916
119	0x3d03af72	0.03214974
120	0xbd613cf1	-0.05498976
121	0xbcf5ef95	-0.030021468
122	0xbd5e1609	-0.054220233
123	0xbd266f0f	-0.040633257
124	0x3cf70425	0.030153343
125	0xbcbd183c	-0.023082845
126	0xbd2a70fe	-0.041611664
127	0xbd46b05b	-0.04850803
128	0x3b81f9ad	0.0039665313
129	0xbce108c6	-0.027470004
130	0x3a5c5021	0.0008404274
131	0x3d14d103	0.03633214
132	0x3ce55c84	0.027998216
133	0x3d1ece13	0.038770746
134	0xbcc4242a	-0.023943026
135	0xbd13cb50	-0.036082566
136	0xbb8f969f	-0.004381969
137	0xbd19fd38	-0.037595004
138	0x3c9f1348	0.019418374
139	0x3d029e83	0.03188945
140	0x3c80c47a	0.015718687
141	0xbcc68f82	-0.024238352
142	0xbd530f48	-0.051528245
143	0xbcb4bd11	-0.02206281
144	0x3d14ae64	0.036299124
145	0xbbcbab79	-0.0062155095
146	0x3c0965d5	0.008386095
147	0xbce2dd7d	-0.027693504
148	0x3cb1ac9a	0.021688748
149	0xbd257339	-0.040393088
150	0x3cfa813c	0.030579202
151	0x3cc72c7b	0.024313202
152	0xbd38cd00	-0.04511738
153	0xbd219184	-0.039445415
154	0x3cfc9e82	0.030837301
155	0xbd38147a	-0.044941403
156	0xbc8bfcb3	-0.01708827
157	0x3c6a5282	0.014301898
158	0xbc83bbc8	-0.016080752
159	0xbd71e62d	-0.059057403
160	0xbd310b1f	-0.043223497
161	0x3c567450	0.0130892545
162	0x3cf2aa15	0.029622117
163	0xbd2b1388	-0.041766673
164	0xbc1edbad	-0.0096959295
165	0x3c0bb5c1	0.00852722
166	0xbd175f5e	-0.036956184
167	0xbc73e4fc	-0.014886137
168	0x3ce4a02e	0.02790841
169	0x3b8a1e80	0.0042150617
170	0xbd72acf0	-0.059246957
171	0x3a9048e9	0.0011008057
172	0x3cb3aca1	0.021932902
173	0xbd01ee9d	-0.0317217
174	0xbb918643	-0.004441054
175	0x3c8db5d2	0.017298613
176	0x3c204a30	0.009783313
177	0x3bc28758	0.0059365444
178	0xbc174fc5	-0.009235327
179	0xbd630366	-0.055423163
180	0xbb71d72c	-0.0036901934
181	0xbc24253f	-0.010018646
182	0x3ca2db80	0.019880056
183	0xbd61b7e6	-0.05510702
184	0x3d00b721	0.031424645
185	0xbc850b71	-0.016240807
186	0xbd01f787	-0.0317302
187	0xbd7d6e7e	-0.06187295
188	0x3cd5f34c	0.02611699
189	0xbd44d92f	-0.048058685
190	0xbcc3f826	-0.023922037
191	0xbc9d89ed	-0.019230807
192	0xbd3204e6	-0.043461703
193	0xbd875998	-0.066088855
194	0x3c9f5f8a	0.019454736
195	0x3be566ca	0.007000779
196	0xbcc237b7	-0.023708208
197	0xbbbb30f8	-0.0057126246
198	0x3c9b0d6c	0.018927298
199	0x3bef069e	0.00729449
200	0x3cd99a50	0.02656284
201	0xbd5472a3	-0.05186714
202	0x3c73cdf5	0.014880647
203	0x3d25c2f6	0.040469132
204	0xbd053e61	-0.032530192
205	0xbc49d972	-0.012319909
206	0xbca9cb80	-0.02072692
207	0x3c3d79f5	0.011564721
208	0xbd70ae59	-0.05876002
209	0xbd6c91a1	-0.05775607
210	0x3cb860a1	0.022507014
211	0x3c90ee1f	0.01769167
212	0xbd23ae00	-0.03996086
213	0xbc44498e	-0.011980427
214	0xbcdc197e	-0.026867624
215	0xbd823ae1	-0.063588865
216	0xbcd1fb33	-0.025632476
217	0x3d00101c	0.031265363
218	0xbcc40eef	-0.023932902
219	0xbd4aa7b9	-0.04947636
220	0x3cfabec9	0.030608552
221	0xbce04fd2	-0.027381811
222	0xbd459d32	-0.048245616
223	0xbcfb2b68	-0.030660346
224	0x3b5d4fd7	0.0033769512
225	0xbcc763d5	-0.024339596
226	0xbc758ea6	-0.014987623
227	0x3d1b6df2	0.03794665
228	0xbd31a088	-0.043365985
229	0xbb8ec6cf	-0.004357196
230	0x3b989523	0.0046564504
231	0xbd828564	-0.063730985
232	0xbd60cbd2	-0.05488188
233	0x3ab03953	0.0013444818
234	0xbd5c9753	-0.05385525
235	0xbd102b18	-0.035197347
236	0x3d334872	0.04377026
237	0xbd4f4954	-0.05060704
238	0xbc60c60d	-0.013719094
239	0xbd2e3823	-0.042534005
240	0xbc0889f9	-0.0083336765
241	0xbcbd3af8	-0.023099408
242	0xbc81e8c2	-0.015858058
243	0xbd501a9b	-0.050806623
244	0xbc4ca352	-0.0124901105
245	0x3d0d8e94	0.0345598
246	0xbd81abf9	-0.06331629
247	0xbd4fdbba	-0.050746657
248	0xbce22991	-0.027607711
249	0xbc51248a	-0.012765059
250	0x3d02bf1a	0.03192053
251	0x3c5ce829	0.013483086
252	0x3ce42629	0.027850227
253	0xbd397553	-0.045277905
254	0xbd010b89	-0.03150514
255	0xbd99132d	-0.074743606

base.fc1.bias f4 [400]
0	0x3d840307	0.0644589
1	0xbf08a015	-0.53369266
2	0x3e1ed154	0.1550954
3	0xbe5c4419	-0.21510352
4	0x3ec2b924	0.38031876
5	0x3d959bd9	0.07305116
6	0x3e8cc441	0.2749348
7	0x3ee402a4	0.44533265
8	0xbe75237d	-0.23939319
9	0xbd38109b	-0.04493771
10	0xbec7e525	-0.3904201
11	0xbd78fe41	-0.06078935
12	0x3d96e45f	0.07367777
13	0xbe409271	-0.18805863
14	0x3e3fd1fb	0.18732445
15	0xbdf2f178	-0.11862463
16	0xbe8e63e0	-0.27810574
17	0x3dc472ab	0.09592184
18	0x3d8ee9a1	0.06978155
19	0x3da04c93	0.078271054
20	0xbda9309e	-0.08261226
21	0x3c863fd7	0.016387863
22	0xbea754c7	-0.32681867
23	0x3d037da5	0.032102246
24	0xbe42f59a	-0.19039002
25	0xbe45bb94	-0.19309837
26	0xbf0db732	-0.5535766
27	0x3e96da7f	0.29463574
28	0x3d8a7526	0.067606255
29	0x3d6cb77b	0.057792168
30	0x3d69e4d3	0.05710299
31	0xbeb4a9f4	-0.35285914
32	0x3e3861ed	0.18006106
33	0xbd95abc1	-0.0730815
34	0xbc5aa392	-0.013344662
35	0xbdabc4ca	-0.08387144
36	0xbec764c2	-0.3894406
37	0xbe54a451	-0.20765807
38	0x3d64876c	0.05579321
39	0xbeaa2edd	-0.3323888
40	0xbe2c783d	-0.16842742
41	0xbe4ada13	-0.19809751
42	0x3f083d5a	0.53218615
43	0x3d97bc7a	0.07408996
44	0x3e9e4fde	0.3092031
45	0xbd9e436d	-0.07727704
46	0x3d73d275	0.05952688
47	0xbdef0b15	-0.116720356
48	0x3e8d4d29	0.2759793
49	0xbc94ac31	-0.018148514
50	0xbe15d05a	-0.14630261
51	0xbec3e809	-0.38262966
52	0x3d73ff1f	0.059569474
53	0x3d8d266a	0.068920925
54	0xbe4021df	-0.18762921
55	0xbef64e6e	-0.48106712
56	0x3fa3f898	1.281024
57	0xbe91995e	-0.28437322
58	0x3d90f60e	0.07078181
59	0x3f148aa1	0.5802403
60	0xbea9997e	-0.33124918
61	0xbe976e5c	-0.29576385
62	0xbe414bcd	-0.18876572
63	0x3d75c2c0	0.06000018
64	0x3d90e0ed	0.07074151
65	0xbef9c996	-0.4878661
66	0xbef1be03	-0.4721528
67	0xbeb4907f	-0.35266492
68	0xbed33343	-0.41250047
69	0xbe9af6dc	-0.30266464
70	0xbea1f50c	-0.31632268
71	0xbe5ea53b	-0.21742718
72	0xbe8abab2	-0.27095562
73	0x3e03ec3c	0.12883085
74	0xbe34e4c5	-0.17665394
75	0x3e2fead7	0.17179428
76	0xbf15f111	-0.58570963
77	0xbcae7c33	-0.021299457
78	0x3c14cce1	0.00908205
79	0x3e09296b	0.13394706
80	0xbe944db3	-0.2896553
81	0x3d813808	0.06309515
82	0xbe9dc5cb	-0.30814967
83	0x3cdf9839	0.027294265
84	0x3f1e6b88	0.6188283
85	0x3d7d2af4	0.06180854
86	0x3d9fb5c4	0.07798341
87	0x3db68687	0.08912378
88	0xbea685ba	-0.325239
89	0x3e199f3c	0.1500215
90	0xbe38c882	-0.18045238
91	0xbef73dd1	-0.4828935
92	0x3e0c13f3	0.13679485
93	0xbe42df9b	-0.19030611
94	0x3d3975e4	0.045278445
95	0x3eac81e1	0.3369284
96	0x3d99fdcb	0.0751911
97	0xbe80da9a	-0.2516678
98	0xbeae5cf2	-0.34055287
99	0x3daf75ba	0.085673764
100	0x3e4d2a2a	0.20035616
101	0x3d8916d1	0.06693805
102	0x3f1f71ee	0.6228322
103	0x3d948c0d	0.07253275
104	0x3d858cc2	0.06520988
105	0x3dc17655	0.09446398
106	0xbe6dd3ae	-0.2322528
107	0x3d68c7d2	0.05683119
108	0x3e5b22ee	0.21400043
109	0xbe923db7	-0.2856271
110	0xbdb0b006	-0.08627324
111	0x3d9bbcc9	0.07604367
112	0xbe274bbb	-0.16337483
113	0xbe9a481d	-0.30133143
114	0xbe04af29	-0.12957443
115	0x3e33b25c	0.17548507
116	0x3d62de3a	0.055387713
117	0x3d353e28	0.04424873
118	0xbeb1a65d	-0.34697238
119	0x3d8904e0	0.06690383
120	0x3d8f3fe0	0.06994605
121	0xbc87b84f	-0.016567377
122	0xbe9dbc75	-0.30807844
123	0x3ebf4c42	0.37362868
124	0x3d8b2326	0.067938134
125	0x3eb82468	0.35965276
126	0xbe8975ae	-0.26847595
127	0x3d37e45f	0.044895526
128	0xbe40bf4e	-0.18822977
129	0x3f4b3b5f	0.7938747
130	0x3d579e6a	0.05264131
131	0x3d95840b	0.07300576
132	0xbeca20d2	-0.39478165
133	0xbed23dd1	-0.41062787
134	0xbeade2ce	-0.339621
135	0x3d9531c2	0.07284881
136	0x3d7cc1b1	0.061708156
137	0x3b98f114	0.0046674106
138	0x3da0969a	0.07841225
139	0xbe94a728	-0.2903378
140	0x3d50de08	0.050992996
141	0x3d836da1	0.064173944
142	0x3d9d4c35	0.07680551
143	0xbdf767e0	-0.120803595
144	0x3d3b0dd5	0.045667488
145	0x3de1f7a9	0.110335656
146	0x3e0b0463	0.13575892
147	0xbf1527b6	-0.5826372
148	0xbe4f7aa7	-0.20261632
149	0xbe1a4ed5	-0.15069135
150	0xbe6f334f	-0.23359416
151	0x3d7cdb36	0.061732493
152	0x3e367bb2	0.17820624
153	0xbe4d8703	-0.20071034
154	0x3d97e6ca	0.074170664
155	0x3d849605	0.064739265
156	0xbd6e1af8	-0.05813119
157	0x3d87a544	0.06623319
158	0x3bfa14de	0.007631882
159	0x3d349e1e	0.044096105
160	0xbd8ed888	-0.06974894
161	0x3d85ccff	0.065332405
162	0xbe4103e1	-0.18849136
163	0x3d9b1203	0.07571795
164	0x3d82f9b0	0.0639528
165	0xbda99824	-0.08280972
166	0x3da2cd5a	0.07949324
167	0x3da268e3	0.07930162
168	0xbde034ae	-0.10947548
169	0xbe8be3d4	-0.27322257
170	0x3d28c313	0.041201662
171	0x3d9c1a95	0.076222576
172	0xbef37af6	-0.4755475
173	0x3da71cfe	0.08159827
174	0xbe679da2	-0.22618726
175	0xbe84d367	-0.25942537
176	0xbeb1ec44	-0.3475057
177	0x3d9993b8	0.07498878
178	0x3d8735e8	0.06602079
179	0xbe2071ff	-0.15668486
180	0xbe7b12fb	-0.24518959
181	0x3d98a924	0.07454136
182	0x3deb304a	0.1148382
183	0xbcb9c530	-0.022677034
184	0xbe81f730	-0.25383902
185	0x3d898a51	0.06715835
186	0xbe2df88c	-0.16989344
187	0xbd41880d	-0.04724889
188	0x3ec2e52b	0.38065466
189	0xbee461e3	-0.44605932
190	0x3d8a0f59	0.067412086
191	0x3d878f7a	0.06619163
192	0xbdf7b8a1	-0.12095762
193	0x3c1935c5	0.009351199
194	0xbe9ed486	-0.31021518
195	0xbeacdc79	-0.33761957
196	0x3e830ec0	0.2559719
197	0xbe9352ba	-0.28774053
198	0x3f13ef84	0.57787347
199	0x3d93e2ce	0.07220994
200	0xbe57e8b8	-0.21084869
201	0x3eaa8bfa	0.3330992
202	0xbd38c343	-0.04510809
203	0x3d8ba1b8	0.06817955
204	0x3e94233f	0.2893314
205	0xbe2765c8	-0.1634742
206	0x3d9251b5	0.07144491
207	0xbe8aad6a	-0.2708543
208	0xbe9d0f7b	-0.30675873
209	0xbeb5aba4	-0.35482514
210	0xbd824ba8	-0.063620865
211	0x3d7f14be	0.06227564
212	0xbe45c890	-0.1931479
213	0x3d929c7c	0.07158753
214	0x3e546996	0.20743403
215	0x3e86749d	0.26260844
216	0x3db020c9	0.08600003
217	0xbb17d3c0	-0.0023166984
218	0xbf36bddd	-0.7138346
219	0x3e473e92	0.19457462
220	0x3d8a9f89	0.0676871
221	0x3e5f6037	0.21814047
222	0xbe5f729c	-0.21821064
223	0x3de1aafc	0.11018941
224	0xbe24a03d	-0.16076751
225	0xbd820a00	-0.063495636
226	0xbe64bc57	-0.22337471
227	0xbdb69a14	-0.08916107
228	0xbddb9e23	-0.107235216
229	0xbd2f6b48	-0.04282692
230	0x3f6f75b2	0.93538964
231	0x3d82d7f7	0.06388848
232	0xbe0e715b	-0.13910429
233	0x3d9ca44b	0.07648524
234	0xbe19ef22	-0.15032628
235	0xbf09cc4c	-0.5382736
236	0x3d8e22ad	0.06940208
237	0xbcb22e0c	-0.021750472
238	0x3bb4199a	0.005496216
239	0x3dd0c010	0.10192883
240	0x3d922895	0.07136647
241	0x3d9ddb83	0.07707884
242	0x3d4100db	0.047119956
243	0x3dbaea9d	0.0912678
244	0xbd90fbae	-0.07079254
245	0xbef3c5ca	-0.4761184
246	0x3e2faadd	0.17155023
247	0xbe4285a1	-0.18996288
248	0x3d8f9c68	0.07012254
249	0x3d512b79	0.05106685
250	0xbdc1c90c	-0.09462175
251	0x3e829dd8	0.2551105
252	0x3ab2958e	0.0013624893
253	0xbef4aef1	-0.4778972
254	0xbec776f5	-0.38957945
255	0xbe9b209a	-0.3029831

last.weight f4 [16, 400]
0	0x3c2ca627	0.010537661
1	0xbd8f5e38	-0.07000393
2	0x3da455e5	0.080241956
3	0xbd9faca7	-0.07796603
4	0xbabfdb18	-0.0014637439
5	0x3bba1fd0	0.005680062
6	0xbdc8dfb8	-0.09808296
7	0x3c012a7f	0.007883667
8	0xbebef8f1	-0.37299302
9	0x3e02510f	0.12726234
10	0x3eceb8c7	0.4037535
11	0x3e35f600	0.17769623
12	0x3c275e65	0.0102153765
13	0x3de94846	0.11390738
14	0x3ca691c6	0.020333182
15	0xbc9a7102	-0.018852714
16	0xbed7b87b	-0.42132935
17	0xbdbf67f6	-0.09346001
18	0xbb8f72df	-0.0043777074
19	0xba6d4765	-0.0009051471
20	0x3ea1c538	0.31595778
21	0x3d82d097	0.063874416
22	0xbe929ebb	-0.28636727
23	0x3cbc3167	0.022972776
24	0xbe4e214c	-0.20129889
25	0x3dfeb6e9	0.12437231
26	0x3e28979c	0.16464084
27	0xbd8f973c	-0.070112675
28	0xbb954355	-0.0045551457
29	0x3cd81c8b	0.026380798
30	0x3bf5f3cf	0.007505871
31	0xbe49db07	-0.19712459
32	0xbdf051be	-0.11734341
33	0x3e119658	0.14217508
34	0x3d5d2597	0.053990927
35	0xbd2d3a50	-0.04229194
36	0x3d540026	0.051757954
37	0xbeab8ace	-0.33504337
38	0xbe2a4ae2	-0.16630128
39	0x3e9ac66c	0.3022951
40	0xbe251dca	-0.16124645
41	0x3d9402e9	0.072271176
42	0xbda8bc6e	-0.08239065
43	0xbc64d465	-0.013966654
44	0xbd87702e	-0.066131935
45	0xbe465c26	-0.1937109
46	0x3b1fb069	0.0024366623
47	0xbdf4b08e	-0.11947738
48	0x3d2c53f8	0.042072266
49	0xbee84676	-0.45366257
50	0xbe07414c	-0.13208503
51	0x3d9c4e1a	0.07632084
52	0xbc6b4ffe	-0.014362333
53	0x3c1f4948	0.009722061
54	0x3da81aec	0.0820826
55	0xbe8c6546	-0.27421016
56	0xbc8cfbca	-0.017209906
57	0xbe0b88e8	-0.13626444
58	0x3b8bf1aa	0.004270752
59	0xbe3f8212	-0.18701962
60	0x3f0a3d99	0.5400024
61	0x3f090571	0.5352393
62	0x3de1f716	0.11033456
63	0x3b1cb136	0.0023909337
64	0xbc6ab91d	-0.014326361
65	0x3e88a6b9	0.266897
66	0xbe87ce2c	-0.26524484
67	0x3e3d1128	0.18463576
68	0xbc11c5b1	-0.008897231
69	0x3f1223c9	0.57085854
70	0xbd237f29	-0.03991619
71	0xbdfb28ad	-0.12263618
72	0x3f0c8900	0.54896545
73	0x3e816430	0.2527175
74	0xbdcf7d7e	-0.101313576
75	0xbc2305d9	-0.009950125
76	0xbe7efc1f	-0.24900864
77	0xbe4e10bd	-0.20123573
78	0xbdb8d2b5	-0.09024564
79	0xbdb15747	-0.08659225
80	0xbeace445	-0.33767906
81	0x3e24861c	0.16066784
82	0xbcbac624	-0.022799559
83	0x3e3c1e34	0.18370897
84	0x3cd18a5d	0.025578672
85	0xbb9d4c64	-0.0048003662
86	0x3a6c7f3b	0.00090216444
87	0x3e2641a6	0.1623598
88	0xbf0bf5a4	-0.5467169
89	0x3cb940ed	0.022613967
90	0x3abd5411	0.0014444609
91	0x3c5a511f	0.013325005
92	0xbe09cc44	-0.13456827
93	0xbd5828ac	-0.052773163
94	0x3dbc0acc	0.09181747
95	0x3cbcd151	0.023049029
96	0x3a701778	0.00091587706
97	0xbe61383e	-0.21994111
98	0xbec2f9c3	-0.38081178
99	0xbc50cc0d	-0.012743962
100	0xbe7edc66	-0.24888763
101	0x3b1b3e60	0.0023688301
102	0x3ea57206	0.32313555
103	0xbc8846ee	-0.016635384
104	0x3c2a1f28	0.010383405
105	0x3e54f41b	0.20796244
106	0xbe712db4	-0.2355259
107	0x3bcf7d73	0.0063320934
108	0x3d05dd16	0.032681547
109	0xbcc83a44	-0.024441846
110	0xbe07ea49	-0.13272966
111	0x3e15d4d8	0.14631975
112	0x3d59d35e	0.05318009
113	0xbe618d26	-0.220265
114	0xbcaec433	-0.02133379
115	0x3d7b42a6	0.061342858
116	0xbca65175	-0.020302514
117	0x3df166ec	0.11787209
118	0xbca4a4d0	-0.02009812
119	0x3c908f61	0.017646493
120	0x3c92e28e	0.017930295
121	0x3b9916be	0.0046719005
122	0x3da97520	0.08274293
123	0x3c90cf53	0.017676985
124	0x3bd19d28	0.0063969083
125	0x3decf31c	0.11569807
126	0x3eccdf9f	0.4001436
127	0xbb35d541	-0.0027745517
128	0x3d0e2905	0.034707088
129	0x3e84671b	0.25859913
130	0xbcef86b9	-0.029239045
131	0x3c13d175	0.009022106
132	0xbe24d410	-0.1609652
133	0x3e77fbb0	0.24217105
134	0x3e9e8e8f	0.3096814
135	0x3cd117c2	0.025524024
136	0xbb9ac8b0	-0.004723631
137	0xbdda8f12	-0.1067182
138	0xbc42f908	-0.011900194
139	0x3cb51ed4	0.022109427
140	0xbe6bf20c	-0.23041552
141	0x3b9bd8e8	0.004756082
142	0x3c89355c	0.016749077
143	0xbee0aafe	-0.43880457
144	0xbe00464f	-0.1252682
145	0x3e4ca0d1	0.19983222
146	0xbde261d5	-0.11053816
147	0x3d06abb4	0.032878593
148	0x3e04fcfa	0.12987128
149	0x3dceadfa	0.10091777
150	0xbd6d1d70	-0.057889402
151	0x3bd44feb	0.0064792535
152	0x3d8ecfee	0.06973253
153	0xbee2a811	-0.4426885
154	0x3ce6322b	0.028100094
155	0x3c4305b8	0.011903219
156	0x3e9c8e20	0.30577183
157	0x3ca38e90	0.01996544
158	0xbcc3b203	-0.023888594
159	0x3d9f4e89	0.07778651
160	0xbe7ab75d	-0.2448401
161	0xbc22294c	-0.009897541
162	0xbd819ac8	-0.0632835
163	0x3b5f4535	0.003406835
164	0x3c7ccc18	0.015429519
165	0x3eaf9f9b	0.34301457
166	0xbbf53abd	-0.007483809
167	0x3bd83577	0.0065981704
168	0xbcde5460	-0.027139843
169	0x3e1bf561	0.15230323
170	0xbde741c8	-0.11291844
171	0x3ad2a336	0.0016070369
172	0x3d928fee	0.07156359
173	0x3c10aa82	0.008829715
174	0xbe69729c	-0.22797626
175	0xbcc607ed	-0.024173701
176	0xbd316435	-0.043308455
177	0x3b2e18d8	0.00265651
178	0xbbf3cd8f	-0.007440276
179	0xbdb60aee	-0.088888034
180	0xbda012ef	-0.07816111
181	0x3c9fa96e	0.01948997
182	0x3e1d54cb	0.15364377
183	0xbdbd0a9e	-0.09230541
184	0xbe0d4151	-0.13794447
185	0x3c2e04f9	0.010621303
186	0xbe14e653	-0.14540987
187	0x3e904ff7	0.28186008
188	0x3e53186e	0.20614788
189	0xbec6f5a2	-0.38859278
190	0x3bc376fd	0.0059651122
191	0x3c14c97b	0.00908124
192	0x3e29f52d	0.16597433
193	0x3d9fbe1d	0.07799933
194	0x3e82c37d	0.2553977
195	0x3cb2c0be	0.021820422
196	0xbe2a8360	-0.16651678
197	0x3f14b6cc	0.58091426
198	0xbda6f80e	-0.081527814
199	0x3c6a9da3	0.01431981
200	0x3d698006	0.05700686
201	0x3dea9587	0.11454301
202	0x3df34732	0.11878814
203	0x3e0e4932	0.1389511
204	0x3cde41ba	0.02713095
205	0xbceb6a74	-0.028737284
206	0xbc66429a	-0.014053965
207	0x3e2797ff	0.16366576
208	0x3d0114db	0.03151403
209	0xbdfed60f	-0.12443172
210	0x3e5c2bd1	0.2150109
211	0x3eaabc1f	0.3334665
212	0x3eb027d8	0.34405398
213	0x3c2db661	0.010602565
214	0xbd033396	-0.032031618
215	0x3e469e65	0.1939636
216	0x3c983456	0.018579643
217	0xbe960d61	-0.29307082
218	0x3e4b2d9f	0.19841622
219	0x3d223d1f	0.03960907
220	0x3c47a148	0.012184449
221	0x3d7891a7	0.06068578
222	0xbd84ffa0	-0.06494069
223	0xbda3bff2	-0.07995595
224	0xbde027e1	-0.10945106
225	0x3e11b953	0.14230852
226	0xbe04bb9a	-0.1296219
227	0x3e45f004	0.1932984
228	0xbdbe300a	-0.092865065
229	0xbdb73c78	-0.089470804
230	0xbe21d349	-0.15803255
231	0x3c9bf735	0.019038776
232	0x3e023b3d	0.1271791
233	0x3b807b4e	0.003920949
234	0xbe6792f9	-0.2261466
235	0xbe906558	-0.2820232
236	0x3b4bd3cb	0.003110158
237	0x3e223fc5	0.15844639
238	0xbd09058b	-0.03345255
239	0x3ba33221	0.004980341
240	0x3b73f810	0.0037226714
241	0x3b033153	0.0020018413
242	0x3af73a98	0.0018862067
243	0xbe0c3e4c	-0.1369564
244	0xbe9ab4ce	-0.30216068
245	0x3ea664f7	0.32498905
246	0xbc532655	-0.012887557
247	0xbe360f04	-0.17779166
248	0xbc85ba57	-0.016324205
249	0xbcd63392	-0.026147638
250	0x3e5e1519	0.21687736
251	0xbd7d180f	-0.061790522
252	0x3e4a33d3	0.19746332
253	0xbea8dd5f	-0.32981393
254	0xbe419861	-0.18905784
255	0xbe0104ae	-0.12599441

last.bias f4 [16]
0	0x3da61d0c	0.08111009
1	0xbf67b88d	-0.9051598
2	0x3df7728d	0.12082396
3	0x3dce9e4b	0.10088786
4	0x3e891d09	0.26779965
5	0xbe9bad30	-0.3040557
6	0xbbcbd221	-0.0062201177
7	0xbc5703ed	-0.013123495
8	0x3ef78c62	0.4834929
9	0x3ec3a010	0.38208055
10	0xbe8262ad	-0.2546591
11	0xbdfbe7e0	-0.12300086
12	0xbed107b8	-0.408262
13	0x3d7003e0	0.058597445
14	0x3e04523d	0.12921996
15	0x3e53a7b3	0.20669441
